…
I0114 14:46:00.254202  6124 net.cpp:294] The NetState phase (0) differed from the phase (1) specified by a rule in layer mnist
I0114 14:46:00.254202  6124 net.cpp:294] The NetState phase (0) differed from the phase (1) specified by a rule in layer accuracy
I0114 14:46:00.254678  6124 net.cpp:51] Initializing net from parameters:
name: "LeNet"
state {
  phase: TRAIN
  level: 0
  stage: ""
}
layer {
  name: "mnist"
  type: "Data"
  top: "data"
  top: "label"
  include {
    phase: TRAIN
  }
  transform_param {
    scale: 0.00390625
  }
  data_param {
    source: "./data2/rail_train_lmdb"
    batch_size: 32
    backend: LMDB
  }
}
layer {
  name: "conv1"
  type: "Convolution"
  bottom: "data"
  top: "conv1"
  param {
    lr_mult: 1
  }
  param {
    lr_mult: 2
  }
  convolution_param {
    num_output: 30
    kernel_size: 5
    stride: 1
    weight_filler {
      type: "xavier"
    }
    bias_filler {
      type: "constant"
    }
  }
}
layer {
  name: "relu1"
  type: "ReLU"
  bottom: "conv1"
  top: "conv1"
}
layer {
  name: "norm1"
  type: "LRN"
  bottom: "conv1"
  top: "norm1"
  lrn_param {
    local_size: 5
    alpha: 0.0001
    beta: 0.75
  }
}
layer {
  name: "pool1"
  type: "Pooling"
  bottom: "norm1"
  top: "pool1"
  pooling_param {
    pool: MAX
    kernel_size: 3
    stride: 2
  }
}
layer {
  name: "conv2"
  type: "Convolution"
  bottom: "pool1"
  top: "conv2"
  param {
    lr_mult: 1
  }
  param {
    lr_mult: 2
  }
  convolution_param {
    num_output: 30
    kernel_size: 5
    stride: 1
    weight_filler {
      type: "xavier"
    }
    bias_filler {
      type: "constant"
    }
  }
}
layer {
  name: "relu2"
  type: "ReLU"
  bottom: "conv2"
  top: "conv2"
}
layer {
  name: "norm2"
  type: "LRN"
  bottom: "conv2"
  top: "norm2"
  lrn_param {
    local_size: 5
    alpha: 0.0001
    beta: 0.75
  }
}
layer {
  name: "pool2"
  type: "Pooling"
  bottom: "norm2"
  top: "pool2"
  pooling_param {
    pool: MAX
    kernel_size: 3
    stride: 2
  }
}
layer {
  name: "conv3"
  type: "Convolution"
  bottom: "pool2"
  top: "conv3"
  param {
    lr_mult: 1
  }
  param {
    lr_mult: 2
  }
  convolution_param {
    num_output: 30
    kernel_size: 5
    stride: 1
    weight_filler {
      type: "xavier"
    }
    bias_filler {
      type: "constant"
    }
  }
}
layer {
  name: "relu3"
  type: "ReLU"
  bottom: "conv3"
  top: "conv3"
}
layer {
  name: "norm3"
  type: "LRN"
  bottom: "conv3"
  top: "norm3"
  lrn_param {
    local_size: 5
    alpha: 0.0001
    beta: 0.75
  }
}
layer {
  name: "pool3"
  type: "Pooling"
  bottom: "norm3"
  top: "pool3"
  pooling_param {
    pool: MAX
    kernel_size: 3
    stride: 2
  }
}
layer {
  name: "conv4"
  type: "Convolution"
  bottom: "pool3"
  top: "conv4"
  param {
    lr_mult: 1
  }
  param {
    lr_mult: 2
  }
  convolution_param {
    num_output: 50
    kernel_size: 5
    stride: 1
    weight_filler {
      type: "xavier"
    }
    bias_filler {
      type: "constant"
    }
  }
}
layer {
  name: "relu4"
  type: "ReLU"
  bottom: "conv4"
  top: "conv4"
}
layer {
  name: "norm4"
  type: "LRN"
  bottom: "conv4"
  top: "norm4"
  lrn_param {
    local_size: 5
    alpha: 0.0001
    beta: 0.75
  }
}
layer {
  name: "pool4"
  type: "Pooling"
  bottom: "norm4"
  top: "pool4"
  pooling_param {
    pool: MAX
    kernel_size: 3
    stride: 2
  }
}
layer {
  name: "ip1"
  type: "InnerProduct"
  bottom: "pool4"
  top: "ip1"
  param {
    lr_mult: 1
  }
  param {
    lr_mult: 2
  }
  inner_product_param {
    num_output: 50
    weight_filler {
      type: "xavier"
    }
    bias_filler {
      type: "constant"
    }
  }
}
layer {
  name: "relu5"
  type: "ReLU"
  bottom: "ip1"
  top: "ip1"
}
layer {
  name: "drop5"
  type: "Dropout"
  bottom: "ip1"
  top: "ip1"
  dropout_param {
    dropout_ratio: 0.5
  }
}
layer {
  name: "ip2"
  type: "InnerProduct"
  bottom: "ip1"
  top: "ip2"
  param {
    lr_mult: 1
  }
  param {
    lr_mult: 2
  }
  inner_product_param {
    num_output: 7
    weight_filler {
      type: "xavier"
    }
    bias_filler {
      type: "constant"
    }
  }
}
layer {
  name: "loss"
  type: "SoftmaxWithLoss"
  bottom: "ip2"
  bottom: "label"
  top: "loss"
}
I0114 14:46:00.258186  6124 layer_factory.cpp:58] Creating layer mnist
I0114 14:46:00.263255  6124 db_lmdb.cpp:40] Opened lmdb ./data2/rail_train_lmdb
I0114 14:46:00.263255  6124 net.cpp:84] Creating Layer mnist
I0114 14:46:00.263700  6124 net.cpp:380] mnist -> data
I0114 14:46:00.264201  6124 net.cpp:380] mnist -> label
I0114 14:46:00.265707  6124 data_layer.cpp:45] output data size: 32,3,200,200
I0114 14:46:00.297791  6124 common.cpp:36] System entropy source not available, using fallback algorithm to generate seed instead.
I0114 14:46:00.297791  6124 net.cpp:122] Setting up mnist
I0114 14:46:00.298794  6124 net.cpp:129] Top shape: 32 3 200 200 (3840000)
I0114 14:46:00.299798  6124 net.cpp:129] Top shape: 32 (32)
I0114 14:46:00.299798  6124 net.cpp:137] Memory required for data: 15360128
I0114 14:46:00.299798  6124 layer_factory.cpp:58] Creating layer conv1
I0114 14:46:00.299798  6124 net.cpp:84] Creating Layer conv1
I0114 14:46:00.299798  6124 net.cpp:406] conv1 <- data
I0114 14:46:00.300801  1132 common.cpp:36] System entropy source not available, using fallback algorithm to generate seed instead.
I0114 14:46:00.300801  6124 net.cpp:380] conv1 -> conv1
I0114 14:46:00.686364  6124 net.cpp:122] Setting up conv1
I0114 14:46:00.686864  6124 net.cpp:129] Top shape: 32 30 196 196 (36879360)
I0114 14:46:00.687867  6124 net.cpp:137] Memory required for data: 162877568
I0114 14:46:00.688369  6124 layer_factory.cpp:58] Creating layer relu1
I0114 14:46:00.688369  6124 net.cpp:84] Creating Layer relu1
I0114 14:46:00.688870  6124 net.cpp:406] relu1 <- conv1
I0114 14:46:00.688870  6124 net.cpp:367] relu1 -> conv1 (in-place)
I0114 14:46:00.689398  6124 net.cpp:122] Setting up relu1
I0114 14:46:00.689398  6124 net.cpp:129] Top shape: 32 30 196 196 (36879360)
I0114 14:46:00.689873  6124 net.cpp:137] Memory required for data: 310395008
I0114 14:46:00.690374  6124 layer_factory.cpp:58] Creating layer norm1
I0114 14:46:00.690874  6124 net.cpp:84] Creating Layer norm1
I0114 14:46:00.690874  6124 net.cpp:406] norm1 <- conv1
I0114 14:46:00.691377  6124 net.cpp:380] norm1 -> norm1
I0114 14:46:00.692379  6124 net.cpp:122] Setting up norm1
I0114 14:46:00.692379  6124 net.cpp:129] Top shape: 32 30 196 196 (36879360)
I0114 14:46:00.692880  6124 net.cpp:137] Memory required for data: 457912448
I0114 14:46:00.692880  6124 layer_factory.cpp:58] Creating layer pool1
I0114 14:46:00.693382  6124 net.cpp:84] Creating Layer pool1
I0114 14:46:00.693382  6124 net.cpp:406] pool1 <- norm1
I0114 14:46:00.693382  6124 net.cpp:380] pool1 -> pool1
I0114 14:46:00.693882  6124 net.cpp:122] Setting up pool1
I0114 14:46:00.693882  6124 net.cpp:129] Top shape: 32 30 98 98 (9219840)
I0114 14:46:00.694384  6124 net.cpp:137] Memory required for data: 494791808
I0114 14:46:00.694384  6124 layer_factory.cpp:58] Creating layer conv2
I0114 14:46:00.694384  6124 net.cpp:84] Creating Layer conv2
I0114 14:46:00.694885  6124 net.cpp:406] conv2 <- pool1
I0114 14:46:00.694885  6124 net.cpp:380] conv2 -> conv2
I0114 14:46:00.697393  6124 net.cpp:122] Setting up conv2
I0114 14:46:00.697393  6124 net.cpp:129] Top shape: 32 30 94 94 (8482560)
I0114 14:46:00.697893  6124 net.cpp:137] Memory required for data: 528722048
I0114 14:46:00.697893  6124 layer_factory.cpp:58] Creating layer relu2
I0114 14:46:00.698395  6124 net.cpp:84] Creating Layer relu2
I0114 14:46:00.698395  6124 net.cpp:406] relu2 <- conv2
I0114 14:46:00.698896  6124 net.cpp:367] relu2 -> conv2 (in-place)
I0114 14:46:00.699398  6124 net.cpp:122] Setting up relu2
I0114 14:46:00.699398  6124 net.cpp:129] Top shape: 32 30 94 94 (8482560)
I0114 14:46:00.699398  6124 net.cpp:137] Memory required for data: 562652288
I0114 14:46:00.699898  6124 layer_factory.cpp:58] Creating layer norm2
I0114 14:46:00.699898  6124 net.cpp:84] Creating Layer norm2
I0114 14:46:00.699898  6124 net.cpp:406] norm2 <- conv2
I0114 14:46:00.700399  6124 net.cpp:380] norm2 -> norm2
I0114 14:46:00.700901  6124 net.cpp:122] Setting up norm2
I0114 14:46:00.700901  6124 net.cpp:129] Top shape: 32 30 94 94 (8482560)
I0114 14:46:00.701402  6124 net.cpp:137] Memory required for data: 596582528
I0114 14:46:00.701402  6124 layer_factory.cpp:58] Creating layer pool2
I0114 14:46:00.701402  6124 net.cpp:84] Creating Layer pool2
I0114 14:46:00.701903  6124 net.cpp:406] pool2 <- norm2
I0114 14:46:00.701903  6124 net.cpp:380] pool2 -> pool2
I0114 14:46:00.701903  6124 net.cpp:122] Setting up pool2
I0114 14:46:00.702405  6124 net.cpp:129] Top shape: 32 30 47 47 (2120640)
I0114 14:46:00.703910  6124 net.cpp:137] Memory required for data: 605065088
I0114 14:46:00.704411  6124 layer_factory.cpp:58] Creating layer conv3
I0114 14:46:00.704411  6124 net.cpp:84] Creating Layer conv3
I0114 14:46:00.704913  6124 net.cpp:406] conv3 <- pool2
I0114 14:46:00.704913  6124 net.cpp:380] conv3 -> conv3
I0114 14:46:00.706918  6124 net.cpp:122] Setting up conv3
I0114 14:46:00.707444  6124 net.cpp:129] Top shape: 32 30 43 43 (1775040)
I0114 14:46:00.707444  6124 net.cpp:137] Memory required for data: 612165248
I0114 14:46:00.707921  6124 layer_factory.cpp:58] Creating layer relu3
I0114 14:46:00.707921  6124 net.cpp:84] Creating Layer relu3
I0114 14:46:00.707921  6124 net.cpp:406] relu3 <- conv3
I0114 14:46:00.708421  6124 net.cpp:367] relu3 -> conv3 (in-place)
I0114 14:46:00.708922  6124 net.cpp:122] Setting up relu3
I0114 14:46:00.708922  6124 net.cpp:129] Top shape: 32 30 43 43 (1775040)
I0114 14:46:00.708922  6124 net.cpp:137] Memory required for data: 619265408
I0114 14:46:00.709424  6124 layer_factory.cpp:58] Creating layer norm3
I0114 14:46:00.709424  6124 net.cpp:84] Creating Layer norm3
I0114 14:46:00.709424  6124 net.cpp:406] norm3 <- conv3
I0114 14:46:00.709924  6124 net.cpp:380] norm3 -> norm3
I0114 14:46:00.710427  6124 net.cpp:122] Setting up norm3
I0114 14:46:00.710427  6124 net.cpp:129] Top shape: 32 30 43 43 (1775040)
I0114 14:46:00.710427  6124 net.cpp:137] Memory required for data: 626365568
I0114 14:46:00.710928  6124 layer_factory.cpp:58] Creating layer pool3
I0114 14:46:00.710928  6124 net.cpp:84] Creating Layer pool3
I0114 14:46:00.710928  6124 net.cpp:406] pool3 <- norm3
I0114 14:46:00.711429  6124 net.cpp:380] pool3 -> pool3
I0114 14:46:00.711429  6124 net.cpp:122] Setting up pool3
I0114 14:46:00.711930  6124 net.cpp:129] Top shape: 32 30 21 21 (423360)
I0114 14:46:00.711930  6124 net.cpp:137] Memory required for data: 628059008
I0114 14:46:00.711930  6124 layer_factory.cpp:58] Creating layer conv4
I0114 14:46:00.712431  6124 net.cpp:84] Creating Layer conv4
I0114 14:46:00.712431  6124 net.cpp:406] conv4 <- pool3
I0114 14:46:00.712934  6124 net.cpp:380] conv4 -> conv4
I0114 14:46:00.715440  6124 net.cpp:122] Setting up conv4
I0114 14:46:00.715440  6124 net.cpp:129] Top shape: 32 50 17 17 (462400)
I0114 14:46:00.715440  6124 net.cpp:137] Memory required for data: 629908608
I0114 14:46:00.715941  6124 layer_factory.cpp:58] Creating layer relu4
I0114 14:46:00.715941  6124 net.cpp:84] Creating Layer relu4
I0114 14:46:00.716442  6124 net.cpp:406] relu4 <- conv4
I0114 14:46:00.716442  6124 net.cpp:367] relu4 -> conv4 (in-place)
I0114 14:46:00.717447  6124 net.cpp:122] Setting up relu4
I0114 14:46:00.717447  6124 net.cpp:129] Top shape: 32 50 17 17 (462400)
I0114 14:46:00.717447  6124 net.cpp:137] Memory required for data: 631758208
I0114 14:46:00.717447  6124 layer_factory.cpp:58] Creating layer norm4
I0114 14:46:00.717947  6124 net.cpp:84] Creating Layer norm4
I0114 14:46:00.719954  6124 net.cpp:406] norm4 <- conv4
I0114 14:46:00.719954  6124 net.cpp:380] norm4 -> norm4
I0114 14:46:00.720955  6124 net.cpp:122] Setting up norm4
I0114 14:46:00.720955  6124 net.cpp:129] Top shape: 32 50 17 17 (462400)
I0114 14:46:00.720955  6124 net.cpp:137] Memory required for data: 633607808
I0114 14:46:00.721457  6124 layer_factory.cpp:58] Creating layer pool4
I0114 14:46:00.721957  6124 net.cpp:84] Creating Layer pool4
I0114 14:46:00.721957  6124 net.cpp:406] pool4 <- norm4
I0114 14:46:00.722460  6124 net.cpp:380] pool4 -> pool4
I0114 14:46:00.722460  6124 net.cpp:122] Setting up pool4
I0114 14:46:00.722960  6124 net.cpp:129] Top shape: 32 50 8 8 (102400)
I0114 14:46:00.722960  6124 net.cpp:137] Memory required for data: 634017408
I0114 14:46:00.722960  6124 layer_factory.cpp:58] Creating layer ip1
I0114 14:46:00.723461  6124 net.cpp:84] Creating Layer ip1
I0114 14:46:00.723461  6124 net.cpp:406] ip1 <- pool4
I0114 14:46:00.723963  6124 net.cpp:380] ip1 -> ip1
I0114 14:46:00.725970  6124 net.cpp:122] Setting up ip1
I0114 14:46:00.725970  6124 net.cpp:129] Top shape: 32 50 (1600)
I0114 14:46:00.725970  6124 net.cpp:137] Memory required for data: 634023808
I0114 14:46:00.726469  6124 layer_factory.cpp:58] Creating layer relu5
I0114 14:46:00.726469  6124 net.cpp:84] Creating Layer relu5
I0114 14:46:00.726971  6124 net.cpp:406] relu5 <- ip1
I0114 14:46:00.726971  6124 net.cpp:367] relu5 -> ip1 (in-place)
I0114 14:46:00.728003  6124 net.cpp:122] Setting up relu5
I0114 14:46:00.728003  6124 net.cpp:129] Top shape: 32 50 (1600)
I0114 14:46:00.728003  6124 net.cpp:137] Memory required for data: 634030208
I0114 14:46:00.728474  6124 layer_factory.cpp:58] Creating layer drop5
I0114 14:46:00.728474  6124 net.cpp:84] Creating Layer drop5
I0114 14:46:00.728976  6124 net.cpp:406] drop5 <- ip1
I0114 14:46:00.728976  6124 net.cpp:367] drop5 -> ip1 (in-place)
I0114 14:46:00.729478  6124 net.cpp:122] Setting up drop5
I0114 14:46:00.729478  6124 net.cpp:129] Top shape: 32 50 (1600)
I0114 14:46:00.729478  6124 net.cpp:137] Memory required for data: 634036608
I0114 14:46:00.729979  6124 layer_factory.cpp:58] Creating layer ip2
I0114 14:46:00.729979  6124 net.cpp:84] Creating Layer ip2
I0114 14:46:00.730479  6124 net.cpp:406] ip2 <- ip1
I0114 14:46:00.730479  6124 net.cpp:380] ip2 -> ip2
I0114 14:46:00.730981  6124 net.cpp:122] Setting up ip2
I0114 14:46:00.730981  6124 net.cpp:129] Top shape: 32 7 (224)
I0114 14:46:00.730981  6124 net.cpp:137] Memory required for data: 634037504
I0114 14:46:00.730981  6124 layer_factory.cpp:58] Creating layer loss
I0114 14:46:00.731482  6124 net.cpp:84] Creating Layer loss
I0114 14:46:00.731482  6124 net.cpp:406] loss <- ip2
I0114 14:46:00.731983  6124 net.cpp:406] loss <- label
I0114 14:46:00.731983  6124 net.cpp:380] loss -> loss
I0114 14:46:00.731983  6124 layer_factory.cpp:58] Creating layer loss
…
I0114 14:46:00.741509  6124 solver.cpp:172] Creating test net (#0) specified by net file: ./lenet_train_test.prototxt
I0114 14:46:00.741509  6124 net.cpp:294] The NetState phase (1) differed from the phase (0) specified by a rule in layer mnist
I0114 14:46:00.741509  6124 net.cpp:51] Initializing net from parameters:
name: "LeNet"
state {
  phase: TEST
}
layer {
  name: "mnist"
  type: "Data"
  top: "data"
  top: "label"
  include {
    phase: TEST
  }
  transform_param {
    scale: 0.00390625
  }
  data_param {
    source: "./data2/rail_val_lmdb"
    batch_size: 100
    backend: LMDB
  }
}
layer {
  name: "conv1"
  type: "Convolution"
  bottom: "data"
  top: "conv1"
  param {
    lr_mult: 1
  }
  param {
    lr_mult: 2
  }
  convolution_param {
    num_output: 30
    kernel_size: 5
    stride: 1
    weight_filler {
      type: "xavier"
    }
    bias_filler {
      type: "constant"
    }
  }
}
layer {
  name: "relu1"
  type: "ReLU"
  bottom: "conv1"
  top: "conv1"
}
layer {
  name: "norm1"
  type: "LRN"
  bottom: "conv1"
  top: "norm1"
  lrn_param {
    local_size: 5
    alpha: 0.0001
    beta: 0.75
  }
}
layer {
  name: "pool1"
  type: "Pooling"
  bottom: "norm1"
  top: "pool1"
  pooling_param {
    pool: MAX
    kernel_size: 3
    stride: 2
  }
}
layer {
  name: "conv2"
  type: "Convolution"
  bottom: "pool1"
  top: "conv2"
  param {
    lr_mult: 1
  }
  param {
    lr_mult: 2
  }
  convolution_param {
    num_output: 30
    kernel_size: 5
    stride: 1
    weight_filler {
      type: "xavier"
    }
    bias_filler {
      type: "constant"
    }
  }
}
layer {
  name: "relu2"
  type: "ReLU"
  bottom: "conv2"
  top: "conv2"
}
layer {
  name: "norm2"
  type: "LRN"
  bottom: "conv2"
  top: "norm2"
  lrn_param {
    local_size: 5
    alpha: 0.0001
    beta: 0.75
  }
}
layer {
  name: "pool2"
  type: "Pooling"
  bottom: "norm2"
  top: "pool2"
  pooling_param {
    pool: MAX
    kernel_size: 3
    stride: 2
  }
}
layer {
  name: "conv3"
  type: "Convolution"
  bottom: "pool2"
  top: "conv3"
  param {
    lr_mult: 1
  }
  param {
    lr_mult: 2
  }
  convolution_param {
    num_output: 30
    kernel_size: 5
    stride: 1
    weight_filler {
      type: "xavier"
    }
    bias_filler {
      type: "constant"
    }
  }
}
layer {
  name: "relu3"
  type: "ReLU"
  bottom: "conv3"
  top: "conv3"
}
layer {
  name: "norm3"
  type: "LRN"
  bottom: "conv3"
  top: "norm3"
  lrn_param {
    local_size: 5
    alpha: 0.0001
    beta: 0.75
  }
}
layer {
  name: "pool3"
  type: "Pooling"
  bottom: "norm3"
  top: "pool3"
  pooling_param {
    pool: MAX
    kernel_size: 3
    stride: 2
  }
}
layer {
  name: "conv4"
  type: "Convolution"
  bottom: "pool3"
  top: "conv4"
  param {
    lr_mult: 1
  }
  param {
    lr_mult: 2
  }
  convolution_param {
    num_output: 50
    kernel_size: 5
    stride: 1
    weight_filler {
      type: "xavier"
    }
    bias_filler {
      type: "constant"
    }
  }
}
layer {
  name: "relu4"
  type: "ReLU"
  bottom: "conv4"
  top: "conv4"
}
layer {
  name: "norm4"
  type: "LRN"
  bottom: "conv4"
  top: "norm4"
  lrn_param {
    local_size: 5
    alpha: 0.0001
    beta: 0.75
  }
}
layer {
  name: "pool4"
  type: "Pooling"
  bottom: "norm4"
  top: "pool4"
  pooling_param {
    pool: MAX
    kernel_size: 3
    stride: 2
  }
}
layer {
  name: "ip1"
  type: "InnerProduct"
  bottom: "pool4"
  top: "ip1"
  param {
    lr_mult: 1
  }
  param {
    lr_mult: 2
  }
  inner_product_param {
    num_output: 50
    weight_filler {
      type: "xavier"
    }
    bias_filler {
      type: "constant"
    }
  }
}
layer {
  name: "relu5"
  type: "ReLU"
  bottom: "ip1"
  top: "ip1"
}
layer {
  name: "drop5"
  type: "Dropout"
  bottom: "ip1"
  top: "ip1"
  dropout_param {
    dropout_ratio: 0.5
  }
}
layer {
  name: "ip2"
  type: "InnerProduct"
  bottom: "ip1"
  top: "ip2"
  param {
    lr_mult: 1
  }
  param {
    lr_mult: 2
  }
  inner_product_param {
    num_output: 7
    weight_filler {
      type: "xavier"
    }
    bias_filler {
      type: "constant"
    }
  }
}
layer {
  name: "accuracy"
  type: "Accuracy"
  bottom: "ip2"
  bottom: "label"
  top: "accuracy"
  include {
    phase: TEST
  }
}
layer {
  name: "loss"
  type: "SoftmaxWithLoss"
  bottom: "ip2"
  bottom: "label"
  top: "loss"
}
I0114 14:46:00.744015  6124 layer_factory.cpp:58] Creating layer mnist
I0114 14:46:00.747040  6124 db_lmdb.cpp:40] Opened lmdb ./data2/rail_val_lmdb
I0114 14:46:00.747536  6124 net.cpp:84] Creating Layer mnist
I0114 14:46:00.747536  6124 net.cpp:380] mnist -> data
I0114 14:46:00.748026  6124 net.cpp:380] mnist -> label
I0114 14:46:00.748529  6124 data_layer.cpp:45] output data size: 100,3,200,200
I0114 14:46:00.856314  6124 net.cpp:122] Setting up mnist
I0114 14:46:00.856314  6124 net.cpp:129] Top shape: 100 3 200 200 (12000000)
I0114 14:46:00.857826  6124 net.cpp:129] Top shape: 100 (100)
I0114 14:46:00.857826  6124 net.cpp:137] Memory required for data: 48000400
I0114 14:46:00.857826  6124 layer_factory.cpp:58] Creating layer label_mnist_1_split
I0114 14:46:00.857826  6124 net.cpp:84] Creating Layer label_mnist_1_split
I0114 14:46:00.858330  6124 net.cpp:406] label_mnist_1_split <- label
I0114 14:46:00.858330  6124 net.cpp:380] label_mnist_1_split -> label_mnist_1_split_0
I0114 14:46:00.859323  6124 net.cpp:380] label_mnist_1_split -> label_mnist_1_split_1
I0114 14:46:00.859323 12672 common.cpp:36] System entropy source not available, using fallback algorithm to generate seed instead.
I0114 14:46:00.859833  6124 net.cpp:122] Setting up label_mnist_1_split
I0114 14:46:00.860327  6124 net.cpp:129] Top shape: 100 (100)
I0114 14:46:00.860826  6124 net.cpp:129] Top shape: 100 (100)
I0114 14:46:00.860826  6124 net.cpp:137] Memory required for data: 48001200
I0114 14:46:00.861330  6124 layer_factory.cpp:58] Creating layer conv1
I0114 14:46:00.861330  6124 net.cpp:84] Creating Layer conv1
I0114 14:46:00.861829  6124 net.cpp:406] conv1 <- data
I0114 14:46:00.861829  6124 net.cpp:380] conv1 -> conv1
I0114 14:46:00.866355  6124 net.cpp:122] Setting up conv1
I0114 14:46:00.866355  6124 net.cpp:129] Top shape: 100 30 196 196 (115248000)
I0114 14:46:00.866843  6124 net.cpp:137] Memory required for data: 508993200
I0114 14:46:00.867343  6124 layer_factory.cpp:58] Creating layer relu1
I0114 14:46:00.867343  6124 net.cpp:84] Creating Layer relu1
I0114 14:46:00.867846  6124 net.cpp:406] relu1 <- conv1
I0114 14:46:00.867846  6124 net.cpp:367] relu1 -> conv1 (in-place)
I0114 14:46:00.868847  6124 net.cpp:122] Setting up relu1
I0114 14:46:00.868847  6124 net.cpp:129] Top shape: 100 30 196 196 (115248000)
I0114 14:46:00.869350  6124 net.cpp:137] Memory required for data: 969985200
I0114 14:46:00.869851  6124 layer_factory.cpp:58] Creating layer norm1
I0114 14:46:00.869851  6124 net.cpp:84] Creating Layer norm1
I0114 14:46:00.870352  6124 net.cpp:406] norm1 <- conv1
I0114 14:46:00.870859  6124 net.cpp:380] norm1 -> norm1
I0114 14:46:00.871856  6124 net.cpp:122] Setting up norm1
I0114 14:46:00.871856  6124 net.cpp:129] Top shape: 100 30 196 196 (115248000)
I0114 14:46:00.871856  6124 net.cpp:137] Memory required for data: 1430977200
I0114 14:46:00.872367  6124 layer_factory.cpp:58] Creating layer pool1
I0114 14:46:00.872870  6124 net.cpp:84] Creating Layer pool1
I0114 14:46:00.872870  6124 net.cpp:406] pool1 <- norm1
I0114 14:46:00.873359  6124 net.cpp:380] pool1 -> pool1
I0114 14:46:00.875366  6124 net.cpp:122] Setting up pool1
I0114 14:46:00.875869  6124 net.cpp:129] Top shape: 100 30 98 98 (28812000)
I0114 14:46:00.876368  6124 net.cpp:137] Memory required for data: 1546225200
I0114 14:46:00.876869  6124 layer_factory.cpp:58] Creating layer conv2
I0114 14:46:00.876869  6124 net.cpp:84] Creating Layer conv2
I0114 14:46:00.877372  6124 net.cpp:406] conv2 <- pool1
I0114 14:46:00.877372  6124 net.cpp:380] conv2 -> conv2
I0114 14:46:00.879376  6124 net.cpp:122] Setting up conv2
I0114 14:46:00.879376  6124 net.cpp:129] Top shape: 100 30 94 94 (26508000)
I0114 14:46:00.879878  6124 net.cpp:137] Memory required for data: 1652257200
I0114 14:46:00.879878  6124 layer_factory.cpp:58] Creating layer relu2
I0114 14:46:00.879878  6124 net.cpp:84] Creating Layer relu2
I0114 14:46:00.880379  6124 net.cpp:406] relu2 <- conv2
I0114 14:46:00.880379  6124 net.cpp:367] relu2 -> conv2 (in-place)
I0114 14:46:00.880880  6124 net.cpp:122] Setting up relu2
I0114 14:46:00.881381  6124 net.cpp:129] Top shape: 100 30 94 94 (26508000)
I0114 14:46:00.881381  6124 net.cpp:137] Memory required for data: 1758289200
I0114 14:46:00.881889  6124 layer_factory.cpp:58] Creating layer norm2
I0114 14:46:00.881889  6124 net.cpp:84] Creating Layer norm2
I0114 14:46:00.882383  6124 net.cpp:406] norm2 <- conv2
I0114 14:46:00.882383  6124 net.cpp:380] norm2 -> norm2
I0114 14:46:00.882885  6124 net.cpp:122] Setting up norm2
I0114 14:46:00.882885  6124 net.cpp:129] Top shape: 100 30 94 94 (26508000)
I0114 14:46:00.883386  6124 net.cpp:137] Memory required for data: 1864321200
I0114 14:46:00.883386  6124 layer_factory.cpp:58] Creating layer pool2
I0114 14:46:00.883889  6124 net.cpp:84] Creating Layer pool2
I0114 14:46:00.883889  6124 net.cpp:406] pool2 <- norm2
I0114 14:46:00.884390  6124 net.cpp:380] pool2 -> pool2
I0114 14:46:00.884390  6124 net.cpp:122] Setting up pool2
I0114 14:46:00.884390  6124 net.cpp:129] Top shape: 100 30 47 47 (6627000)
I0114 14:46:00.884891  6124 net.cpp:137] Memory required for data: 1890829200
I0114 14:46:00.884891  6124 layer_factory.cpp:58] Creating layer conv3
I0114 14:46:00.885391  6124 net.cpp:84] Creating Layer conv3
I0114 14:46:00.885391  6124 net.cpp:406] conv3 <- pool2
I0114 14:46:00.885391  6124 net.cpp:380] conv3 -> conv3
I0114 14:46:00.887898  6124 net.cpp:122] Setting up conv3
I0114 14:46:00.887898  6124 net.cpp:129] Top shape: 100 30 43 43 (5547000)
I0114 14:46:00.888401  6124 net.cpp:137] Memory required for data: 1913017200
I0114 14:46:00.888401  6124 layer_factory.cpp:58] Creating layer relu3
I0114 14:46:00.888401  6124 net.cpp:84] Creating Layer relu3
I0114 14:46:00.888901  6124 net.cpp:406] relu3 <- conv3
I0114 14:46:00.890406  6124 net.cpp:367] relu3 -> conv3 (in-place)
I0114 14:46:00.891409  6124 net.cpp:122] Setting up relu3
I0114 14:46:00.891409  6124 net.cpp:129] Top shape: 100 30 43 43 (5547000)
I0114 14:46:00.891909  6124 net.cpp:137] Memory required for data: 1935205200
I0114 14:46:00.891909  6124 layer_factory.cpp:58] Creating layer norm3
I0114 14:46:00.892411  6124 net.cpp:84] Creating Layer norm3
I0114 14:46:00.892411  6124 net.cpp:406] norm3 <- conv3
I0114 14:46:00.892911  6124 net.cpp:380] norm3 -> norm3
I0114 14:46:00.893414  6124 net.cpp:122] Setting up norm3
I0114 14:46:00.893414  6124 net.cpp:129] Top shape: 100 30 43 43 (5547000)
I0114 14:46:00.893414  6124 net.cpp:137] Memory required for data: 1957393200
I0114 14:46:00.893914  6124 layer_factory.cpp:58] Creating layer pool3
I0114 14:46:00.893914  6124 net.cpp:84] Creating Layer pool3
I0114 14:46:00.893914  6124 net.cpp:406] pool3 <- norm3
I0114 14:46:00.894415  6124 net.cpp:380] pool3 -> pool3
I0114 14:46:00.894415  6124 net.cpp:122] Setting up pool3
I0114 14:46:00.894919  6124 net.cpp:129] Top shape: 100 30 21 21 (1323000)
I0114 14:46:00.894919  6124 net.cpp:137] Memory required for data: 1962685200
I0114 14:46:00.894919  6124 layer_factory.cpp:58] Creating layer conv4
I0114 14:46:00.895418  6124 net.cpp:84] Creating Layer conv4
I0114 14:46:00.895418  6124 net.cpp:406] conv4 <- pool3
I0114 14:46:00.895920  6124 net.cpp:380] conv4 -> conv4
I0114 14:46:00.897958  6124 net.cpp:122] Setting up conv4
I0114 14:46:00.897958  6124 net.cpp:129] Top shape: 100 50 17 17 (1445000)
I0114 14:46:00.897958  6124 net.cpp:137] Memory required for data: 1968465200
I0114 14:46:00.898427  6124 layer_factory.cpp:58] Creating layer relu4
I0114 14:46:00.898427  6124 net.cpp:84] Creating Layer relu4
I0114 14:46:00.898944  6124 net.cpp:406] relu4 <- conv4
I0114 14:46:00.898944  6124 net.cpp:367] relu4 -> conv4 (in-place)
I0114 14:46:00.899446  6124 net.cpp:122] Setting up relu4
I0114 14:46:00.899950  6124 net.cpp:129] Top shape: 100 50 17 17 (1445000)
I0114 14:46:00.899950  6124 net.cpp:137] Memory required for data: 1974245200
I0114 14:46:00.900449  6124 layer_factory.cpp:58] Creating layer norm4
I0114 14:46:00.900449  6124 net.cpp:84] Creating Layer norm4
I0114 14:46:00.900951  6124 net.cpp:406] norm4 <- conv4
I0114 14:46:00.900951  6124 net.cpp:380] norm4 -> norm4
I0114 14:46:00.901453  6124 net.cpp:122] Setting up norm4
I0114 14:46:00.901453  6124 net.cpp:129] Top shape: 100 50 17 17 (1445000)
I0114 14:46:00.901948  6124 net.cpp:137] Memory required for data: 1980025200
I0114 14:46:00.902467  6124 layer_factory.cpp:58] Creating layer pool4
I0114 14:46:00.902467  6124 net.cpp:84] Creating Layer pool4
I0114 14:46:00.902940  6124 net.cpp:406] pool4 <- norm4
I0114 14:46:00.902940  6124 net.cpp:380] pool4 -> pool4
I0114 14:46:00.903442  6124 net.cpp:122] Setting up pool4
I0114 14:46:00.903945  6124 net.cpp:129] Top shape: 100 50 8 8 (320000)
I0114 14:46:00.903945  6124 net.cpp:137] Memory required for data: 1981305200
I0114 14:46:00.904443  6124 layer_factory.cpp:58] Creating layer ip1
I0114 14:46:00.905469  6124 net.cpp:84] Creating Layer ip1
I0114 14:46:00.905952  6124 net.cpp:406] ip1 <- pool4
I0114 14:46:00.905952  6124 net.cpp:380] ip1 -> ip1
I0114 14:46:00.907475  6124 net.cpp:122] Setting up ip1
I0114 14:46:00.907475  6124 net.cpp:129] Top shape: 100 50 (5000)
I0114 14:46:00.907475  6124 net.cpp:137] Memory required for data: 1981325200
I0114 14:46:00.907966  6124 layer_factory.cpp:58] Creating layer relu5
I0114 14:46:00.907966  6124 net.cpp:84] Creating Layer relu5
I0114 14:46:00.908453  6124 net.cpp:406] relu5 <- ip1
I0114 14:46:00.908453  6124 net.cpp:367] relu5 -> ip1 (in-place)
I0114 14:46:00.908955  6124 net.cpp:122] Setting up relu5
I0114 14:46:00.908955  6124 net.cpp:129] Top shape: 100 50 (5000)
I0114 14:46:00.909463  6124 net.cpp:137] Memory required for data: 1981345200
I0114 14:46:00.909463  6124 layer_factory.cpp:58] Creating layer drop5
I0114 14:46:00.909957  6124 net.cpp:84] Creating Layer drop5
I0114 14:46:00.909957  6124 net.cpp:406] drop5 <- ip1
I0114 14:46:00.910459  6124 net.cpp:367] drop5 -> ip1 (in-place)
I0114 14:46:00.910459  6124 net.cpp:122] Setting up drop5
I0114 14:46:00.910961  6124 net.cpp:129] Top shape: 100 50 (5000)
I0114 14:46:00.910961  6124 net.cpp:137] Memory required for data: 1981365200
I0114 14:46:00.910961  6124 layer_factory.cpp:58] Creating layer ip2
I0114 14:46:00.911461  6124 net.cpp:84] Creating Layer ip2
I0114 14:46:00.911461  6124 net.cpp:406] ip2 <- ip1
I0114 14:46:00.911962  6124 net.cpp:380] ip2 -> ip2
I0114 14:46:00.912464  6124 net.cpp:122] Setting up ip2
I0114 14:46:00.912464  6124 net.cpp:129] Top shape: 100 7 (700)
I0114 14:46:00.912464  6124 net.cpp:137] Memory required for data: 1981368000
I0114 14:46:00.912967  6124 layer_factory.cpp:58] Creating layer ip2_ip2_0_split
I0114 14:46:00.912967  6124 net.cpp:84] Creating Layer ip2_ip2_0_split
I0114 14:46:00.913468  6124 net.cpp:406] ip2_ip2_0_split <- ip2
I0114 14:46:00.913468  6124 net.cpp:380] ip2_ip2_0_split -> ip2_ip2_0_split_0
I0114 14:46:00.913969  6124 net.cpp:380] ip2_ip2_0_split -> ip2_ip2_0_split_1
I0114 14:46:00.913969  6124 net.cpp:122] Setting up ip2_ip2_0_split
I0114 14:46:00.914499  6124 net.cpp:129] Top shape: 100 7 (700)
I0114 14:46:00.914499  6124 net.cpp:129] Top shape: 100 7 (700)
I0114 14:46:00.914499  6124 net.cpp:137] Memory required for data: 1981373600
I0114 14:46:00.914990  6124 layer_factory.cpp:58] Creating layer accuracy
I0114 14:46:00.914990  6124 net.cpp:84] Creating Layer accuracy
I0114 14:46:00.915496  6124 net.cpp:406] accuracy <- ip2_ip2_0_split_0
I0114 14:46:00.915496  6124 net.cpp:406] accuracy <- label_mnist_1_split_0
I0114 14:46:00.915973  6124 net.cpp:380] accuracy -> accuracy
…
