…
I0114 21:27:03.032851 15424 net.cpp:294] The NetState phase (0) differed from the phase (1) specified by a rule in layer data
I0114 21:27:03.032851 15424 net.cpp:294] The NetState phase (0) differed from the phase (1) specified by a rule in layer accuracy
I0114 21:27:03.032851 15424 net.cpp:51] Initializing net from parameters:
name: "AlexNet"
state {
  phase: TRAIN
  level: 0
  stage: ""
}
layer {
  name: "data"
  type: "Data"
  top: "data"
  top: "label"
  include {
    phase: TRAIN
  }
  transform_param {
    scale: 0.00390625
  }
  data_param {
    source: "./data2/rail_train_lmdb"
    batch_size: 32
    backend: LMDB
  }
}
layer {
  name: "conv1"
  type: "Convolution"
  bottom: "data"
  top: "conv1"
  param {
    lr_mult: 1
    decay_mult: 1
  }
  param {
    lr_mult: 2
    decay_mult: 0
  }
  convolution_param {
    num_output: 96
    kernel_size: 11
    stride: 4
    weight_filler {
      type: "gaussian"
      std: 0.01
    }
    bias_filler {
      type: "constant"
      value: 0
    }
  }
}
layer {
  name: "relu1"
  type: "ReLU"
  bottom: "conv1"
  top: "conv1"
}
layer {
  name: "norm1"
  type: "LRN"
  bottom: "conv1"
  top: "norm1"
  lrn_param {
    local_size: 5
    alpha: 0.0001
    beta: 0.75
  }
}
layer {
  name: "pool1"
  type: "Pooling"
  bottom: "norm1"
  top: "pool1"
  pooling_param {
    pool: MAX
    kernel_size: 3
    stride: 2
  }
}
layer {
  name: "conv2"
  type: "Convolution"
  bottom: "pool1"
  top: "conv2"
  param {
    lr_mult: 1
    decay_mult: 1
  }
  param {
    lr_mult: 2
    decay_mult: 0
  }
  convolution_param {
    num_output: 256
    pad: 2
    kernel_size: 5
    group: 2
    weight_filler {
      type: "gaussian"
      std: 0.01
    }
    bias_filler {
      type: "constant"
      value: 0.1
    }
  }
}
layer {
  name: "relu2"
  type: "ReLU"
  bottom: "conv2"
  top: "conv2"
}
layer {
  name: "norm2"
  type: "LRN"
  bottom: "conv2"
  top: "norm2"
  lrn_param {
    local_size: 5
    alpha: 0.0001
    beta: 0.75
  }
}
layer {
  name: "pool2"
  type: "Pooling"
  bottom: "norm2"
  top: "pool2"
  pooling_param {
    pool: MAX
    kernel_size: 3
    stride: 2
  }
}
layer {
  name: "conv3"
  type: "Convolution"
  bottom: "pool2"
  top: "conv3"
  param {
    lr_mult: 1
    decay_mult: 1
  }
  param {
    lr_mult: 2
    decay_mult: 0
  }
  convolution_param {
    num_output: 384
    pad: 1
    kernel_size: 3
    weight_filler {
      type: "gaussian"
      std: 0.01
    }
    bias_filler {
      type: "constant"
      value: 0
    }
  }
}
layer {
  name: "relu3"
  type: "ReLU"
  bottom: "conv3"
  top: "conv3"
}
layer {
  name: "conv4"
  type: "Convolution"
  bottom: "conv3"
  top: "conv4"
  param {
    lr_mult: 1
    decay_mult: 1
  }
  param {
    lr_mult: 2
    decay_mult: 0
  }
  convolution_param {
    num_output: 384
    pad: 1
    kernel_size: 3
    group: 2
    weight_filler {
      type: "gaussian"
      std: 0.01
    }
    bias_filler {
      type: "constant"
      value: 0.1
    }
  }
}
layer {
  name: "relu4"
  type: "ReLU"
  bottom: "conv4"
  top: "conv4"
}
layer {
  name: "conv5"
  type: "Convolution"
  bottom: "conv4"
  top: "conv5"
  param {
    lr_mult: 1
    decay_mult: 1
  }
  param {
    lr_mult: 2
    decay_mult: 0
  }
  convolution_param {
    num_output: 256
    pad: 1
    kernel_size: 3
    group: 2
    weight_filler {
      type: "gaussian"
      std: 0.01
    }
    bias_filler {
      type: "constant"
      value: 0.1
    }
  }
}
layer {
  name: "relu5"
  type: "ReLU"
  bottom: "conv5"
  top: "conv5"
}
layer {
  name: "pool5"
  type: "Pooling"
  bottom: "conv5"
  top: "pool5"
  pooling_param {
    pool: MAX
    kernel_size: 3
    stride: 2
  }
}
layer {
  name: "fc6"
  type: "InnerProduct"
  bottom: "pool5"
  top: "fc6"
  param {
    lr_mult: 1
    decay_mult: 1
  }
  param {
    lr_mult: 2
    decay_mult: 0
  }
  inner_product_param {
    num_output: 4096
    weight_filler {
      type: "gaussian"
      std: 0.005
    }
    bias_filler {
      type: "constant"
      value: 0.1
    }
  }
}
layer {
  name: "relu6"
  type: "ReLU"
  bottom: "fc6"
  top: "fc6"
}
layer {
  name: "drop6"
  type: "Dropout"
  bottom: "fc6"
  top: "fc6"
  dropout_param {
    dropout_ratio: 0.5
  }
}
layer {
  name: "fc7"
  type: "InnerProduct"
  bottom: "fc6"
  top: "fc7"
  param {
    lr_mult: 1
    decay_mult: 1
  }
  param {
    lr_mult: 2
    decay_mult: 0
  }
  inner_product_param {
    num_output: 4096
    weight_filler {
      type: "gaussian"
      std: 0.005
    }
    bias_filler {
      type: "constant"
      value: 0.1
    }
  }
}
layer {
  name: "relu7"
  type: "ReLU"
  bottom: "fc7"
  top: "fc7"
}
layer {
  name: "drop7"
  type: "Dropout"
  bottom: "fc7"
  top: "fc7"
  dropout_param {
    dropout_ratio: 0.5
  }
}
layer {
  name: "fc8_flickr"
  type: "InnerProduct"
  bottom: "fc7"
  top: "fc8_flickr"
  param {
    lr_mult: 10
    decay_mult: 1
  }
  param {
    lr_mult: 20
    decay_mult: 0
  }
  inner_product_param {
    num_output: 7
    weight_filler {
      type: "gaussian"
      std: 0.01
    }
    bias_filler {
      type: "constant"
      value: 0
    }
  }
}
layer {
  name: "loss"
  type: "SoftmaxWithLoss"
  bottom: "fc8_flickr"
  bottom: "label"
  top: "loss"
}
I0114 21:27:03.065963 15424 layer_factory.cpp:58] Creating layer data
I0114 21:27:03.069962 15424 db_lmdb.cpp:40] Opened lmdb ./data2/rail_train_lmdb
I0114 21:27:03.069962 15424 net.cpp:84] Creating Layer data
I0114 21:27:03.069962 15424 net.cpp:380] data -> data
I0114 21:27:03.069962 15424 net.cpp:380] data -> label
I0114 21:27:03.070982 15424 data_layer.cpp:45] output data size: 32,3,200,200
I0114 21:27:03.107061 15424 common.cpp:36] System entropy source not available, using fallback algorithm to generate seed instead.
I0114 21:27:03.107061 15424 net.cpp:122] Setting up data
I0114 21:27:03.109055 15424 net.cpp:129] Top shape: 32 3 200 200 (3840000)
I0114 21:27:03.109055 15424 net.cpp:129] Top shape: 32 (32)
I0114 21:27:03.109055 15424 net.cpp:137] Memory required for data: 15360128
I0114 21:27:03.109055 15424 layer_factory.cpp:58] Creating layer conv1
I0114 21:27:03.109055 15424 net.cpp:84] Creating Layer conv1
I0114 21:27:03.109055 15424 net.cpp:406] conv1 <- data
I0114 21:27:03.109055 15424 net.cpp:380] conv1 -> conv1
I0114 21:27:03.111059 12912 common.cpp:36] System entropy source not available, using fallback algorithm to generate seed instead.
I0114 21:27:03.461061 15424 net.cpp:122] Setting up conv1
I0114 21:27:03.461061 15424 net.cpp:129] Top shape: 32 96 48 48 (7077888)
I0114 21:27:03.476662 15424 net.cpp:137] Memory required for data: 43671680
I0114 21:27:03.476662 15424 layer_factory.cpp:58] Creating layer relu1
I0114 21:27:03.476662 15424 net.cpp:84] Creating Layer relu1
I0114 21:27:03.476662 15424 net.cpp:406] relu1 <- conv1
I0114 21:27:03.476662 15424 net.cpp:367] relu1 -> conv1 (in-place)
I0114 21:27:03.476662 15424 net.cpp:122] Setting up relu1
I0114 21:27:03.476662 15424 net.cpp:129] Top shape: 32 96 48 48 (7077888)
I0114 21:27:03.476662 15424 net.cpp:137] Memory required for data: 71983232
I0114 21:27:03.476662 15424 layer_factory.cpp:58] Creating layer norm1
I0114 21:27:03.476662 15424 net.cpp:84] Creating Layer norm1
I0114 21:27:03.476662 15424 net.cpp:406] norm1 <- conv1
I0114 21:27:03.476662 15424 net.cpp:380] norm1 -> norm1
I0114 21:27:03.476662 15424 net.cpp:122] Setting up norm1
I0114 21:27:03.476662 15424 net.cpp:129] Top shape: 32 96 48 48 (7077888)
I0114 21:27:03.476662 15424 net.cpp:137] Memory required for data: 100294784
I0114 21:27:03.476662 15424 layer_factory.cpp:58] Creating layer pool1
I0114 21:27:03.476662 15424 net.cpp:84] Creating Layer pool1
I0114 21:27:03.476662 15424 net.cpp:406] pool1 <- norm1
I0114 21:27:03.476662 15424 net.cpp:380] pool1 -> pool1
I0114 21:27:03.476662 15424 net.cpp:122] Setting up pool1
I0114 21:27:03.476662 15424 net.cpp:129] Top shape: 32 96 24 24 (1769472)
I0114 21:27:03.476662 15424 net.cpp:137] Memory required for data: 107372672
I0114 21:27:03.476662 15424 layer_factory.cpp:58] Creating layer conv2
I0114 21:27:03.476662 15424 net.cpp:84] Creating Layer conv2
I0114 21:27:03.476662 15424 net.cpp:406] conv2 <- pool1
I0114 21:27:03.476662 15424 net.cpp:380] conv2 -> conv2
I0114 21:27:03.476662 15424 net.cpp:122] Setting up conv2
I0114 21:27:03.476662 15424 net.cpp:129] Top shape: 32 256 24 24 (4718592)
I0114 21:27:03.476662 15424 net.cpp:137] Memory required for data: 126247040
I0114 21:27:03.476662 15424 layer_factory.cpp:58] Creating layer relu2
I0114 21:27:03.476662 15424 net.cpp:84] Creating Layer relu2
I0114 21:27:03.476662 15424 net.cpp:406] relu2 <- conv2
I0114 21:27:03.476662 15424 net.cpp:367] relu2 -> conv2 (in-place)
I0114 21:27:03.476662 15424 net.cpp:122] Setting up relu2
I0114 21:27:03.476662 15424 net.cpp:129] Top shape: 32 256 24 24 (4718592)
I0114 21:27:03.476662 15424 net.cpp:137] Memory required for data: 145121408
I0114 21:27:03.476662 15424 layer_factory.cpp:58] Creating layer norm2
I0114 21:27:03.476662 15424 net.cpp:84] Creating Layer norm2
I0114 21:27:03.476662 15424 net.cpp:406] norm2 <- conv2
I0114 21:27:03.476662 15424 net.cpp:380] norm2 -> norm2
I0114 21:27:03.476662 15424 net.cpp:122] Setting up norm2
I0114 21:27:03.476662 15424 net.cpp:129] Top shape: 32 256 24 24 (4718592)
I0114 21:27:03.476662 15424 net.cpp:137] Memory required for data: 163995776
I0114 21:27:03.476662 15424 layer_factory.cpp:58] Creating layer pool2
I0114 21:27:03.476662 15424 net.cpp:84] Creating Layer pool2
I0114 21:27:03.476662 15424 net.cpp:406] pool2 <- norm2
I0114 21:27:03.476662 15424 net.cpp:380] pool2 -> pool2
I0114 21:27:03.476662 15424 net.cpp:122] Setting up pool2
I0114 21:27:03.476662 15424 net.cpp:129] Top shape: 32 256 12 12 (1179648)
I0114 21:27:03.476662 15424 net.cpp:137] Memory required for data: 168714368
I0114 21:27:03.476662 15424 layer_factory.cpp:58] Creating layer conv3
I0114 21:27:03.476662 15424 net.cpp:84] Creating Layer conv3
I0114 21:27:03.476662 15424 net.cpp:406] conv3 <- pool2
I0114 21:27:03.492290 15424 net.cpp:380] conv3 -> conv3
I0114 21:27:03.492290 15424 net.cpp:122] Setting up conv3
I0114 21:27:03.492290 15424 net.cpp:129] Top shape: 32 384 12 12 (1769472)
I0114 21:27:03.492290 15424 net.cpp:137] Memory required for data: 175792256
I0114 21:27:03.492290 15424 layer_factory.cpp:58] Creating layer relu3
I0114 21:27:03.492290 15424 net.cpp:84] Creating Layer relu3
I0114 21:27:03.492290 15424 net.cpp:406] relu3 <- conv3
I0114 21:27:03.492290 15424 net.cpp:367] relu3 -> conv3 (in-place)
I0114 21:27:03.492290 15424 net.cpp:122] Setting up relu3
I0114 21:27:03.492290 15424 net.cpp:129] Top shape: 32 384 12 12 (1769472)
I0114 21:27:03.492290 15424 net.cpp:137] Memory required for data: 182870144
I0114 21:27:03.492290 15424 layer_factory.cpp:58] Creating layer conv4
I0114 21:27:03.492290 15424 net.cpp:84] Creating Layer conv4
I0114 21:27:03.492290 15424 net.cpp:406] conv4 <- conv3
I0114 21:27:03.492290 15424 net.cpp:380] conv4 -> conv4
I0114 21:27:03.507939 15424 net.cpp:122] Setting up conv4
I0114 21:27:03.507939 15424 net.cpp:129] Top shape: 32 384 12 12 (1769472)
I0114 21:27:03.507939 15424 net.cpp:137] Memory required for data: 189948032
I0114 21:27:03.507939 15424 layer_factory.cpp:58] Creating layer relu4
I0114 21:27:03.507939 15424 net.cpp:84] Creating Layer relu4
I0114 21:27:03.507939 15424 net.cpp:406] relu4 <- conv4
I0114 21:27:03.507939 15424 net.cpp:367] relu4 -> conv4 (in-place)
I0114 21:27:03.507939 15424 net.cpp:122] Setting up relu4
I0114 21:27:03.507939 15424 net.cpp:129] Top shape: 32 384 12 12 (1769472)
I0114 21:27:03.507939 15424 net.cpp:137] Memory required for data: 197025920
I0114 21:27:03.507939 15424 layer_factory.cpp:58] Creating layer conv5
I0114 21:27:03.507939 15424 net.cpp:84] Creating Layer conv5
I0114 21:27:03.507939 15424 net.cpp:406] conv5 <- conv4
I0114 21:27:03.507939 15424 net.cpp:380] conv5 -> conv5
I0114 21:27:03.523573 15424 net.cpp:122] Setting up conv5
I0114 21:27:03.523573 15424 net.cpp:129] Top shape: 32 256 12 12 (1179648)
I0114 21:27:03.523573 15424 net.cpp:137] Memory required for data: 201744512
I0114 21:27:03.523573 15424 layer_factory.cpp:58] Creating layer relu5
I0114 21:27:03.523573 15424 net.cpp:84] Creating Layer relu5
I0114 21:27:03.523573 15424 net.cpp:406] relu5 <- conv5
I0114 21:27:03.523573 15424 net.cpp:367] relu5 -> conv5 (in-place)
I0114 21:27:03.523573 15424 net.cpp:122] Setting up relu5
I0114 21:27:03.523573 15424 net.cpp:129] Top shape: 32 256 12 12 (1179648)
I0114 21:27:03.523573 15424 net.cpp:137] Memory required for data: 206463104
I0114 21:27:03.523573 15424 layer_factory.cpp:58] Creating layer pool5
I0114 21:27:03.523573 15424 net.cpp:84] Creating Layer pool5
I0114 21:27:03.523573 15424 net.cpp:406] pool5 <- conv5
I0114 21:27:03.523573 15424 net.cpp:380] pool5 -> pool5
I0114 21:27:03.523573 15424 net.cpp:122] Setting up pool5
I0114 21:27:03.523573 15424 net.cpp:129] Top shape: 32 256 6 6 (294912)
I0114 21:27:03.523573 15424 net.cpp:137] Memory required for data: 207642752
I0114 21:27:03.523573 15424 layer_factory.cpp:58] Creating layer fc6
I0114 21:27:03.523573 15424 net.cpp:84] Creating Layer fc6
I0114 21:27:03.523573 15424 net.cpp:406] fc6 <- pool5
I0114 21:27:03.523573 15424 net.cpp:380] fc6 -> fc6
I0114 21:27:03.911895 15424 net.cpp:122] Setting up fc6
I0114 21:27:03.911895 15424 net.cpp:129] Top shape: 32 4096 (131072)
I0114 21:27:03.911895 15424 net.cpp:137] Memory required for data: 208167040
I0114 21:27:03.911895 15424 layer_factory.cpp:58] Creating layer relu6
I0114 21:27:03.911895 15424 net.cpp:84] Creating Layer relu6
I0114 21:27:03.911895 15424 net.cpp:406] relu6 <- fc6
I0114 21:27:03.911895 15424 net.cpp:367] relu6 -> fc6 (in-place)
I0114 21:27:03.911895 15424 net.cpp:122] Setting up relu6
I0114 21:27:03.911895 15424 net.cpp:129] Top shape: 32 4096 (131072)
I0114 21:27:03.911895 15424 net.cpp:137] Memory required for data: 208691328
I0114 21:27:03.911895 15424 layer_factory.cpp:58] Creating layer drop6
I0114 21:27:03.911895 15424 net.cpp:84] Creating Layer drop6
I0114 21:27:03.911895 15424 net.cpp:406] drop6 <- fc6
I0114 21:27:03.911895 15424 net.cpp:367] drop6 -> fc6 (in-place)
I0114 21:27:03.911895 15424 net.cpp:122] Setting up drop6
I0114 21:27:03.911895 15424 net.cpp:129] Top shape: 32 4096 (131072)
I0114 21:27:03.911895 15424 net.cpp:137] Memory required for data: 209215616
I0114 21:27:03.911895 15424 layer_factory.cpp:58] Creating layer fc7
I0114 21:27:03.911895 15424 net.cpp:84] Creating Layer fc7
I0114 21:27:03.911895 15424 net.cpp:406] fc7 <- fc6
I0114 21:27:03.911895 15424 net.cpp:380] fc7 -> fc7
I0114 21:27:04.091739 15424 net.cpp:122] Setting up fc7
I0114 21:27:04.091739 15424 net.cpp:129] Top shape: 32 4096 (131072)
I0114 21:27:04.091739 15424 net.cpp:137] Memory required for data: 209739904
I0114 21:27:04.091739 15424 layer_factory.cpp:58] Creating layer relu7
I0114 21:27:04.091739 15424 net.cpp:84] Creating Layer relu7
I0114 21:27:04.091739 15424 net.cpp:406] relu7 <- fc7
I0114 21:27:04.091739 15424 net.cpp:367] relu7 -> fc7 (in-place)
I0114 21:27:04.091739 15424 net.cpp:122] Setting up relu7
I0114 21:27:04.091739 15424 net.cpp:129] Top shape: 32 4096 (131072)
I0114 21:27:04.091739 15424 net.cpp:137] Memory required for data: 210264192
I0114 21:27:04.091739 15424 layer_factory.cpp:58] Creating layer drop7
I0114 21:27:04.091739 15424 net.cpp:84] Creating Layer drop7
I0114 21:27:04.091739 15424 net.cpp:406] drop7 <- fc7
I0114 21:27:04.091739 15424 net.cpp:367] drop7 -> fc7 (in-place)
I0114 21:27:04.091739 15424 net.cpp:122] Setting up drop7
I0114 21:27:04.091739 15424 net.cpp:129] Top shape: 32 4096 (131072)
I0114 21:27:04.091739 15424 net.cpp:137] Memory required for data: 210788480
I0114 21:27:04.091739 15424 layer_factory.cpp:58] Creating layer fc8_flickr
I0114 21:27:04.107403 15424 net.cpp:84] Creating Layer fc8_flickr
I0114 21:27:04.107403 15424 net.cpp:406] fc8_flickr <- fc7
I0114 21:27:04.107403 15424 net.cpp:380] fc8_flickr -> fc8_flickr
I0114 21:27:04.107403 15424 net.cpp:122] Setting up fc8_flickr
I0114 21:27:04.107403 15424 net.cpp:129] Top shape: 32 7 (224)
I0114 21:27:04.107403 15424 net.cpp:137] Memory required for data: 210789376
I0114 21:27:04.107403 15424 layer_factory.cpp:58] Creating layer loss
I0114 21:27:04.107403 15424 net.cpp:84] Creating Layer loss
I0114 21:27:04.107403 15424 net.cpp:406] loss <- fc8_flickr
I0114 21:27:04.107403 15424 net.cpp:406] loss <- label
I0114 21:27:04.107403 15424 net.cpp:380] loss -> loss
I0114 21:27:04.107403 15424 layer_factory.cpp:58] Creating layer loss
…
I0114 21:27:04.107403 15424 solver.cpp:172] Creating test net (#0) specified by net file: ./train_val.prototxt
I0114 21:27:04.107403 15424 net.cpp:294] The NetState phase (1) differed from the phase (0) specified by a rule in layer data
I0114 21:27:04.107403 15424 net.cpp:51] Initializing net from parameters:
name: "AlexNet"
state {
  phase: TEST
}
layer {
  name: "data"
  type: "Data"
  top: "data"
  top: "label"
  include {
    phase: TEST
  }
  transform_param {
    scale: 0.00390625
  }
  data_param {
    source: "./data2/rail_val_lmdb"
    batch_size: 100
    backend: LMDB
  }
}
layer {
  name: "conv1"
  type: "Convolution"
  bottom: "data"
  top: "conv1"
  param {
    lr_mult: 1
    decay_mult: 1
  }
  param {
    lr_mult: 2
    decay_mult: 0
  }
  convolution_param {
    num_output: 96
    kernel_size: 11
    stride: 4
    weight_filler {
      type: "gaussian"
      std: 0.01
    }
    bias_filler {
      type: "constant"
      value: 0
    }
  }
}
layer {
  name: "relu1"
  type: "ReLU"
  bottom: "conv1"
  top: "conv1"
}
layer {
  name: "norm1"
  type: "LRN"
  bottom: "conv1"
  top: "norm1"
  lrn_param {
    local_size: 5
    alpha: 0.0001
    beta: 0.75
  }
}
layer {
  name: "pool1"
  type: "Pooling"
  bottom: "norm1"
  top: "pool1"
  pooling_param {
    pool: MAX
    kernel_size: 3
    stride: 2
  }
}
layer {
  name: "conv2"
  type: "Convolution"
  bottom: "pool1"
  top: "conv2"
  param {
    lr_mult: 1
    decay_mult: 1
  }
  param {
    lr_mult: 2
    decay_mult: 0
  }
  convolution_param {
    num_output: 256
    pad: 2
    kernel_size: 5
    group: 2
    weight_filler {
      type: "gaussian"
      std: 0.01
    }
    bias_filler {
      type: "constant"
      value: 0.1
    }
  }
}
layer {
  name: "relu2"
  type: "ReLU"
  bottom: "conv2"
  top: "conv2"
}
layer {
  name: "norm2"
  type: "LRN"
  bottom: "conv2"
  top: "norm2"
  lrn_param {
    local_size: 5
    alpha: 0.0001
    beta: 0.75
  }
}
layer {
  name: "pool2"
  type: "Pooling"
  bottom: "norm2"
  top: "pool2"
  pooling_param {
    pool: MAX
    kernel_size: 3
    stride: 2
  }
}
layer {
  name: "conv3"
  type: "Convolution"
  bottom: "pool2"
  top: "conv3"
  param {
    lr_mult: 1
    decay_mult: 1
  }
  param {
    lr_mult: 2
    decay_mult: 0
  }
  convolution_param {
    num_output: 384
    pad: 1
    kernel_size: 3
    weight_filler {
      type: "gaussian"
      std: 0.01
    }
    bias_filler {
      type: "constant"
      value: 0
    }
  }
}
layer {
  name: "relu3"
  type: "ReLU"
  bottom: "conv3"
  top: "conv3"
}
layer {
  name: "conv4"
  type: "Convolution"
  bottom: "conv3"
  top: "conv4"
  param {
    lr_mult: 1
    decay_mult: 1
  }
  param {
    lr_mult: 2
    decay_mult: 0
  }
  convolution_param {
    num_output: 384
    pad: 1
    kernel_size: 3
    group: 2
    weight_filler {
      type: "gaussian"
      std: 0.01
    }
    bias_filler {
      type: "constant"
      value: 0.1
    }
  }
}
layer {
  name: "relu4"
  type: "ReLU"
  bottom: "conv4"
  top: "conv4"
}
layer {
  name: "conv5"
  type: "Convolution"
  bottom: "conv4"
  top: "conv5"
  param {
    lr_mult: 1
    decay_mult: 1
  }
  param {
    lr_mult: 2
    decay_mult: 0
  }
  convolution_param {
    num_output: 256
    pad: 1
    kernel_size: 3
    group: 2
    weight_filler {
      type: "gaussian"
      std: 0.01
    }
    bias_filler {
      type: "constant"
      value: 0.1
    }
  }
}
layer {
  name: "relu5"
  type: "ReLU"
  bottom: "conv5"
  top: "conv5"
}
layer {
  name: "pool5"
  type: "Pooling"
  bottom: "conv5"
  top: "pool5"
  pooling_param {
    pool: MAX
    kernel_size: 3
    stride: 2
  }
}
layer {
  name: "fc6"
  type: "InnerProduct"
  bottom: "pool5"
  top: "fc6"
  param {
    lr_mult: 1
    decay_mult: 1
  }
  param {
    lr_mult: 2
    decay_mult: 0
  }
  inner_product_param {
    num_output: 4096
    weight_filler {
      type: "gaussian"
      std: 0.005
    }
    bias_filler {
      type: "constant"
      value: 0.1
    }
  }
}
layer {
  name: "relu6"
  type: "ReLU"
  bottom: "fc6"
  top: "fc6"
}
layer {
  name: "drop6"
  type: "Dropout"
  bottom: "fc6"
  top: "fc6"
  dropout_param {
    dropout_ratio: 0.5
  }
}
layer {
  name: "fc7"
  type: "InnerProduct"
  bottom: "fc6"
  top: "fc7"
  param {
    lr_mult: 1
    decay_mult: 1
  }
  param {
    lr_mult: 2
    decay_mult: 0
  }
  inner_product_param {
    num_output: 4096
    weight_filler {
      type: "gaussian"
      std: 0.005
    }
    bias_filler {
      type: "constant"
      value: 0.1
    }
  }
}
layer {
  name: "relu7"
  type: "ReLU"
  bottom: "fc7"
  top: "fc7"
}
layer {
  name: "drop7"
  type: "Dropout"
  bottom: "fc7"
  top: "fc7"
  dropout_param {
    dropout_ratio: 0.5
  }
}
layer {
  name: "fc8_flickr"
  type: "InnerProduct"
  bottom: "fc7"
  top: "fc8_flickr"
  param {
    lr_mult: 10
    decay_mult: 1
  }
  param {
    lr_mult: 20
    decay_mult: 0
  }
  inner_product_param {
    num_output: 7
    weight_filler {
      type: "gaussian"
      std: 0.01
    }
    bias_filler {
      type: "constant"
      value: 0
    }
  }
}
layer {
  name: "accuracy"
  type: "Accuracy"
  bottom: "fc8_flickr"
  bottom: "label"
  top: "accuracy"
  include {
    phase: TEST
  }
}
layer {
  name: "loss"
  type: "SoftmaxWithLoss"
  bottom: "fc8_flickr"
  bottom: "label"
  top: "loss"
}
I0114 21:27:04.107403 15424 layer_factory.cpp:58] Creating layer data
I0114 21:27:04.107403 15424 db_lmdb.cpp:40] Opened lmdb ./data2/rail_val_lmdb
I0114 21:27:04.107403 15424 net.cpp:84] Creating Layer data
I0114 21:27:04.107403 15424 net.cpp:380] data -> data
I0114 21:27:04.107403 15424 net.cpp:380] data -> label
I0114 21:27:04.107403 15424 data_layer.cpp:45] output data size: 100,3,200,200
I0114 21:27:04.207842 15424 net.cpp:122] Setting up data
I0114 21:27:04.207842 15424 net.cpp:129] Top shape: 100 3 200 200 (12000000)
I0114 21:27:04.207842 15424 net.cpp:129] Top shape: 100 (100)
I0114 21:27:04.207842 15424 net.cpp:137] Memory required for data: 48000400
I0114 21:27:04.207842 15424 layer_factory.cpp:58] Creating layer label_data_1_split
I0114 21:27:04.207842 15424 net.cpp:84] Creating Layer label_data_1_split
I0114 21:27:04.207842 15424 net.cpp:406] label_data_1_split <- label
I0114 21:27:04.207842 15424 net.cpp:380] label_data_1_split -> label_data_1_split_0
I0114 21:27:04.207842 15424 net.cpp:380] label_data_1_split -> label_data_1_split_1
I0114 21:27:04.207842 15424 net.cpp:122] Setting up label_data_1_split
I0114 21:27:04.207842 15424 net.cpp:129] Top shape: 100 (100)
I0114 21:27:04.207842 15424 net.cpp:129] Top shape: 100 (100)
I0114 21:27:04.207842 15424 net.cpp:137] Memory required for data: 48001200
I0114 21:27:04.207842 15424 layer_factory.cpp:58] Creating layer conv1
I0114 21:27:04.207842 15424 net.cpp:84] Creating Layer conv1
I0114 21:27:04.207842 15424 net.cpp:406] conv1 <- data
I0114 21:27:04.207842 15424 net.cpp:380] conv1 -> conv1
I0114 21:27:04.207842 11096 common.cpp:36] System entropy source not available, using fallback algorithm to generate seed instead.
I0114 21:27:04.207842 15424 net.cpp:122] Setting up conv1
I0114 21:27:04.207842 15424 net.cpp:129] Top shape: 100 96 48 48 (22118400)
I0114 21:27:04.207842 15424 net.cpp:137] Memory required for data: 136474800
I0114 21:27:04.207842 15424 layer_factory.cpp:58] Creating layer relu1
I0114 21:27:04.207842 15424 net.cpp:84] Creating Layer relu1
I0114 21:27:04.207842 15424 net.cpp:406] relu1 <- conv1
I0114 21:27:04.207842 15424 net.cpp:367] relu1 -> conv1 (in-place)
I0114 21:27:04.207842 15424 net.cpp:122] Setting up relu1
I0114 21:27:04.207842 15424 net.cpp:129] Top shape: 100 96 48 48 (22118400)
I0114 21:27:04.207842 15424 net.cpp:137] Memory required for data: 224948400
I0114 21:27:04.207842 15424 layer_factory.cpp:58] Creating layer norm1
I0114 21:27:04.207842 15424 net.cpp:84] Creating Layer norm1
I0114 21:27:04.207842 15424 net.cpp:406] norm1 <- conv1
I0114 21:27:04.207842 15424 net.cpp:380] norm1 -> norm1
I0114 21:27:04.207842 15424 net.cpp:122] Setting up norm1
I0114 21:27:04.207842 15424 net.cpp:129] Top shape: 100 96 48 48 (22118400)
I0114 21:27:04.207842 15424 net.cpp:137] Memory required for data: 313422000
I0114 21:27:04.207842 15424 layer_factory.cpp:58] Creating layer pool1
I0114 21:27:04.207842 15424 net.cpp:84] Creating Layer pool1
I0114 21:27:04.207842 15424 net.cpp:406] pool1 <- norm1
I0114 21:27:04.207842 15424 net.cpp:380] pool1 -> pool1
I0114 21:27:04.207842 15424 net.cpp:122] Setting up pool1
I0114 21:27:04.207842 15424 net.cpp:129] Top shape: 100 96 24 24 (5529600)
I0114 21:27:04.207842 15424 net.cpp:137] Memory required for data: 335540400
I0114 21:27:04.207842 15424 layer_factory.cpp:58] Creating layer conv2
I0114 21:27:04.207842 15424 net.cpp:84] Creating Layer conv2
I0114 21:27:04.207842 15424 net.cpp:406] conv2 <- pool1
I0114 21:27:04.207842 15424 net.cpp:380] conv2 -> conv2
I0114 21:27:04.223467 15424 net.cpp:122] Setting up conv2
I0114 21:27:04.223467 15424 net.cpp:129] Top shape: 100 256 24 24 (14745600)
I0114 21:27:04.223467 15424 net.cpp:137] Memory required for data: 394522800
I0114 21:27:04.223467 15424 layer_factory.cpp:58] Creating layer relu2
I0114 21:27:04.223467 15424 net.cpp:84] Creating Layer relu2
I0114 21:27:04.223467 15424 net.cpp:406] relu2 <- conv2
I0114 21:27:04.223467 15424 net.cpp:367] relu2 -> conv2 (in-place)
I0114 21:27:04.223467 15424 net.cpp:122] Setting up relu2
I0114 21:27:04.223467 15424 net.cpp:129] Top shape: 100 256 24 24 (14745600)
I0114 21:27:04.223467 15424 net.cpp:137] Memory required for data: 453505200
I0114 21:27:04.223467 15424 layer_factory.cpp:58] Creating layer norm2
I0114 21:27:04.223467 15424 net.cpp:84] Creating Layer norm2
I0114 21:27:04.223467 15424 net.cpp:406] norm2 <- conv2
I0114 21:27:04.223467 15424 net.cpp:380] norm2 -> norm2
I0114 21:27:04.223467 15424 net.cpp:122] Setting up norm2
I0114 21:27:04.223467 15424 net.cpp:129] Top shape: 100 256 24 24 (14745600)
I0114 21:27:04.223467 15424 net.cpp:137] Memory required for data: 512487600
I0114 21:27:04.223467 15424 layer_factory.cpp:58] Creating layer pool2
I0114 21:27:04.223467 15424 net.cpp:84] Creating Layer pool2
I0114 21:27:04.223467 15424 net.cpp:406] pool2 <- norm2
I0114 21:27:04.223467 15424 net.cpp:380] pool2 -> pool2
I0114 21:27:04.223467 15424 net.cpp:122] Setting up pool2
I0114 21:27:04.223467 15424 net.cpp:129] Top shape: 100 256 12 12 (3686400)
I0114 21:27:04.223467 15424 net.cpp:137] Memory required for data: 527233200
I0114 21:27:04.223467 15424 layer_factory.cpp:58] Creating layer conv3
I0114 21:27:04.223467 15424 net.cpp:84] Creating Layer conv3
I0114 21:27:04.223467 15424 net.cpp:406] conv3 <- pool2
I0114 21:27:04.223467 15424 net.cpp:380] conv3 -> conv3
I0114 21:27:04.239097 15424 net.cpp:122] Setting up conv3
I0114 21:27:04.239097 15424 net.cpp:129] Top shape: 100 384 12 12 (5529600)
I0114 21:27:04.239097 15424 net.cpp:137] Memory required for data: 549351600
I0114 21:27:04.239097 15424 layer_factory.cpp:58] Creating layer relu3
I0114 21:27:04.239097 15424 net.cpp:84] Creating Layer relu3
I0114 21:27:04.239097 15424 net.cpp:406] relu3 <- conv3
I0114 21:27:04.239097 15424 net.cpp:367] relu3 -> conv3 (in-place)
I0114 21:27:04.239097 15424 net.cpp:122] Setting up relu3
I0114 21:27:04.239097 15424 net.cpp:129] Top shape: 100 384 12 12 (5529600)
I0114 21:27:04.239097 15424 net.cpp:137] Memory required for data: 571470000
I0114 21:27:04.239097 15424 layer_factory.cpp:58] Creating layer conv4
I0114 21:27:04.239097 15424 net.cpp:84] Creating Layer conv4
I0114 21:27:04.239097 15424 net.cpp:406] conv4 <- conv3
I0114 21:27:04.239097 15424 net.cpp:380] conv4 -> conv4
I0114 21:27:04.270367 15424 net.cpp:122] Setting up conv4
I0114 21:27:04.270367 15424 net.cpp:129] Top shape: 100 384 12 12 (5529600)
I0114 21:27:04.270367 15424 net.cpp:137] Memory required for data: 593588400
I0114 21:27:04.270367 15424 layer_factory.cpp:58] Creating layer relu4
I0114 21:27:04.270367 15424 net.cpp:84] Creating Layer relu4
I0114 21:27:04.270367 15424 net.cpp:406] relu4 <- conv4
I0114 21:27:04.270367 15424 net.cpp:367] relu4 -> conv4 (in-place)
I0114 21:27:04.270367 15424 net.cpp:122] Setting up relu4
I0114 21:27:04.270367 15424 net.cpp:129] Top shape: 100 384 12 12 (5529600)
I0114 21:27:04.270367 15424 net.cpp:137] Memory required for data: 615706800
I0114 21:27:04.270367 15424 layer_factory.cpp:58] Creating layer conv5
I0114 21:27:04.270367 15424 net.cpp:84] Creating Layer conv5
I0114 21:27:04.270367 15424 net.cpp:406] conv5 <- conv4
I0114 21:27:04.270367 15424 net.cpp:380] conv5 -> conv5
I0114 21:27:04.270367 15424 net.cpp:122] Setting up conv5
I0114 21:27:04.270367 15424 net.cpp:129] Top shape: 100 256 12 12 (3686400)
I0114 21:27:04.270367 15424 net.cpp:137] Memory required for data: 630452400
I0114 21:27:04.270367 15424 layer_factory.cpp:58] Creating layer relu5
I0114 21:27:04.270367 15424 net.cpp:84] Creating Layer relu5
I0114 21:27:04.270367 15424 net.cpp:406] relu5 <- conv5
I0114 21:27:04.270367 15424 net.cpp:367] relu5 -> conv5 (in-place)
I0114 21:27:04.270367 15424 net.cpp:122] Setting up relu5
I0114 21:27:04.270367 15424 net.cpp:129] Top shape: 100 256 12 12 (3686400)
I0114 21:27:04.270367 15424 net.cpp:137] Memory required for data: 645198000
I0114 21:27:04.270367 15424 layer_factory.cpp:58] Creating layer pool5
I0114 21:27:04.270367 15424 net.cpp:84] Creating Layer pool5
I0114 21:27:04.270367 15424 net.cpp:406] pool5 <- conv5
I0114 21:27:04.285976 15424 net.cpp:380] pool5 -> pool5
I0114 21:27:04.285976 15424 net.cpp:122] Setting up pool5
I0114 21:27:04.285976 15424 net.cpp:129] Top shape: 100 256 6 6 (921600)
I0114 21:27:04.285976 15424 net.cpp:137] Memory required for data: 648884400
I0114 21:27:04.285976 15424 layer_factory.cpp:58] Creating layer fc6
I0114 21:27:04.285976 15424 net.cpp:84] Creating Layer fc6
I0114 21:27:04.285976 15424 net.cpp:406] fc6 <- pool5
I0114 21:27:04.285976 15424 net.cpp:380] fc6 -> fc6
I0114 21:27:04.710471 15424 net.cpp:122] Setting up fc6
I0114 21:27:04.710471 15424 net.cpp:129] Top shape: 100 4096 (409600)
I0114 21:27:04.710471 15424 net.cpp:137] Memory required for data: 650522800
I0114 21:27:04.710471 15424 layer_factory.cpp:58] Creating layer relu6
I0114 21:27:04.710471 15424 net.cpp:84] Creating Layer relu6
I0114 21:27:04.710471 15424 net.cpp:406] relu6 <- fc6
I0114 21:27:04.710471 15424 net.cpp:367] relu6 -> fc6 (in-place)
I0114 21:27:04.710471 15424 net.cpp:122] Setting up relu6
I0114 21:27:04.710471 15424 net.cpp:129] Top shape: 100 4096 (409600)
I0114 21:27:04.710471 15424 net.cpp:137] Memory required for data: 652161200
I0114 21:27:04.710471 15424 layer_factory.cpp:58] Creating layer drop6
I0114 21:27:04.710471 15424 net.cpp:84] Creating Layer drop6
I0114 21:27:04.710471 15424 net.cpp:406] drop6 <- fc6
I0114 21:27:04.710471 15424 net.cpp:367] drop6 -> fc6 (in-place)
I0114 21:27:04.710471 15424 net.cpp:122] Setting up drop6
I0114 21:27:04.710471 15424 net.cpp:129] Top shape: 100 4096 (409600)
I0114 21:27:04.710471 15424 net.cpp:137] Memory required for data: 653799600
I0114 21:27:04.710471 15424 layer_factory.cpp:58] Creating layer fc7
I0114 21:27:04.710471 15424 net.cpp:84] Creating Layer fc7
I0114 21:27:04.710471 15424 net.cpp:406] fc7 <- fc6
I0114 21:27:04.710471 15424 net.cpp:380] fc7 -> fc7
I0114 21:27:04.882371 15424 net.cpp:122] Setting up fc7
I0114 21:27:04.882371 15424 net.cpp:129] Top shape: 100 4096 (409600)
I0114 21:27:04.882371 15424 net.cpp:137] Memory required for data: 655438000
I0114 21:27:04.882371 15424 layer_factory.cpp:58] Creating layer relu7
I0114 21:27:04.882371 15424 net.cpp:84] Creating Layer relu7
I0114 21:27:04.882371 15424 net.cpp:406] relu7 <- fc7
I0114 21:27:04.882371 15424 net.cpp:367] relu7 -> fc7 (in-place)
I0114 21:27:04.882371 15424 net.cpp:122] Setting up relu7
I0114 21:27:04.882371 15424 net.cpp:129] Top shape: 100 4096 (409600)
I0114 21:27:04.882371 15424 net.cpp:137] Memory required for data: 657076400
I0114 21:27:04.882371 15424 layer_factory.cpp:58] Creating layer drop7
I0114 21:27:04.882371 15424 net.cpp:84] Creating Layer drop7
I0114 21:27:04.882371 15424 net.cpp:406] drop7 <- fc7
I0114 21:27:04.882371 15424 net.cpp:367] drop7 -> fc7 (in-place)
I0114 21:27:04.882371 15424 net.cpp:122] Setting up drop7
I0114 21:27:04.882371 15424 net.cpp:129] Top shape: 100 4096 (409600)
I0114 21:27:04.882371 15424 net.cpp:137] Memory required for data: 658714800
I0114 21:27:04.882371 15424 layer_factory.cpp:58] Creating layer fc8_flickr
I0114 21:27:04.882371 15424 net.cpp:84] Creating Layer fc8_flickr
I0114 21:27:04.882371 15424 net.cpp:406] fc8_flickr <- fc7
I0114 21:27:04.882371 15424 net.cpp:380] fc8_flickr -> fc8_flickr
I0114 21:27:04.882371 15424 net.cpp:122] Setting up fc8_flickr
I0114 21:27:04.882371 15424 net.cpp:129] Top shape: 100 7 (700)
I0114 21:27:04.882371 15424 net.cpp:137] Memory required for data: 658717600
I0114 21:27:04.882371 15424 layer_factory.cpp:58] Creating layer fc8_flickr_fc8_flickr_0_split
I0114 21:27:04.882371 15424 net.cpp:84] Creating Layer fc8_flickr_fc8_flickr_0_split
I0114 21:27:04.882371 15424 net.cpp:406] fc8_flickr_fc8_flickr_0_split <- fc8_flickr
I0114 21:27:04.882371 15424 net.cpp:380] fc8_flickr_fc8_flickr_0_split -> fc8_flickr_fc8_flickr_0_split_0
I0114 21:27:04.882371 15424 net.cpp:380] fc8_flickr_fc8_flickr_0_split -> fc8_flickr_fc8_flickr_0_split_1
I0114 21:27:04.882371 15424 net.cpp:122] Setting up fc8_flickr_fc8_flickr_0_split
I0114 21:27:04.882371 15424 net.cpp:129] Top shape: 100 7 (700)
I0114 21:27:04.882371 15424 net.cpp:129] Top shape: 100 7 (700)
I0114 21:27:04.882371 15424 net.cpp:137] Memory required for data: 658723200
I0114 21:27:04.882371 15424 layer_factory.cpp:58] Creating layer accuracy
I0114 21:27:04.882371 15424 net.cpp:84] Creating Layer accuracy
I0114 21:27:04.882371 15424 net.cpp:406] accuracy <- fc8_flickr_fc8_flickr_0_split_0
I0114 21:27:04.882371 15424 net.cpp:406] accuracy <- label_data_1_split_0
I0114 21:27:04.882371 15424 net.cpp:380] accuracy -> accuracy
…
