…
I0114 11:24:59.709092  9552 net.cpp:294] The NetState phase (0) differed from the phase (1) specified by a rule in layer accuracy
I0114 11:24:59.709092  9552 net.cpp:51] Initializing net from parameters: 
name: "LeNet"
state {
  phase: TRAIN
  level: 0
  stage: ""
}
layer {
  name: "mnist"
  type: "Data"
  top: "data"
  top: "label"
  include {
    phase: TRAIN
  }
  transform_param {
    scale: 0.00390625
    mean_file: "data2/date_mean.binaryproto"
  }
  data_param {
    source: "./data2/rail_train_lmdb"
    batch_size: 32
    backend: LMDB
  }
}
layer {
  name: "conv1"
  type: "Convolution"
  bottom: "data"
  top: "conv1"
  param {
    lr_mult: 1
  }
  param {
    lr_mult: 2
  }
  convolution_param {
    num_output: 30
    kernel_size: 5
    stride: 1
    weight_filler {
      type: "xavier"
    }
    bias_filler {
      type: "constant"
    }
  }
}
layer {
  name: "relu1"
  type: "ReLU"
  bottom: "conv1"
  top: "conv1"
}
layer {
  name: "norm1"
  type: "LRN"
  bottom: "conv1"
  top: "norm1"
  lrn_param {
    local_size: 5
    alpha: 0.0001
    beta: 0.75
  }
}
layer {
  name: "pool1"
  type: "Pooling"
  bottom: "norm1"
  top: "pool1"
  pooling_param {
    pool: MAX
    kernel_size: 3
    stride: 2
  }
}
layer {
  name: "conv2"
  type: "Convolution"
  bottom: "pool1"
  top: "conv2"
  param {
    lr_mult: 1
  }
  param {
    lr_mult: 2
  }
  convolution_param {
    num_output: 30
    kernel_size: 5
    stride: 1
    weight_filler {
      type: "xavier"
    }
    bias_filler {
      type: "constant"
    }
  }
}
layer {
  name: "relu2"
  type: "ReLU"
  bottom: "conv2"
  top: "conv2"
}
layer {
  name: "norm2"
  type: "LRN"
  bottom: "conv2"
  top: "norm2"
  lrn_param {
    local_size: 5
    alpha: 0.0001
    beta: 0.75
  }
}
layer {
  name: "pool2"
  type: "Pooling"
  bottom: "norm2"
  top: "pool2"
  pooling_param {
    pool: MAX
    kernel_size: 3
    stride: 2
  }
}
layer {
  name: "conv3"
  type: "Convolution"
  bottom: "pool2"
  top: "conv3"
  param {
    lr_mult: 1
  }
  param {
    lr_mult: 2
  }
  convolution_param {
    num_output: 30
    kernel_size: 5
    stride: 1
    weight_filler {
      type: "xavier"
    }
    bias_filler {
      type: "constant"
    }
  }
}
layer {
  name: "relu3"
  type: "ReLU"
  bottom: "conv3"
  top: "conv3"
}
layer {
  name: "norm3"
  type: "LRN"
  bottom: "conv3"
  top: "norm3"
  lrn_param {
    local_size: 5
    alpha: 0.0001
    beta: 0.75
  }
}
layer {
  name: "pool3"
  type: "Pooling"
  bottom: "norm3"
  top: "pool3"
  pooling_param {
    pool: MAX
    kernel_size: 3
    stride: 2
  }
}
layer {
  name: "conv4"
  type: "Convolution"
  bottom: "pool3"
  top: "conv4"
  param {
    lr_mult: 1
  }
  param {
    lr_mult: 2
  }
  convolution_param {
    num_output: 50
    kernel_size: 5
    stride: 1
    weight_filler {
      type: "xavier"
    }
    bias_filler {
      type: "constant"
    }
  }
}
layer {
  name: "relu4"
  type: "ReLU"
  bottom: "conv4"
  top: "conv4"
}
layer {
  name: "norm4"
  type: "LRN"
  bottom: "conv4"
  top: "norm4"
  lrn_param {
    local_size: 5
    alpha: 0.0001
    beta: 0.75
  }
}
layer {
  name: "pool4"
  type: "Pooling"
  bottom: "norm4"
  top: "pool4"
  pooling_param {
    pool: MAX
    kernel_size: 3
    stride: 2
  }
}
layer {
  name: "ip1"
  type: "InnerProduct"
  bottom: "pool4"
  top: "ip1"
  param {
    lr_mult: 1
  }
  param {
    lr_mult: 2
  }
  inner_product_param {
    num_output: 50
    weight_filler {
      type: "xavier"
    }
    bias_filler {
      type: "constant"
    }
  }
}
layer {
  name: "relu5"
  type: "ReLU"
  bottom: "ip1"
  top: "ip1"
}
layer {
  name: "drop5"
  type: "Dropout"
  bottom: "ip1"
  top: "ip1"
  dropout_param {
    dropout_ratio: 0.5
  }
}
layer {
  name: "ip2"
  type: "InnerProduct"
  bottom: "ip1"
  top: "ip2"
  param {
    lr_mult: 1
  }
  param {
    lr_mult: 2
  }
  inner_product_param {
    num_output: 7
    weight_filler {
      type: "xavier"
    }
    bias_filler {
      type: "constant"
    }
  }
}
layer {
  name: "loss"
  type: "SoftmaxWithLoss"
  bottom: "ip2"
  bottom: "label"
  top: "loss"
}
I0114 11:24:59.709092  9552 layer_factory.cpp:58] Creating layer mnist
I0114 11:24:59.709092  9552 db_lmdb.cpp:40] Opened lmdb ./data2/rail_train_lmdb
I0114 11:24:59.709092  9552 net.cpp:84] Creating Layer mnist
I0114 11:24:59.709092  9552 net.cpp:380] mnist -> data
I0114 11:24:59.709092  9552 net.cpp:380] mnist -> label
I0114 11:24:59.709092  9552 data_transformer.cpp:25] Loading mean file from: data2/date_mean.binaryproto
I0114 11:24:59.724720  9552 data_layer.cpp:45] output data size: 32,3,200,200
I0114 11:24:59.755985  9552 common.cpp:36] System entropy source not available, using fallback algorithm to generate seed instead.
I0114 11:24:59.755985  9552 net.cpp:122] Setting up mnist
I0114 11:24:59.755985  9552 net.cpp:129] Top shape: 32 3 200 200 (3840000)
I0114 11:24:59.755985  9552 net.cpp:129] Top shape: 32 (32)
I0114 11:24:59.755985  9552 net.cpp:137] Memory required for data: 15360128
I0114 11:24:59.755985  9552 layer_factory.cpp:58] Creating layer conv1
I0114 11:24:59.755985  9552 net.cpp:84] Creating Layer conv1
I0114 11:24:59.755985  9552 net.cpp:406] conv1 <- data
I0114 11:24:59.755985  9552 net.cpp:380] conv1 -> conv1
I0114 11:24:59.755985  2208 common.cpp:36] System entropy source not available, using fallback algorithm to generate seed instead.
I0114 11:25:00.095278  9552 net.cpp:122] Setting up conv1
I0114 11:25:00.095278  9552 net.cpp:129] Top shape: 32 30 196 196 (36879360)
I0114 11:25:00.095278  9552 net.cpp:137] Memory required for data: 162877568
I0114 11:25:00.095278  9552 layer_factory.cpp:58] Creating layer relu1
I0114 11:25:00.095278  9552 net.cpp:84] Creating Layer relu1
I0114 11:25:00.095278  9552 net.cpp:406] relu1 <- conv1
I0114 11:25:00.095278  9552 net.cpp:367] relu1 -> conv1 (in-place)
I0114 11:25:00.095278  9552 net.cpp:122] Setting up relu1
I0114 11:25:00.095278  9552 net.cpp:129] Top shape: 32 30 196 196 (36879360)
I0114 11:25:00.095278  9552 net.cpp:137] Memory required for data: 310395008
I0114 11:25:00.095278  9552 layer_factory.cpp:58] Creating layer norm1
I0114 11:25:00.095278  9552 net.cpp:84] Creating Layer norm1
I0114 11:25:00.095278  9552 net.cpp:406] norm1 <- conv1
I0114 11:25:00.095278  9552 net.cpp:380] norm1 -> norm1
I0114 11:25:00.095278  9552 net.cpp:122] Setting up norm1
I0114 11:25:00.095278  9552 net.cpp:129] Top shape: 32 30 196 196 (36879360)
I0114 11:25:00.095278  9552 net.cpp:137] Memory required for data: 457912448
I0114 11:25:00.095278  9552 layer_factory.cpp:58] Creating layer pool1
I0114 11:25:00.095278  9552 net.cpp:84] Creating Layer pool1
I0114 11:25:00.095278  9552 net.cpp:406] pool1 <- norm1
I0114 11:25:00.095278  9552 net.cpp:380] pool1 -> pool1
I0114 11:25:00.095278  9552 net.cpp:122] Setting up pool1
I0114 11:25:00.095278  9552 net.cpp:129] Top shape: 32 30 98 98 (9219840)
I0114 11:25:00.095278  9552 net.cpp:137] Memory required for data: 494791808
I0114 11:25:00.095278  9552 layer_factory.cpp:58] Creating layer conv2
I0114 11:25:00.095278  9552 net.cpp:84] Creating Layer conv2
I0114 11:25:00.095278  9552 net.cpp:406] conv2 <- pool1
I0114 11:25:00.095278  9552 net.cpp:380] conv2 -> conv2
I0114 11:25:00.095278  9552 net.cpp:122] Setting up conv2
I0114 11:25:00.095278  9552 net.cpp:129] Top shape: 32 30 94 94 (8482560)
I0114 11:25:00.095278  9552 net.cpp:137] Memory required for data: 528722048
I0114 11:25:00.095278  9552 layer_factory.cpp:58] Creating layer relu2
I0114 11:25:00.095278  9552 net.cpp:84] Creating Layer relu2
I0114 11:25:00.095278  9552 net.cpp:406] relu2 <- conv2
I0114 11:25:00.095278  9552 net.cpp:367] relu2 -> conv2 (in-place)
I0114 11:25:00.095278  9552 net.cpp:122] Setting up relu2
I0114 11:25:00.095278  9552 net.cpp:129] Top shape: 32 30 94 94 (8482560)
I0114 11:25:00.095278  9552 net.cpp:137] Memory required for data: 562652288
I0114 11:25:00.095278  9552 layer_factory.cpp:58] Creating layer norm2
I0114 11:25:00.095278  9552 net.cpp:84] Creating Layer norm2
I0114 11:25:00.095278  9552 net.cpp:406] norm2 <- conv2
I0114 11:25:00.095278  9552 net.cpp:380] norm2 -> norm2
I0114 11:25:00.095278  9552 net.cpp:122] Setting up norm2
I0114 11:25:00.095278  9552 net.cpp:129] Top shape: 32 30 94 94 (8482560)
I0114 11:25:00.095278  9552 net.cpp:137] Memory required for data: 596582528
I0114 11:25:00.095278  9552 layer_factory.cpp:58] Creating layer pool2
I0114 11:25:00.095278  9552 net.cpp:84] Creating Layer pool2
I0114 11:25:00.095278  9552 net.cpp:406] pool2 <- norm2
I0114 11:25:00.095278  9552 net.cpp:380] pool2 -> pool2
I0114 11:25:00.095278  9552 net.cpp:122] Setting up pool2
I0114 11:25:00.095278  9552 net.cpp:129] Top shape: 32 30 47 47 (2120640)
I0114 11:25:00.095278  9552 net.cpp:137] Memory required for data: 605065088
I0114 11:25:00.095278  9552 layer_factory.cpp:58] Creating layer conv3
I0114 11:25:00.095278  9552 net.cpp:84] Creating Layer conv3
I0114 11:25:00.095278  9552 net.cpp:406] conv3 <- pool2
I0114 11:25:00.095278  9552 net.cpp:380] conv3 -> conv3
I0114 11:25:00.095278  9552 net.cpp:122] Setting up conv3
I0114 11:25:00.095278  9552 net.cpp:129] Top shape: 32 30 43 43 (1775040)
I0114 11:25:00.095278  9552 net.cpp:137] Memory required for data: 612165248
I0114 11:25:00.095278  9552 layer_factory.cpp:58] Creating layer relu3
I0114 11:25:00.095278  9552 net.cpp:84] Creating Layer relu3
I0114 11:25:00.095278  9552 net.cpp:406] relu3 <- conv3
I0114 11:25:00.095278  9552 net.cpp:367] relu3 -> conv3 (in-place)
I0114 11:25:00.095278  9552 net.cpp:122] Setting up relu3
I0114 11:25:00.095278  9552 net.cpp:129] Top shape: 32 30 43 43 (1775040)
I0114 11:25:00.095278  9552 net.cpp:137] Memory required for data: 619265408
I0114 11:25:00.095278  9552 layer_factory.cpp:58] Creating layer norm3
I0114 11:25:00.095278  9552 net.cpp:84] Creating Layer norm3
I0114 11:25:00.095278  9552 net.cpp:406] norm3 <- conv3
I0114 11:25:00.095278  9552 net.cpp:380] norm3 -> norm3
I0114 11:25:00.095278  9552 net.cpp:122] Setting up norm3
I0114 11:25:00.095278  9552 net.cpp:129] Top shape: 32 30 43 43 (1775040)
I0114 11:25:00.095278  9552 net.cpp:137] Memory required for data: 626365568
I0114 11:25:00.095278  9552 layer_factory.cpp:58] Creating layer pool3
I0114 11:25:00.095278  9552 net.cpp:84] Creating Layer pool3
I0114 11:25:00.095278  9552 net.cpp:406] pool3 <- norm3
I0114 11:25:00.095278  9552 net.cpp:380] pool3 -> pool3
I0114 11:25:00.095278  9552 net.cpp:122] Setting up pool3
I0114 11:25:00.095278  9552 net.cpp:129] Top shape: 32 30 21 21 (423360)
I0114 11:25:00.095278  9552 net.cpp:137] Memory required for data: 628059008
I0114 11:25:00.095278  9552 layer_factory.cpp:58] Creating layer conv4
I0114 11:25:00.095278  9552 net.cpp:84] Creating Layer conv4
I0114 11:25:00.095278  9552 net.cpp:406] conv4 <- pool3
I0114 11:25:00.095278  9552 net.cpp:380] conv4 -> conv4
I0114 11:25:00.110893  9552 net.cpp:122] Setting up conv4
I0114 11:25:00.110893  9552 net.cpp:129] Top shape: 32 50 17 17 (462400)
I0114 11:25:00.110893  9552 net.cpp:137] Memory required for data: 629908608
I0114 11:25:00.110893  9552 layer_factory.cpp:58] Creating layer relu4
I0114 11:25:00.110893  9552 net.cpp:84] Creating Layer relu4
I0114 11:25:00.110893  9552 net.cpp:406] relu4 <- conv4
I0114 11:25:00.110893  9552 net.cpp:367] relu4 -> conv4 (in-place)
I0114 11:25:00.110893  9552 net.cpp:122] Setting up relu4
I0114 11:25:00.110893  9552 net.cpp:129] Top shape: 32 50 17 17 (462400)
I0114 11:25:00.110893  9552 net.cpp:137] Memory required for data: 631758208
I0114 11:25:00.110893  9552 layer_factory.cpp:58] Creating layer norm4
I0114 11:25:00.110893  9552 net.cpp:84] Creating Layer norm4
I0114 11:25:00.110893  9552 net.cpp:406] norm4 <- conv4
I0114 11:25:00.110893  9552 net.cpp:380] norm4 -> norm4
I0114 11:25:00.110893  9552 net.cpp:122] Setting up norm4
I0114 11:25:00.110893  9552 net.cpp:129] Top shape: 32 50 17 17 (462400)
I0114 11:25:00.110893  9552 net.cpp:137] Memory required for data: 633607808
I0114 11:25:00.110893  9552 layer_factory.cpp:58] Creating layer pool4
I0114 11:25:00.110893  9552 net.cpp:84] Creating Layer pool4
I0114 11:25:00.110893  9552 net.cpp:406] pool4 <- norm4
I0114 11:25:00.110893  9552 net.cpp:380] pool4 -> pool4
I0114 11:25:00.110893  9552 net.cpp:122] Setting up pool4
I0114 11:25:00.110893  9552 net.cpp:129] Top shape: 32 50 8 8 (102400)
I0114 11:25:00.110893  9552 net.cpp:137] Memory required for data: 634017408
I0114 11:25:00.110893  9552 layer_factory.cpp:58] Creating layer ip1
I0114 11:25:00.110893  9552 net.cpp:84] Creating Layer ip1
I0114 11:25:00.110893  9552 net.cpp:406] ip1 <- pool4
I0114 11:25:00.110893  9552 net.cpp:380] ip1 -> ip1
I0114 11:25:00.110893  9552 net.cpp:122] Setting up ip1
I0114 11:25:00.110893  9552 net.cpp:129] Top shape: 32 50 (1600)
I0114 11:25:00.110893  9552 net.cpp:137] Memory required for data: 634023808
I0114 11:25:00.110893  9552 layer_factory.cpp:58] Creating layer relu5
I0114 11:25:00.110893  9552 net.cpp:84] Creating Layer relu5
I0114 11:25:00.110893  9552 net.cpp:406] relu5 <- ip1
I0114 11:25:00.110893  9552 net.cpp:367] relu5 -> ip1 (in-place)
I0114 11:25:00.110893  9552 net.cpp:122] Setting up relu5
I0114 11:25:00.110893  9552 net.cpp:129] Top shape: 32 50 (1600)
I0114 11:25:00.110893  9552 net.cpp:137] Memory required for data: 634030208
I0114 11:25:00.110893  9552 layer_factory.cpp:58] Creating layer drop5
I0114 11:25:00.110893  9552 net.cpp:84] Creating Layer drop5
I0114 11:25:00.110893  9552 net.cpp:406] drop5 <- ip1
I0114 11:25:00.110893  9552 net.cpp:367] drop5 -> ip1 (in-place)
I0114 11:25:00.110893  9552 net.cpp:122] Setting up drop5
I0114 11:25:00.110893  9552 net.cpp:129] Top shape: 32 50 (1600)
I0114 11:25:00.110893  9552 net.cpp:137] Memory required for data: 634036608
I0114 11:25:00.110893  9552 layer_factory.cpp:58] Creating layer ip2
I0114 11:25:00.110893  9552 net.cpp:84] Creating Layer ip2
I0114 11:25:00.110893  9552 net.cpp:406] ip2 <- ip1
I0114 11:25:00.110893  9552 net.cpp:380] ip2 -> ip2
I0114 11:25:00.110893  9552 net.cpp:122] Setting up ip2
I0114 11:25:00.110893  9552 net.cpp:129] Top shape: 32 7 (224)
I0114 11:25:00.110893  9552 net.cpp:137] Memory required for data: 634037504
I0114 11:25:00.110893  9552 layer_factory.cpp:58] Creating layer loss
I0114 11:25:00.110893  9552 net.cpp:84] Creating Layer loss
I0114 11:25:00.110893  9552 net.cpp:406] loss <- ip2
I0114 11:25:00.110893  9552 net.cpp:406] loss <- label
I0114 11:25:00.110893  9552 net.cpp:380] loss -> loss
I0114 11:25:00.110893  9552 layer_factory.cpp:58] Creating layer loss
…
I0114 11:25:00.110893  9552 solver.cpp:172] Creating test net (#0) specified by net file: ./lenet_train_test.prototxt
I0114 11:25:00.110893  9552 net.cpp:294] The NetState phase (1) differed from the phase (0) specified by a rule in layer mnist
I0114 11:25:00.110893  9552 net.cpp:51] Initializing net from parameters: 
name: "LeNet"
state {
  phase: TEST
}
layer {
  name: "mnist"
  type: "Data"
  top: "data"
  top: "label"
  include {
    phase: TEST
  }
  transform_param {
    scale: 0.00390625
  }
  data_param {
    source: "./data2/rail_val_lmdb"
    batch_size: 100
    backend: LMDB
  }
}
layer {
  name: "conv1"
  type: "Convolution"
  bottom: "data"
  top: "conv1"
  param {
    lr_mult: 1
  }
  param {
    lr_mult: 2
  }
  convolution_param {
    num_output: 30
    kernel_size: 5
    stride: 1
    weight_filler {
      type: "xavier"
    }
    bias_filler {
      type: "constant"
    }
  }
}
layer {
  name: "relu1"
  type: "ReLU"
  bottom: "conv1"
  top: "conv1"
}
layer {
  name: "norm1"
  type: "LRN"
  bottom: "conv1"
  top: "norm1"
  lrn_param {
    local_size: 5
    alpha: 0.0001
    beta: 0.75
  }
}
layer {
  name: "pool1"
  type: "Pooling"
  bottom: "norm1"
  top: "pool1"
  pooling_param {
    pool: MAX
    kernel_size: 3
    stride: 2
  }
}
layer {
  name: "conv2"
  type: "Convolution"
  bottom: "pool1"
  top: "conv2"
  param {
    lr_mult: 1
  }
  param {
    lr_mult: 2
  }
  convolution_param {
    num_output: 30
    kernel_size: 5
    stride: 1
    weight_filler {
      type: "xavier"
    }
    bias_filler {
      type: "constant"
    }
  }
}
layer {
  name: "relu2"
  type: "ReLU"
  bottom: "conv2"
  top: "conv2"
}
layer {
  name: "norm2"
  type: "LRN"
  bottom: "conv2"
  top: "norm2"
  lrn_param {
    local_size: 5
    alpha: 0.0001
    beta: 0.75
  }
}
layer {
  name: "pool2"
  type: "Pooling"
  bottom: "norm2"
  top: "pool2"
  pooling_param {
    pool: MAX
    kernel_size: 3
    stride: 2
  }
}
layer {
  name: "conv3"
  type: "Convolution"
  bottom: "pool2"
  top: "conv3"
  param {
    lr_mult: 1
  }
  param {
    lr_mult: 2
  }
  convolution_param {
    num_output: 30
    kernel_size: 5
    stride: 1
    weight_filler {
      type: "xavier"
    }
    bias_filler {
      type: "constant"
    }
  }
}
layer {
  name: "relu3"
  type: "ReLU"
  bottom: "conv3"
  top: "conv3"
}
layer {
  name: "norm3"
  type: "LRN"
  bottom: "conv3"
  top: "norm3"
  lrn_param {
    local_size: 5
    alpha: 0.0001
    beta: 0.75
  }
}
layer {
  name: "pool3"
  type: "Pooling"
  bottom: "norm3"
  top: "pool3"
  pooling_param {
    pool: MAX
    kernel_size: 3
    stride: 2
  }
}
layer {
  name: "conv4"
  type: "Convolution"
  bottom: "pool3"
  top: "conv4"
  param {
    lr_mult: 1
  }
  param {
    lr_mult: 2
  }
  convolution_param {
    num_output: 50
    kernel_size: 5
    stride: 1
    weight_filler {
      type: "xavier"
    }
    bias_filler {
      type: "constant"
    }
  }
}
layer {
  name: "relu4"
  type: "ReLU"
  bottom: "conv4"
  top: "conv4"
}
layer {
  name: "norm4"
  type: "LRN"
  bottom: "conv4"
  top: "norm4"
  lrn_param {
    local_size: 5
    alpha: 0.0001
    beta: 0.75
  }
}
layer {
  name: "pool4"
  type: "Pooling"
  bottom: "norm4"
  top: "pool4"
  pooling_param {
    pool: MAX
    kernel_size: 3
    stride: 2
  }
}
layer {
  name: "ip1"
  type: "InnerProduct"
  bottom: "pool4"
  top: "ip1"
  param {
    lr_mult: 1
  }
  param {
    lr_mult: 2
  }
  inner_product_param {
    num_output: 50
    weight_filler {
      type: "xavier"
    }
    bias_filler {
      type: "constant"
    }
  }
}
layer {
  name: "relu5"
  type: "ReLU"
  bottom: "ip1"
  top: "ip1"
}
layer {
  name: "drop5"
  type: "Dropout"
  bottom: "ip1"
  top: "ip1"
  dropout_param {
    dropout_ratio: 0.5
  }
}
layer {
  name: "ip2"
  type: "InnerProduct"
  bottom: "ip1"
  top: "ip2"
  param {
    lr_mult: 1
  }
  param {
    lr_mult: 2
  }
  inner_product_param {
    num_output: 7
    weight_filler {
      type: "xavier"
    }
    bias_filler {
      type: "constant"
    }
  }
}
layer {
  name: "accuracy"
  type: "Accuracy"
  bottom: "ip2"
  bottom: "label"
  top: "accuracy"
  include {
    phase: TEST
  }
}
layer {
  name: "loss"
  type: "SoftmaxWithLoss"
  bottom: "ip2"
  bottom: "label"
  top: "loss"
}
I0114 11:25:00.110893  9552 layer_factory.cpp:58] Creating layer mnist
I0114 11:25:00.110893  9552 db_lmdb.cpp:40] Opened lmdb ./data2/rail_val_lmdb
I0114 11:25:00.110893  9552 net.cpp:84] Creating Layer mnist
I0114 11:25:00.110893  9552 net.cpp:380] mnist -> data
I0114 11:25:00.110893  9552 net.cpp:380] mnist -> label
I0114 11:25:00.110893  9552 data_layer.cpp:45] output data size: 100,3,200,200
I0114 11:25:00.213518  9552 net.cpp:122] Setting up mnist
I0114 11:25:00.213518  9552 net.cpp:129] Top shape: 100 3 200 200 (12000000)
I0114 11:25:00.213518  9552 net.cpp:129] Top shape: 100 (100)
I0114 11:25:00.213518  9552 net.cpp:137] Memory required for data: 48000400
I0114 11:25:00.213518  9552 layer_factory.cpp:58] Creating layer label_mnist_1_split
I0114 11:25:00.213518  9552 net.cpp:84] Creating Layer label_mnist_1_split
I0114 11:25:00.213518  9552 net.cpp:406] label_mnist_1_split <- label
I0114 11:25:00.213518  9552 net.cpp:380] label_mnist_1_split -> label_mnist_1_split_0
I0114 11:25:00.213518  9552 net.cpp:380] label_mnist_1_split -> label_mnist_1_split_1
I0114 11:25:00.214522  9552 net.cpp:122] Setting up label_mnist_1_split
I0114 11:25:00.214522  9552 net.cpp:129] Top shape: 100 (100)
I0114 11:25:00.214522  9552 net.cpp:129] Top shape: 100 (100)
I0114 11:25:00.214522  9552 net.cpp:137] Memory required for data: 48001200
I0114 11:25:00.214522  9552 layer_factory.cpp:58] Creating layer conv1
I0114 11:25:00.214522  9552 net.cpp:84] Creating Layer conv1
I0114 11:25:00.214522  9552 net.cpp:406] conv1 <- data
I0114 11:25:00.214522  9552 net.cpp:380] conv1 -> conv1
I0114 11:25:00.215524  8764 common.cpp:36] System entropy source not available, using fallback algorithm to generate seed instead.
I0114 11:25:00.215524  9552 net.cpp:122] Setting up conv1
I0114 11:25:00.215524  9552 net.cpp:129] Top shape: 100 30 196 196 (115248000)
I0114 11:25:00.215524  9552 net.cpp:137] Memory required for data: 508993200
I0114 11:25:00.215524  9552 layer_factory.cpp:58] Creating layer relu1
I0114 11:25:00.215524  9552 net.cpp:84] Creating Layer relu1
I0114 11:25:00.215524  9552 net.cpp:406] relu1 <- conv1
I0114 11:25:00.215524  9552 net.cpp:367] relu1 -> conv1 (in-place)
I0114 11:25:00.221541  9552 net.cpp:122] Setting up relu1
I0114 11:25:00.221541  9552 net.cpp:129] Top shape: 100 30 196 196 (115248000)
I0114 11:25:00.221541  9552 net.cpp:137] Memory required for data: 969985200
I0114 11:25:00.221541  9552 layer_factory.cpp:58] Creating layer norm1
I0114 11:25:00.221541  9552 net.cpp:84] Creating Layer norm1
I0114 11:25:00.221541  9552 net.cpp:406] norm1 <- conv1
I0114 11:25:00.221541  9552 net.cpp:380] norm1 -> norm1
I0114 11:25:00.221541  9552 net.cpp:122] Setting up norm1
I0114 11:25:00.221541  9552 net.cpp:129] Top shape: 100 30 196 196 (115248000)
I0114 11:25:00.221541  9552 net.cpp:137] Memory required for data: 1430977200
I0114 11:25:00.221541  9552 layer_factory.cpp:58] Creating layer pool1
I0114 11:25:00.221541  9552 net.cpp:84] Creating Layer pool1
I0114 11:25:00.221541  9552 net.cpp:406] pool1 <- norm1
I0114 11:25:00.221541  9552 net.cpp:380] pool1 -> pool1
I0114 11:25:00.221541  9552 net.cpp:122] Setting up pool1
I0114 11:25:00.221541  9552 net.cpp:129] Top shape: 100 30 98 98 (28812000)
I0114 11:25:00.221541  9552 net.cpp:137] Memory required for data: 1546225200
I0114 11:25:00.221541  9552 layer_factory.cpp:58] Creating layer conv2
I0114 11:25:00.221541  9552 net.cpp:84] Creating Layer conv2
I0114 11:25:00.221541  9552 net.cpp:406] conv2 <- pool1
I0114 11:25:00.221541  9552 net.cpp:380] conv2 -> conv2
I0114 11:25:00.223554  9552 net.cpp:122] Setting up conv2
I0114 11:25:00.223554  9552 net.cpp:129] Top shape: 100 30 94 94 (26508000)
I0114 11:25:00.223554  9552 net.cpp:137] Memory required for data: 1652257200
I0114 11:25:00.223554  9552 layer_factory.cpp:58] Creating layer relu2
I0114 11:25:00.223554  9552 net.cpp:84] Creating Layer relu2
I0114 11:25:00.223554  9552 net.cpp:406] relu2 <- conv2
I0114 11:25:00.223554  9552 net.cpp:367] relu2 -> conv2 (in-place)
I0114 11:25:00.223554  9552 net.cpp:122] Setting up relu2
I0114 11:25:00.223554  9552 net.cpp:129] Top shape: 100 30 94 94 (26508000)
I0114 11:25:00.223554  9552 net.cpp:137] Memory required for data: 1758289200
I0114 11:25:00.223554  9552 layer_factory.cpp:58] Creating layer norm2
I0114 11:25:00.223554  9552 net.cpp:84] Creating Layer norm2
I0114 11:25:00.223554  9552 net.cpp:406] norm2 <- conv2
I0114 11:25:00.223554  9552 net.cpp:380] norm2 -> norm2
I0114 11:25:00.224548  9552 net.cpp:122] Setting up norm2
I0114 11:25:00.224548  9552 net.cpp:129] Top shape: 100 30 94 94 (26508000)
I0114 11:25:00.224548  9552 net.cpp:137] Memory required for data: 1864321200
I0114 11:25:00.224548  9552 layer_factory.cpp:58] Creating layer pool2
I0114 11:25:00.224548  9552 net.cpp:84] Creating Layer pool2
I0114 11:25:00.224548  9552 net.cpp:406] pool2 <- norm2
I0114 11:25:00.224548  9552 net.cpp:380] pool2 -> pool2
I0114 11:25:00.224548  9552 net.cpp:122] Setting up pool2
I0114 11:25:00.224548  9552 net.cpp:129] Top shape: 100 30 47 47 (6627000)
I0114 11:25:00.224548  9552 net.cpp:137] Memory required for data: 1890829200
I0114 11:25:00.224548  9552 layer_factory.cpp:58] Creating layer conv3
I0114 11:25:00.224548  9552 net.cpp:84] Creating Layer conv3
I0114 11:25:00.224548  9552 net.cpp:406] conv3 <- pool2
I0114 11:25:00.224548  9552 net.cpp:380] conv3 -> conv3
I0114 11:25:00.226553  9552 net.cpp:122] Setting up conv3
I0114 11:25:00.226553  9552 net.cpp:129] Top shape: 100 30 43 43 (5547000)
I0114 11:25:00.226553  9552 net.cpp:137] Memory required for data: 1913017200
I0114 11:25:00.226553  9552 layer_factory.cpp:58] Creating layer relu3
I0114 11:25:00.226553  9552 net.cpp:84] Creating Layer relu3
I0114 11:25:00.226553  9552 net.cpp:406] relu3 <- conv3
I0114 11:25:00.226553  9552 net.cpp:367] relu3 -> conv3 (in-place)
I0114 11:25:00.226553  9552 net.cpp:122] Setting up relu3
I0114 11:25:00.226553  9552 net.cpp:129] Top shape: 100 30 43 43 (5547000)
I0114 11:25:00.226553  9552 net.cpp:137] Memory required for data: 1935205200
I0114 11:25:00.226553  9552 layer_factory.cpp:58] Creating layer norm3
I0114 11:25:00.226553  9552 net.cpp:84] Creating Layer norm3
I0114 11:25:00.226553  9552 net.cpp:406] norm3 <- conv3
I0114 11:25:00.226553  9552 net.cpp:380] norm3 -> norm3
I0114 11:25:00.227556  9552 net.cpp:122] Setting up norm3
I0114 11:25:00.227556  9552 net.cpp:129] Top shape: 100 30 43 43 (5547000)
I0114 11:25:00.227556  9552 net.cpp:137] Memory required for data: 1957393200
I0114 11:25:00.227556  9552 layer_factory.cpp:58] Creating layer pool3
I0114 11:25:00.227556  9552 net.cpp:84] Creating Layer pool3
I0114 11:25:00.227556  9552 net.cpp:406] pool3 <- norm3
I0114 11:25:00.227556  9552 net.cpp:380] pool3 -> pool3
I0114 11:25:00.227556  9552 net.cpp:122] Setting up pool3
I0114 11:25:00.227556  9552 net.cpp:129] Top shape: 100 30 21 21 (1323000)
I0114 11:25:00.227556  9552 net.cpp:137] Memory required for data: 1962685200
I0114 11:25:00.227556  9552 layer_factory.cpp:58] Creating layer conv4
I0114 11:25:00.227556  9552 net.cpp:84] Creating Layer conv4
I0114 11:25:00.227556  9552 net.cpp:406] conv4 <- pool3
I0114 11:25:00.227556  9552 net.cpp:380] conv4 -> conv4
I0114 11:25:00.228559  9552 net.cpp:122] Setting up conv4
I0114 11:25:00.228559  9552 net.cpp:129] Top shape: 100 50 17 17 (1445000)
I0114 11:25:00.228559  9552 net.cpp:137] Memory required for data: 1968465200
I0114 11:25:00.228559  9552 layer_factory.cpp:58] Creating layer relu4
I0114 11:25:00.228559  9552 net.cpp:84] Creating Layer relu4
I0114 11:25:00.228559  9552 net.cpp:406] relu4 <- conv4
I0114 11:25:00.228559  9552 net.cpp:367] relu4 -> conv4 (in-place)
I0114 11:25:00.229562  9552 net.cpp:122] Setting up relu4
I0114 11:25:00.229562  9552 net.cpp:129] Top shape: 100 50 17 17 (1445000)
I0114 11:25:00.229562  9552 net.cpp:137] Memory required for data: 1974245200
I0114 11:25:00.229562  9552 layer_factory.cpp:58] Creating layer norm4
I0114 11:25:00.229562  9552 net.cpp:84] Creating Layer norm4
I0114 11:25:00.229562  9552 net.cpp:406] norm4 <- conv4
I0114 11:25:00.229562  9552 net.cpp:380] norm4 -> norm4
I0114 11:25:00.229562  9552 net.cpp:122] Setting up norm4
I0114 11:25:00.229562  9552 net.cpp:129] Top shape: 100 50 17 17 (1445000)
I0114 11:25:00.229562  9552 net.cpp:137] Memory required for data: 1980025200
I0114 11:25:00.229562  9552 layer_factory.cpp:58] Creating layer pool4
I0114 11:25:00.229562  9552 net.cpp:84] Creating Layer pool4
I0114 11:25:00.229562  9552 net.cpp:406] pool4 <- norm4
I0114 11:25:00.229562  9552 net.cpp:380] pool4 -> pool4
I0114 11:25:00.229562  9552 net.cpp:122] Setting up pool4
I0114 11:25:00.229562  9552 net.cpp:129] Top shape: 100 50 8 8 (320000)
I0114 11:25:00.229562  9552 net.cpp:137] Memory required for data: 1981305200
I0114 11:25:00.229562  9552 layer_factory.cpp:58] Creating layer ip1
I0114 11:25:00.229562  9552 net.cpp:84] Creating Layer ip1
I0114 11:25:00.229562  9552 net.cpp:406] ip1 <- pool4
I0114 11:25:00.229562  9552 net.cpp:380] ip1 -> ip1
I0114 11:25:00.230564  9552 net.cpp:122] Setting up ip1
I0114 11:25:00.230564  9552 net.cpp:129] Top shape: 100 50 (5000)
I0114 11:25:00.230564  9552 net.cpp:137] Memory required for data: 1981325200
I0114 11:25:00.230564  9552 layer_factory.cpp:58] Creating layer relu5
I0114 11:25:00.230564  9552 net.cpp:84] Creating Layer relu5
I0114 11:25:00.230564  9552 net.cpp:406] relu5 <- ip1
I0114 11:25:00.230564  9552 net.cpp:367] relu5 -> ip1 (in-place)
I0114 11:25:00.231566  9552 net.cpp:122] Setting up relu5
I0114 11:25:00.231566  9552 net.cpp:129] Top shape: 100 50 (5000)
I0114 11:25:00.231566  9552 net.cpp:137] Memory required for data: 1981345200
I0114 11:25:00.231566  9552 layer_factory.cpp:58] Creating layer drop5
I0114 11:25:00.231566  9552 net.cpp:84] Creating Layer drop5
I0114 11:25:00.231566  9552 net.cpp:406] drop5 <- ip1
I0114 11:25:00.231566  9552 net.cpp:367] drop5 -> ip1 (in-place)
I0114 11:25:00.231566  9552 net.cpp:122] Setting up drop5
I0114 11:25:00.231566  9552 net.cpp:129] Top shape: 100 50 (5000)
I0114 11:25:00.231566  9552 net.cpp:137] Memory required for data: 1981365200
I0114 11:25:00.231566  9552 layer_factory.cpp:58] Creating layer ip2
I0114 11:25:00.231566  9552 net.cpp:84] Creating Layer ip2
I0114 11:25:00.231566  9552 net.cpp:406] ip2 <- ip1
I0114 11:25:00.231566  9552 net.cpp:380] ip2 -> ip2
I0114 11:25:00.231566  9552 net.cpp:122] Setting up ip2
I0114 11:25:00.231566  9552 net.cpp:129] Top shape: 100 7 (700)
I0114 11:25:00.231566  9552 net.cpp:137] Memory required for data: 1981368000
I0114 11:25:00.231566  9552 layer_factory.cpp:58] Creating layer ip2_ip2_0_split
I0114 11:25:00.231566  9552 net.cpp:84] Creating Layer ip2_ip2_0_split
I0114 11:25:00.231566  9552 net.cpp:406] ip2_ip2_0_split <- ip2
I0114 11:25:00.231566  9552 net.cpp:380] ip2_ip2_0_split -> ip2_ip2_0_split_0
I0114 11:25:00.231566  9552 net.cpp:380] ip2_ip2_0_split -> ip2_ip2_0_split_1
I0114 11:25:00.231566  9552 net.cpp:122] Setting up ip2_ip2_0_split
I0114 11:25:00.231566  9552 net.cpp:129] Top shape: 100 7 (700)
I0114 11:25:00.231566  9552 net.cpp:129] Top shape: 100 7 (700)
I0114 11:25:00.231566  9552 net.cpp:137] Memory required for data: 1981373600
I0114 11:25:00.231566  9552 layer_factory.cpp:58] Creating layer accuracy
I0114 11:25:00.231566  9552 net.cpp:84] Creating Layer accuracy
I0114 11:25:00.231566  9552 net.cpp:406] accuracy <- ip2_ip2_0_split_0
I0114 11:25:00.231566  9552 net.cpp:406] accuracy <- label_mnist_1_split_0
I0114 11:25:00.231566  9552 net.cpp:380] accuracy -> accuracy
…
