…
I0110 12:28:18.307557  8682 net.cpp:294] The NetState phase (0) differed from the phase (1) specified by a rule in layer mnist
I0110 12:28:18.307575  8682 net.cpp:294] The NetState phase (0) differed from the phase (1) specified by a rule in layer accuracy
I0110 12:28:18.307662  8682 net.cpp:51] Initializing net from parameters: 
name: "LeNet"
state {
  phase: TRAIN
  level: 0
  stage: ""
}
layer {
  name: "mnist"
  type: "Data"
  top: "data"
  top: "label"
  include {
    phase: TRAIN
  }
  transform_param {
    scale: 0.00390625
  }
  data_param {
    source: "./data/rail_train_lmdb"
    batch_size: 128
    backend: LMDB
  }
}
layer {
  name: "conv1"
  type: "Convolution"
  bottom: "data"
  top: "conv1"
  param {
    lr_mult: 1
  }
  param {
    lr_mult: 2
  }
  convolution_param {
    num_output: 30
    kernel_size: 5
    stride: 1
    weight_filler {
      type: "xavier"
    }
    bias_filler {
      type: "constant"
    }
  }
}
layer {
  name: "relu1"
  type: "ReLU"
  bottom: "conv1"
  top: "conv1"
}
layer {
  name: "pool1"
  type: "Pooling"
  bottom: "conv1"
  top: "pool1"
  pooling_param {
    pool: MAX
    kernel_size: 3
    stride: 2
  }
}
layer {
  name: "conv2"
  type: "Convolution"
  bottom: "pool1"
  top: "conv2"
  param {
    lr_mult: 1
  }
  param {
    lr_mult: 2
  }
  convolution_param {
    num_output: 30
    kernel_size: 5
    stride: 1
    weight_filler {
      type: "xavier"
    }
    bias_filler {
      type: "constant"
    }
  }
}
layer {
  name: "relu3"
  type: "ReLU"
  bottom: "conv2"
  top: "conv2"
}
layer {
  name: "pool2"
  type: "Pooling"
  bottom: "conv2"
  top: "pool2"
  pooling_param {
    pool: MAX
    kernel_size: 3
    stride: 2
  }
}
layer {
  name: "conv3"
  type: "Convolution"
  bottom: "pool2"
  top: "conv3"
  param {
    lr_mult: 1
  }
  param {
    lr_mult: 2
  }
  convolution_param {
    num_output: 30
    kernel_size: 5
    stride: 1
    weight_filler {
      type: "xavier"
    }
    bias_filler {
      type: "constant"
    }
  }
}
layer {
  name: "relu4"
  type: "ReLU"
  bottom: "conv3"
  top: "conv3"
}
layer {
  name: "pool3"
  type: "Pooling"
  bottom: "conv3"
  top: "pool3"
  pooling_param {
    pool: MAX
    kernel_size: 3
    stride: 2
  }
}
layer {
  name: "conv4"
  type: "Convolution"
  bottom: "pool3"
  top: "conv4"
  param {
    lr_mult: 1
  }
  param {
    lr_mult: 2
  }
  convolution_param {
    num_output: 50
    kernel_size: 5
    stride: 1
    weight_filler {
      type: "xavier"
    }
    bias_filler {
      type: "constant"
    }
  }
}
layer {
  name: "relu5"
  type: "ReLU"
  bottom: "conv4"
  top: "conv4"
}
layer {
  name: "pool4"
  type: "Pooling"
  bottom: "conv4"
  top: "pool4"
  pooling_param {
    pool: MAX
    kernel_size: 3
    stride: 2
  }
}
layer {
  name: "ip1"
  type: "InnerProduct"
  bottom: "pool4"
  top: "ip1"
  param {
    lr_mult: 1
  }
  param {
    lr_mult: 2
  }
  inner_product_param {
    num_output: 50
    weight_filler {
      type: "xavier"
    }
    bias_filler {
      type: "constant"
    }
  }
}
layer {
  name: "relu6"
  type: "ReLU"
  bottom: "ip1"
  top: "ip1"
}
layer {
  name: "ip2"
  type: "InnerProduct"
  bottom: "ip1"
  top: "ip2"
  param {
    lr_mult: 1
  }
  param {
    lr_mult: 2
  }
  inner_product_param {
    num_output: 7
    weight_filler {
      type: "xavier"
    }
    bias_filler {
      type: "constant"
    }
  }
}
layer {
  name: "loss"
  type: "SoftmaxWithLoss"
  bottom: "ip2"
  bottom: "label"
  top: "loss"
}
I0110 12:28:18.307746  8682 layer_factory.hpp:77] Creating layer mnist
I0110 12:28:18.307932  8682 db_lmdb.cpp:35] Opened lmdb ./data/rail_train_lmdb
I0110 12:28:18.307965  8682 net.cpp:84] Creating Layer mnist
I0110 12:28:18.307976  8682 net.cpp:380] mnist -> data
I0110 12:28:18.308001  8682 net.cpp:380] mnist -> label
I0110 12:28:18.308722  8682 data_layer.cpp:45] output data size: 128,3,200,200
I0110 12:28:18.456794  8682 net.cpp:122] Setting up mnist
I0110 12:28:18.456846  8682 net.cpp:129] Top shape: 128 3 200 200 (15360000)
I0110 12:28:18.456853  8682 net.cpp:129] Top shape: 128 (128)
I0110 12:28:18.456856  8682 net.cpp:137] Memory required for data: 61440512
I0110 12:28:18.456869  8682 layer_factory.hpp:77] Creating layer conv1
I0110 12:28:18.456897  8682 net.cpp:84] Creating Layer conv1
I0110 12:28:18.456907  8682 net.cpp:406] conv1 <- data
I0110 12:28:18.456923  8682 net.cpp:380] conv1 -> conv1
I0110 12:28:19.827438  8682 net.cpp:122] Setting up conv1
I0110 12:28:19.827495  8682 net.cpp:129] Top shape: 128 30 196 196 (147517440)
I0110 12:28:19.827503  8682 net.cpp:137] Memory required for data: 651510272
I0110 12:28:19.827539  8682 layer_factory.hpp:77] Creating layer relu1
I0110 12:28:19.827558  8682 net.cpp:84] Creating Layer relu1
I0110 12:28:19.827565  8682 net.cpp:406] relu1 <- conv1
I0110 12:28:19.827574  8682 net.cpp:367] relu1 -> conv1 (in-place)
I0110 12:28:19.827795  8682 net.cpp:122] Setting up relu1
I0110 12:28:19.827811  8682 net.cpp:129] Top shape: 128 30 196 196 (147517440)
I0110 12:28:19.827816  8682 net.cpp:137] Memory required for data: 1241580032
I0110 12:28:19.827822  8682 layer_factory.hpp:77] Creating layer pool1
I0110 12:28:19.827832  8682 net.cpp:84] Creating Layer pool1
I0110 12:28:19.827836  8682 net.cpp:406] pool1 <- conv1
I0110 12:28:19.827843  8682 net.cpp:380] pool1 -> pool1
I0110 12:28:19.827903  8682 net.cpp:122] Setting up pool1
I0110 12:28:19.827911  8682 net.cpp:129] Top shape: 128 30 98 98 (36879360)
I0110 12:28:19.827916  8682 net.cpp:137] Memory required for data: 1389097472
I0110 12:28:19.827921  8682 layer_factory.hpp:77] Creating layer conv2
I0110 12:28:19.827937  8682 net.cpp:84] Creating Layer conv2
I0110 12:28:19.827942  8682 net.cpp:406] conv2 <- pool1
I0110 12:28:19.827950  8682 net.cpp:380] conv2 -> conv2
I0110 12:28:19.831275  8682 net.cpp:122] Setting up conv2
I0110 12:28:19.831296  8682 net.cpp:129] Top shape: 128 30 94 94 (33930240)
I0110 12:28:19.831302  8682 net.cpp:137] Memory required for data: 1524818432
I0110 12:28:19.831313  8682 layer_factory.hpp:77] Creating layer relu3
I0110 12:28:19.831321  8682 net.cpp:84] Creating Layer relu3
I0110 12:28:19.831327  8682 net.cpp:406] relu3 <- conv2
I0110 12:28:19.831334  8682 net.cpp:367] relu3 -> conv2 (in-place)
I0110 12:28:19.832103  8682 net.cpp:122] Setting up relu3
I0110 12:28:19.832120  8682 net.cpp:129] Top shape: 128 30 94 94 (33930240)
I0110 12:28:19.832125  8682 net.cpp:137] Memory required for data: 1660539392
I0110 12:28:19.832131  8682 layer_factory.hpp:77] Creating layer pool2
I0110 12:28:19.832139  8682 net.cpp:84] Creating Layer pool2
I0110 12:28:19.832144  8682 net.cpp:406] pool2 <- conv2
I0110 12:28:19.832160  8682 net.cpp:380] pool2 -> pool2
I0110 12:28:19.832211  8682 net.cpp:122] Setting up pool2
I0110 12:28:19.832219  8682 net.cpp:129] Top shape: 128 30 47 47 (8482560)
I0110 12:28:19.832224  8682 net.cpp:137] Memory required for data: 1694469632
I0110 12:28:19.832229  8682 layer_factory.hpp:77] Creating layer conv3
I0110 12:28:19.832242  8682 net.cpp:84] Creating Layer conv3
I0110 12:28:19.832247  8682 net.cpp:406] conv3 <- pool2
I0110 12:28:19.832252  8682 net.cpp:380] conv3 -> conv3
I0110 12:28:19.834384  8682 net.cpp:122] Setting up conv3
I0110 12:28:19.834403  8682 net.cpp:129] Top shape: 128 30 43 43 (7100160)
I0110 12:28:19.834408  8682 net.cpp:137] Memory required for data: 1722870272
I0110 12:28:19.834419  8682 layer_factory.hpp:77] Creating layer relu4
I0110 12:28:19.834439  8682 net.cpp:84] Creating Layer relu4
I0110 12:28:19.834456  8682 net.cpp:406] relu4 <- conv3
I0110 12:28:19.834463  8682 net.cpp:367] relu4 -> conv3 (in-place)
I0110 12:28:19.835227  8682 net.cpp:122] Setting up relu4
I0110 12:28:19.835244  8682 net.cpp:129] Top shape: 128 30 43 43 (7100160)
I0110 12:28:19.835249  8682 net.cpp:137] Memory required for data: 1751270912
I0110 12:28:19.835254  8682 layer_factory.hpp:77] Creating layer pool3
I0110 12:28:19.835263  8682 net.cpp:84] Creating Layer pool3
I0110 12:28:19.835268  8682 net.cpp:406] pool3 <- conv3
I0110 12:28:19.835274  8682 net.cpp:380] pool3 -> pool3
I0110 12:28:19.835322  8682 net.cpp:122] Setting up pool3
I0110 12:28:19.835330  8682 net.cpp:129] Top shape: 128 30 21 21 (1693440)
I0110 12:28:19.835335  8682 net.cpp:137] Memory required for data: 1758044672
I0110 12:28:19.835340  8682 layer_factory.hpp:77] Creating layer conv4
I0110 12:28:19.835351  8682 net.cpp:84] Creating Layer conv4
I0110 12:28:19.835356  8682 net.cpp:406] conv4 <- pool3
I0110 12:28:19.835363  8682 net.cpp:380] conv4 -> conv4
I0110 12:28:19.838793  8682 net.cpp:122] Setting up conv4
I0110 12:28:19.838812  8682 net.cpp:129] Top shape: 128 50 17 17 (1849600)
I0110 12:28:19.838819  8682 net.cpp:137] Memory required for data: 1765443072
I0110 12:28:19.838829  8682 layer_factory.hpp:77] Creating layer relu5
I0110 12:28:19.838836  8682 net.cpp:84] Creating Layer relu5
I0110 12:28:19.838841  8682 net.cpp:406] relu5 <- conv4
I0110 12:28:19.838847  8682 net.cpp:367] relu5 -> conv4 (in-place)
I0110 12:28:19.839058  8682 net.cpp:122] Setting up relu5
I0110 12:28:19.839071  8682 net.cpp:129] Top shape: 128 50 17 17 (1849600)
I0110 12:28:19.839076  8682 net.cpp:137] Memory required for data: 1772841472
I0110 12:28:19.839079  8682 layer_factory.hpp:77] Creating layer pool4
I0110 12:28:19.839088  8682 net.cpp:84] Creating Layer pool4
I0110 12:28:19.839093  8682 net.cpp:406] pool4 <- conv4
I0110 12:28:19.839099  8682 net.cpp:380] pool4 -> pool4
I0110 12:28:19.839149  8682 net.cpp:122] Setting up pool4
I0110 12:28:19.839159  8682 net.cpp:129] Top shape: 128 50 8 8 (409600)
I0110 12:28:19.839164  8682 net.cpp:137] Memory required for data: 1774479872
I0110 12:28:19.839167  8682 layer_factory.hpp:77] Creating layer ip1
I0110 12:28:19.839177  8682 net.cpp:84] Creating Layer ip1
I0110 12:28:19.839182  8682 net.cpp:406] ip1 <- pool4
I0110 12:28:19.839190  8682 net.cpp:380] ip1 -> ip1
I0110 12:28:19.840920  8682 net.cpp:122] Setting up ip1
I0110 12:28:19.840936  8682 net.cpp:129] Top shape: 128 50 (6400)
I0110 12:28:19.840941  8682 net.cpp:137] Memory required for data: 1774505472
I0110 12:28:19.840952  8682 layer_factory.hpp:77] Creating layer relu6
I0110 12:28:19.840960  8682 net.cpp:84] Creating Layer relu6
I0110 12:28:19.840965  8682 net.cpp:406] relu6 <- ip1
I0110 12:28:19.840971  8682 net.cpp:367] relu6 -> ip1 (in-place)
I0110 12:28:19.841754  8682 net.cpp:122] Setting up relu6
I0110 12:28:19.841769  8682 net.cpp:129] Top shape: 128 50 (6400)
I0110 12:28:19.841774  8682 net.cpp:137] Memory required for data: 1774531072
I0110 12:28:19.841780  8682 layer_factory.hpp:77] Creating layer ip2
I0110 12:28:19.841789  8682 net.cpp:84] Creating Layer ip2
I0110 12:28:19.841794  8682 net.cpp:406] ip2 <- ip1
I0110 12:28:19.841800  8682 net.cpp:380] ip2 -> ip2
I0110 12:28:19.841920  8682 net.cpp:122] Setting up ip2
I0110 12:28:19.841929  8682 net.cpp:129] Top shape: 128 7 (896)
I0110 12:28:19.841933  8682 net.cpp:137] Memory required for data: 1774534656
I0110 12:28:19.841941  8682 layer_factory.hpp:77] Creating layer loss
I0110 12:28:19.841950  8682 net.cpp:84] Creating Layer loss
I0110 12:28:19.841955  8682 net.cpp:406] loss <- ip2
I0110 12:28:19.841961  8682 net.cpp:406] loss <- label
I0110 12:28:19.841969  8682 net.cpp:380] loss -> loss
I0110 12:28:19.841984  8682 layer_factory.hpp:77] Creating layer loss
…
I0110 12:28:19.842716  8682 solver.cpp:172] Creating test net (#0) specified by net file: ./lenet_train_test.prototxt
I0110 12:28:19.842751  8682 net.cpp:294] The NetState phase (1) differed from the phase (0) specified by a rule in layer mnist
I0110 12:28:19.842877  8682 net.cpp:51] Initializing net from parameters: 
name: "LeNet"
state {
  phase: TEST
}
layer {
  name: "mnist"
  type: "Data"
  top: "data"
  top: "label"
  include {
    phase: TEST
  }
  transform_param {
    scale: 0.00390625
  }
  data_param {
    source: "./data/rail_val_lmdb"
    batch_size: 100
    backend: LMDB
  }
}
layer {
  name: "conv1"
  type: "Convolution"
  bottom: "data"
  top: "conv1"
  param {
    lr_mult: 1
  }
  param {
    lr_mult: 2
  }
  convolution_param {
    num_output: 30
    kernel_size: 5
    stride: 1
    weight_filler {
      type: "xavier"
    }
    bias_filler {
      type: "constant"
    }
  }
}
layer {
  name: "relu1"
  type: "ReLU"
  bottom: "conv1"
  top: "conv1"
}
layer {
  name: "pool1"
  type: "Pooling"
  bottom: "conv1"
  top: "pool1"
  pooling_param {
    pool: MAX
    kernel_size: 3
    stride: 2
  }
}
layer {
  name: "conv2"
  type: "Convolution"
  bottom: "pool1"
  top: "conv2"
  param {
    lr_mult: 1
  }
  param {
    lr_mult: 2
  }
  convolution_param {
    num_output: 30
    kernel_size: 5
    stride: 1
    weight_filler {
      type: "xavier"
    }
    bias_filler {
      type: "constant"
    }
  }
}
layer {
  name: "relu3"
  type: "ReLU"
  bottom: "conv2"
  top: "conv2"
}
layer {
  name: "pool2"
  type: "Pooling"
  bottom: "conv2"
  top: "pool2"
  pooling_param {
    pool: MAX
    kernel_size: 3
    stride: 2
  }
}
layer {
  name: "conv3"
  type: "Convolution"
  bottom: "pool2"
  top: "conv3"
  param {
    lr_mult: 1
  }
  param {
    lr_mult: 2
  }
  convolution_param {
    num_output: 30
    kernel_size: 5
    stride: 1
    weight_filler {
      type: "xavier"
    }
    bias_filler {
      type: "constant"
    }
  }
}
layer {
  name: "relu4"
  type: "ReLU"
  bottom: "conv3"
  top: "conv3"
}
layer {
  name: "pool3"
  type: "Pooling"
  bottom: "conv3"
  top: "pool3"
  pooling_param {
    pool: MAX
    kernel_size: 3
    stride: 2
  }
}
layer {
  name: "conv4"
  type: "Convolution"
  bottom: "pool3"
  top: "conv4"
  param {
    lr_mult: 1
  }
  param {
    lr_mult: 2
  }
  convolution_param {
    num_output: 50
    kernel_size: 5
    stride: 1
    weight_filler {
      type: "xavier"
    }
    bias_filler {
      type: "constant"
    }
  }
}
layer {
  name: "relu5"
  type: "ReLU"
  bottom: "conv4"
  top: "conv4"
}
layer {
  name: "pool4"
  type: "Pooling"
  bottom: "conv4"
  top: "pool4"
  pooling_param {
    pool: MAX
    kernel_size: 3
    stride: 2
  }
}
layer {
  name: "ip1"
  type: "InnerProduct"
  bottom: "pool4"
  top: "ip1"
  param {
    lr_mult: 1
  }
  param {
    lr_mult: 2
  }
  inner_product_param {
    num_output: 50
    weight_filler {
      type: "xavier"
    }
    bias_filler {
      type: "constant"
    }
  }
}
layer {
  name: "relu6"
  type: "ReLU"
  bottom: "ip1"
  top: "ip1"
}
layer {
  name: "ip2"
  type: "InnerProduct"
  bottom: "ip1"
  top: "ip2"
  param {
    lr_mult: 1
  }
  param {
    lr_mult: 2
  }
  inner_product_param {
    num_output: 7
    weight_filler {
      type: "xavier"
    }
    bias_filler {
      type: "constant"
    }
  }
}
layer {
  name: "accuracy"
  type: "Accuracy"
  bottom: "ip2"
  bottom: "label"
  top: "accuracy"
  include {
    phase: TEST
  }
}
layer {
  name: "loss"
  type: "SoftmaxWithLoss"
  bottom: "ip2"
  bottom: "label"
  top: "loss"
}
I0110 12:28:19.842991  8682 layer_factory.hpp:77] Creating layer mnist
I0110 12:28:19.843066  8682 db_lmdb.cpp:35] Opened lmdb ./data/rail_val_lmdb
I0110 12:28:19.843091  8682 net.cpp:84] Creating Layer mnist
I0110 12:28:19.843101  8682 net.cpp:380] mnist -> data
I0110 12:28:19.843111  8682 net.cpp:380] mnist -> label
I0110 12:28:19.843379  8682 data_layer.cpp:45] output data size: 100,3,200,200
I0110 12:28:19.961331  8682 net.cpp:122] Setting up mnist
I0110 12:28:19.961382  8682 net.cpp:129] Top shape: 100 3 200 200 (12000000)
I0110 12:28:19.961390  8682 net.cpp:129] Top shape: 100 (100)
I0110 12:28:19.961408  8682 net.cpp:137] Memory required for data: 48000400
I0110 12:28:19.961416  8682 layer_factory.hpp:77] Creating layer label_mnist_1_split
I0110 12:28:19.961431  8682 net.cpp:84] Creating Layer label_mnist_1_split
I0110 12:28:19.961437  8682 net.cpp:406] label_mnist_1_split <- label
I0110 12:28:19.961447  8682 net.cpp:380] label_mnist_1_split -> label_mnist_1_split_0
I0110 12:28:19.961458  8682 net.cpp:380] label_mnist_1_split -> label_mnist_1_split_1
I0110 12:28:19.961597  8682 net.cpp:122] Setting up label_mnist_1_split
I0110 12:28:19.961606  8682 net.cpp:129] Top shape: 100 (100)
I0110 12:28:19.961611  8682 net.cpp:129] Top shape: 100 (100)
I0110 12:28:19.961613  8682 net.cpp:137] Memory required for data: 48001200
I0110 12:28:19.961617  8682 layer_factory.hpp:77] Creating layer conv1
I0110 12:28:19.961632  8682 net.cpp:84] Creating Layer conv1
I0110 12:28:19.961637  8682 net.cpp:406] conv1 <- data
I0110 12:28:19.961643  8682 net.cpp:380] conv1 -> conv1
I0110 12:28:19.964380  8682 net.cpp:122] Setting up conv1
I0110 12:28:19.964395  8682 net.cpp:129] Top shape: 100 30 196 196 (115248000)
I0110 12:28:19.964401  8682 net.cpp:137] Memory required for data: 508993200
I0110 12:28:19.964411  8682 layer_factory.hpp:77] Creating layer relu1
I0110 12:28:19.964419  8682 net.cpp:84] Creating Layer relu1
I0110 12:28:19.964422  8682 net.cpp:406] relu1 <- conv1
I0110 12:28:19.964431  8682 net.cpp:367] relu1 -> conv1 (in-place)
I0110 12:28:19.968962  8682 net.cpp:122] Setting up relu1
I0110 12:28:19.968976  8682 net.cpp:129] Top shape: 100 30 196 196 (115248000)
I0110 12:28:19.968981  8682 net.cpp:137] Memory required for data: 969985200
I0110 12:28:19.968986  8682 layer_factory.hpp:77] Creating layer pool1
I0110 12:28:19.968997  8682 net.cpp:84] Creating Layer pool1
I0110 12:28:19.969000  8682 net.cpp:406] pool1 <- conv1
I0110 12:28:19.969007  8682 net.cpp:380] pool1 -> pool1
I0110 12:28:19.969053  8682 net.cpp:122] Setting up pool1
I0110 12:28:19.969060  8682 net.cpp:129] Top shape: 100 30 98 98 (28812000)
I0110 12:28:19.969063  8682 net.cpp:137] Memory required for data: 1085233200
I0110 12:28:19.969068  8682 layer_factory.hpp:77] Creating layer conv2
I0110 12:28:19.969076  8682 net.cpp:84] Creating Layer conv2
I0110 12:28:19.969081  8682 net.cpp:406] conv2 <- pool1
I0110 12:28:19.969087  8682 net.cpp:380] conv2 -> conv2
I0110 12:28:19.971204  8682 net.cpp:122] Setting up conv2
I0110 12:28:19.971217  8682 net.cpp:129] Top shape: 100 30 94 94 (26508000)
I0110 12:28:19.971221  8682 net.cpp:137] Memory required for data: 1191265200
I0110 12:28:19.971246  8682 layer_factory.hpp:77] Creating layer relu3
I0110 12:28:19.971253  8682 net.cpp:84] Creating Layer relu3
I0110 12:28:19.971257  8682 net.cpp:406] relu3 <- conv2
I0110 12:28:19.971266  8682 net.cpp:367] relu3 -> conv2 (in-place)
I0110 12:28:19.971873  8682 net.cpp:122] Setting up relu3
I0110 12:28:19.971885  8682 net.cpp:129] Top shape: 100 30 94 94 (26508000)
I0110 12:28:19.971889  8682 net.cpp:137] Memory required for data: 1297297200
I0110 12:28:19.971892  8682 layer_factory.hpp:77] Creating layer pool2
I0110 12:28:19.971899  8682 net.cpp:84] Creating Layer pool2
I0110 12:28:19.971904  8682 net.cpp:406] pool2 <- conv2
I0110 12:28:19.971909  8682 net.cpp:380] pool2 -> pool2
I0110 12:28:19.971951  8682 net.cpp:122] Setting up pool2
I0110 12:28:19.971958  8682 net.cpp:129] Top shape: 100 30 47 47 (6627000)
I0110 12:28:19.971961  8682 net.cpp:137] Memory required for data: 1323805200
I0110 12:28:19.971964  8682 layer_factory.hpp:77] Creating layer conv3
I0110 12:28:19.971976  8682 net.cpp:84] Creating Layer conv3
I0110 12:28:19.971981  8682 net.cpp:406] conv3 <- pool2
I0110 12:28:19.971987  8682 net.cpp:380] conv3 -> conv3
I0110 12:28:19.974175  8682 net.cpp:122] Setting up conv3
I0110 12:28:19.974189  8682 net.cpp:129] Top shape: 100 30 43 43 (5547000)
I0110 12:28:19.974195  8682 net.cpp:137] Memory required for data: 1345993200
I0110 12:28:19.974205  8682 layer_factory.hpp:77] Creating layer relu4
I0110 12:28:19.974211  8682 net.cpp:84] Creating Layer relu4
I0110 12:28:19.974215  8682 net.cpp:406] relu4 <- conv3
I0110 12:28:19.974223  8682 net.cpp:367] relu4 -> conv3 (in-place)
I0110 12:28:19.974386  8682 net.cpp:122] Setting up relu4
I0110 12:28:19.974395  8682 net.cpp:129] Top shape: 100 30 43 43 (5547000)
I0110 12:28:19.974398  8682 net.cpp:137] Memory required for data: 1368181200
I0110 12:28:19.974403  8682 layer_factory.hpp:77] Creating layer pool3
I0110 12:28:19.974411  8682 net.cpp:84] Creating Layer pool3
I0110 12:28:19.974414  8682 net.cpp:406] pool3 <- conv3
I0110 12:28:19.974418  8682 net.cpp:380] pool3 -> pool3
I0110 12:28:19.974459  8682 net.cpp:122] Setting up pool3
I0110 12:28:19.974465  8682 net.cpp:129] Top shape: 100 30 21 21 (1323000)
I0110 12:28:19.974468  8682 net.cpp:137] Memory required for data: 1373473200
I0110 12:28:19.974472  8682 layer_factory.hpp:77] Creating layer conv4
I0110 12:28:19.974481  8682 net.cpp:84] Creating Layer conv4
I0110 12:28:19.974485  8682 net.cpp:406] conv4 <- pool3
I0110 12:28:19.974493  8682 net.cpp:380] conv4 -> conv4
I0110 12:28:19.976266  8682 net.cpp:122] Setting up conv4
I0110 12:28:19.976280  8682 net.cpp:129] Top shape: 100 50 17 17 (1445000)
I0110 12:28:19.976284  8682 net.cpp:137] Memory required for data: 1379253200
I0110 12:28:19.976290  8682 layer_factory.hpp:77] Creating layer relu5
I0110 12:28:19.976299  8682 net.cpp:84] Creating Layer relu5
I0110 12:28:19.976302  8682 net.cpp:406] relu5 <- conv4
I0110 12:28:19.976307  8682 net.cpp:367] relu5 -> conv4 (in-place)
I0110 12:28:19.976904  8682 net.cpp:122] Setting up relu5
I0110 12:28:19.976918  8682 net.cpp:129] Top shape: 100 50 17 17 (1445000)
I0110 12:28:19.976922  8682 net.cpp:137] Memory required for data: 1385033200
I0110 12:28:19.976927  8682 layer_factory.hpp:77] Creating layer pool4
I0110 12:28:19.976933  8682 net.cpp:84] Creating Layer pool4
I0110 12:28:19.976936  8682 net.cpp:406] pool4 <- conv4
I0110 12:28:19.976941  8682 net.cpp:380] pool4 -> pool4
I0110 12:28:19.976984  8682 net.cpp:122] Setting up pool4
I0110 12:28:19.976991  8682 net.cpp:129] Top shape: 100 50 8 8 (320000)
I0110 12:28:19.976994  8682 net.cpp:137] Memory required for data: 1386313200
I0110 12:28:19.976999  8682 layer_factory.hpp:77] Creating layer ip1
I0110 12:28:19.977007  8682 net.cpp:84] Creating Layer ip1
I0110 12:28:19.977011  8682 net.cpp:406] ip1 <- pool4
I0110 12:28:19.977015  8682 net.cpp:380] ip1 -> ip1
I0110 12:28:19.978363  8682 net.cpp:122] Setting up ip1
I0110 12:28:19.978374  8682 net.cpp:129] Top shape: 100 50 (5000)
I0110 12:28:19.978379  8682 net.cpp:137] Memory required for data: 1386333200
I0110 12:28:19.978396  8682 layer_factory.hpp:77] Creating layer relu6
I0110 12:28:19.978404  8682 net.cpp:84] Creating Layer relu6
I0110 12:28:19.978407  8682 net.cpp:406] relu6 <- ip1
I0110 12:28:19.978412  8682 net.cpp:367] relu6 -> ip1 (in-place)
I0110 12:28:19.978574  8682 net.cpp:122] Setting up relu6
I0110 12:28:19.978583  8682 net.cpp:129] Top shape: 100 50 (5000)
I0110 12:28:19.978586  8682 net.cpp:137] Memory required for data: 1386353200
I0110 12:28:19.978591  8682 layer_factory.hpp:77] Creating layer ip2
I0110 12:28:19.978600  8682 net.cpp:84] Creating Layer ip2
I0110 12:28:19.978603  8682 net.cpp:406] ip2 <- ip1
I0110 12:28:19.978610  8682 net.cpp:380] ip2 -> ip2
I0110 12:28:19.978716  8682 net.cpp:122] Setting up ip2
I0110 12:28:19.978725  8682 net.cpp:129] Top shape: 100 7 (700)
I0110 12:28:19.978729  8682 net.cpp:137] Memory required for data: 1386356000
I0110 12:28:19.978734  8682 layer_factory.hpp:77] Creating layer ip2_ip2_0_split
I0110 12:28:19.978739  8682 net.cpp:84] Creating Layer ip2_ip2_0_split
I0110 12:28:19.978744  8682 net.cpp:406] ip2_ip2_0_split <- ip2
I0110 12:28:19.978747  8682 net.cpp:380] ip2_ip2_0_split -> ip2_ip2_0_split_0
I0110 12:28:19.978754  8682 net.cpp:380] ip2_ip2_0_split -> ip2_ip2_0_split_1
I0110 12:28:19.978790  8682 net.cpp:122] Setting up ip2_ip2_0_split
I0110 12:28:19.978796  8682 net.cpp:129] Top shape: 100 7 (700)
I0110 12:28:19.978798  8682 net.cpp:129] Top shape: 100 7 (700)
I0110 12:28:19.978801  8682 net.cpp:137] Memory required for data: 1386361600
I0110 12:28:19.978806  8682 layer_factory.hpp:77] Creating layer accuracy
I0110 12:28:19.978812  8682 net.cpp:84] Creating Layer accuracy
I0110 12:28:19.978816  8682 net.cpp:406] accuracy <- ip2_ip2_0_split_0
I0110 12:28:19.978821  8682 net.cpp:406] accuracy <- label_mnist_1_split_0
I0110 12:28:19.978826  8682 net.cpp:380] accuracy -> accuracy
…
