…
I0111 17:01:49.208029 31933 net.cpp:294] The NetState phase (0) differed from the phase (1) specified by a rule in layer mnist
I0111 17:01:49.208050 31933 net.cpp:294] The NetState phase (0) differed from the phase (1) specified by a rule in layer accuracy
I0111 17:01:49.208159 31933 net.cpp:51] Initializing net from parameters: 
name: "LeNet"
state {
  phase: TRAIN
  level: 0
  stage: ""
}
layer {
  name: "mnist"
  type: "Data"
  top: "data"
  top: "label"
  include {
    phase: TRAIN
  }
  transform_param {
    scale: 0.00390625
  }
  data_param {
    source: "./data2/rail_train_lmdb"
    batch_size: 128
    backend: LMDB
  }
}
layer {
  name: "conv1"
  type: "Convolution"
  bottom: "data"
  top: "conv1"
  param {
    lr_mult: 1
  }
  param {
    lr_mult: 2
  }
  convolution_param {
    num_output: 30
    kernel_size: 5
    stride: 1
    weight_filler {
      type: "xavier"
    }
    bias_filler {
      type: "constant"
    }
  }
}
layer {
  name: "relu1"
  type: "ReLU"
  bottom: "conv1"
  top: "conv1"
}
layer {
  name: "norm1"
  type: "LRN"
  bottom: "conv1"
  top: "norm1"
  lrn_param {
    local_size: 5
    alpha: 0.0001
    beta: 0.75
  }
}
layer {
  name: "pool1"
  type: "Pooling"
  bottom: "norm1"
  top: "pool1"
  pooling_param {
    pool: MAX
    kernel_size: 3
    stride: 2
  }
}
layer {
  name: "conv2"
  type: "Convolution"
  bottom: "pool1"
  top: "conv2"
  param {
    lr_mult: 1
  }
  param {
    lr_mult: 2
  }
  convolution_param {
    num_output: 30
    kernel_size: 5
    stride: 1
    weight_filler {
      type: "xavier"
    }
    bias_filler {
      type: "constant"
    }
  }
}
layer {
  name: "relu2"
  type: "ReLU"
  bottom: "conv2"
  top: "conv2"
}
layer {
  name: "norm2"
  type: "LRN"
  bottom: "conv2"
  top: "norm2"
  lrn_param {
    local_size: 5
    alpha: 0.0001
    beta: 0.75
  }
}
layer {
  name: "pool2"
  type: "Pooling"
  bottom: "norm2"
  top: "pool2"
  pooling_param {
    pool: MAX
    kernel_size: 3
    stride: 2
  }
}
layer {
  name: "conv3"
  type: "Convolution"
  bottom: "pool2"
  top: "conv3"
  param {
    lr_mult: 1
  }
  param {
    lr_mult: 2
  }
  convolution_param {
    num_output: 30
    kernel_size: 5
    stride: 1
    weight_filler {
      type: "xavier"
    }
    bias_filler {
      type: "constant"
    }
  }
}
layer {
  name: "relu3"
  type: "ReLU"
  bottom: "conv3"
  top: "conv3"
}
layer {
  name: "norm3"
  type: "LRN"
  bottom: "conv3"
  top: "norm3"
  lrn_param {
    local_size: 5
    alpha: 0.0001
    beta: 0.75
  }
}
layer {
  name: "pool3"
  type: "Pooling"
  bottom: "norm3"
  top: "pool3"
  pooling_param {
    pool: MAX
    kernel_size: 3
    stride: 2
  }
}
layer {
  name: "conv4"
  type: "Convolution"
  bottom: "pool3"
  top: "conv4"
  param {
    lr_mult: 1
  }
  param {
    lr_mult: 2
  }
  convolution_param {
    num_output: 50
    kernel_size: 5
    stride: 1
    weight_filler {
      type: "xavier"
    }
    bias_filler {
      type: "constant"
    }
  }
}
layer {
  name: "relu4"
  type: "ReLU"
  bottom: "conv4"
  top: "conv4"
}
layer {
  name: "norm4"
  type: "LRN"
  bottom: "conv4"
  top: "norm4"
  lrn_param {
    local_size: 5
    alpha: 0.0001
    beta: 0.75
  }
}
layer {
  name: "pool4"
  type: "Pooling"
  bottom: "norm4"
  top: "pool4"
  pooling_param {
    pool: MAX
    kernel_size: 3
    stride: 2
  }
}
layer {
  name: "ip1"
  type: "InnerProduct"
  bottom: "pool4"
  top: "ip1"
  param {
    lr_mult: 1
  }
  param {
    lr_mult: 2
  }
  inner_product_param {
    num_output: 50
    weight_filler {
      type: "xavier"
    }
    bias_filler {
      type: "constant"
    }
  }
}
layer {
  name: "relu5"
  type: "ReLU"
  bottom: "ip1"
  top: "ip1"
}
layer {
  name: "drop5"
  type: "Dropout"
  bottom: "ip1"
  top: "ip1"
  dropout_param {
    dropout_ratio: 0.5
  }
}
layer {
  name: "ip2"
  type: "InnerProduct"
  bottom: "ip1"
  top: "ip2"
  param {
    lr_mult: 1
  }
  param {
    lr_mult: 2
  }
  inner_product_param {
    num_output: 7
    weight_filler {
      type: "xavier"
    }
    bias_filler {
      type: "constant"
    }
  }
}
layer {
  name: "loss"
  type: "SoftmaxWithLoss"
  bottom: "ip2"
  bottom: "label"
  top: "loss"
}
I0111 17:01:49.208257 31933 layer_factory.hpp:77] Creating layer mnist
I0111 17:01:49.208441 31933 db_lmdb.cpp:35] Opened lmdb ./data2/rail_train_lmdb
I0111 17:01:49.208470 31933 net.cpp:84] Creating Layer mnist
I0111 17:01:49.208479 31933 net.cpp:380] mnist -> data
I0111 17:01:49.208503 31933 net.cpp:380] mnist -> label
I0111 17:01:49.209357 31933 data_layer.cpp:45] output data size: 128,3,200,200
I0111 17:01:49.359251 31933 net.cpp:122] Setting up mnist
I0111 17:01:49.359314 31933 net.cpp:129] Top shape: 128 3 200 200 (15360000)
I0111 17:01:49.359321 31933 net.cpp:129] Top shape: 128 (128)
I0111 17:01:49.359324 31933 net.cpp:137] Memory required for data: 61440512
I0111 17:01:49.359335 31933 layer_factory.hpp:77] Creating layer conv1
I0111 17:01:49.359375 31933 net.cpp:84] Creating Layer conv1
I0111 17:01:49.359383 31933 net.cpp:406] conv1 <- data
I0111 17:01:49.359400 31933 net.cpp:380] conv1 -> conv1
I0111 17:01:50.340021 31933 net.cpp:122] Setting up conv1
I0111 17:01:50.340083 31933 net.cpp:129] Top shape: 128 30 196 196 (147517440)
I0111 17:01:50.340090 31933 net.cpp:137] Memory required for data: 651510272
I0111 17:01:50.340127 31933 layer_factory.hpp:77] Creating layer relu1
I0111 17:01:50.340152 31933 net.cpp:84] Creating Layer relu1
I0111 17:01:50.340157 31933 net.cpp:406] relu1 <- conv1
I0111 17:01:50.340164 31933 net.cpp:367] relu1 -> conv1 (in-place)
I0111 17:01:50.340338 31933 net.cpp:122] Setting up relu1
I0111 17:01:50.340348 31933 net.cpp:129] Top shape: 128 30 196 196 (147517440)
I0111 17:01:50.340353 31933 net.cpp:137] Memory required for data: 1241580032
I0111 17:01:50.340356 31933 layer_factory.hpp:77] Creating layer norm1
I0111 17:01:50.340378 31933 net.cpp:84] Creating Layer norm1
I0111 17:01:50.340384 31933 net.cpp:406] norm1 <- conv1
I0111 17:01:50.340389 31933 net.cpp:380] norm1 -> norm1
I0111 17:01:50.341058 31933 net.cpp:122] Setting up norm1
I0111 17:01:50.341071 31933 net.cpp:129] Top shape: 128 30 196 196 (147517440)
I0111 17:01:50.341074 31933 net.cpp:137] Memory required for data: 1831649792
I0111 17:01:50.341078 31933 layer_factory.hpp:77] Creating layer pool1
I0111 17:01:50.341087 31933 net.cpp:84] Creating Layer pool1
I0111 17:01:50.341091 31933 net.cpp:406] pool1 <- norm1
I0111 17:01:50.341096 31933 net.cpp:380] pool1 -> pool1
I0111 17:01:50.341137 31933 net.cpp:122] Setting up pool1
I0111 17:01:50.341145 31933 net.cpp:129] Top shape: 128 30 98 98 (36879360)
I0111 17:01:50.341150 31933 net.cpp:137] Memory required for data: 1979167232
I0111 17:01:50.341152 31933 layer_factory.hpp:77] Creating layer conv2
I0111 17:01:50.341163 31933 net.cpp:84] Creating Layer conv2
I0111 17:01:50.341167 31933 net.cpp:406] conv2 <- pool1
I0111 17:01:50.341172 31933 net.cpp:380] conv2 -> conv2
I0111 17:01:50.343809 31933 net.cpp:122] Setting up conv2
I0111 17:01:50.343824 31933 net.cpp:129] Top shape: 128 30 94 94 (33930240)
I0111 17:01:50.343828 31933 net.cpp:137] Memory required for data: 2114888192
I0111 17:01:50.343837 31933 layer_factory.hpp:77] Creating layer relu2
I0111 17:01:50.343844 31933 net.cpp:84] Creating Layer relu2
I0111 17:01:50.343848 31933 net.cpp:406] relu2 <- conv2
I0111 17:01:50.343854 31933 net.cpp:367] relu2 -> conv2 (in-place)
I0111 17:01:50.344470 31933 net.cpp:122] Setting up relu2
I0111 17:01:50.344492 31933 net.cpp:129] Top shape: 128 30 94 94 (33930240)
I0111 17:01:50.344506 31933 net.cpp:137] Memory required for data: 2250609152
I0111 17:01:50.344509 31933 layer_factory.hpp:77] Creating layer norm2
I0111 17:01:50.344517 31933 net.cpp:84] Creating Layer norm2
I0111 17:01:50.344521 31933 net.cpp:406] norm2 <- conv2
I0111 17:01:50.344527 31933 net.cpp:380] norm2 -> norm2
I0111 17:01:50.344751 31933 net.cpp:122] Setting up norm2
I0111 17:01:50.344763 31933 net.cpp:129] Top shape: 128 30 94 94 (33930240)
I0111 17:01:50.344765 31933 net.cpp:137] Memory required for data: 2386330112
I0111 17:01:50.344769 31933 layer_factory.hpp:77] Creating layer pool2
I0111 17:01:50.344779 31933 net.cpp:84] Creating Layer pool2
I0111 17:01:50.344782 31933 net.cpp:406] pool2 <- norm2
I0111 17:01:50.344787 31933 net.cpp:380] pool2 -> pool2
I0111 17:01:50.344825 31933 net.cpp:122] Setting up pool2
I0111 17:01:50.344832 31933 net.cpp:129] Top shape: 128 30 47 47 (8482560)
I0111 17:01:50.344835 31933 net.cpp:137] Memory required for data: 2420260352
I0111 17:01:50.344838 31933 layer_factory.hpp:77] Creating layer conv3
I0111 17:01:50.344848 31933 net.cpp:84] Creating Layer conv3
I0111 17:01:50.344852 31933 net.cpp:406] conv3 <- pool2
I0111 17:01:50.344873 31933 net.cpp:380] conv3 -> conv3
I0111 17:01:50.346570 31933 net.cpp:122] Setting up conv3
I0111 17:01:50.346583 31933 net.cpp:129] Top shape: 128 30 43 43 (7100160)
I0111 17:01:50.346587 31933 net.cpp:137] Memory required for data: 2448660992
I0111 17:01:50.346596 31933 layer_factory.hpp:77] Creating layer relu3
I0111 17:01:50.346601 31933 net.cpp:84] Creating Layer relu3
I0111 17:01:50.346604 31933 net.cpp:406] relu3 <- conv3
I0111 17:01:50.346611 31933 net.cpp:367] relu3 -> conv3 (in-place)
I0111 17:01:50.347219 31933 net.cpp:122] Setting up relu3
I0111 17:01:50.347231 31933 net.cpp:129] Top shape: 128 30 43 43 (7100160)
I0111 17:01:50.347234 31933 net.cpp:137] Memory required for data: 2477061632
I0111 17:01:50.347239 31933 layer_factory.hpp:77] Creating layer norm3
I0111 17:01:50.347246 31933 net.cpp:84] Creating Layer norm3
I0111 17:01:50.347249 31933 net.cpp:406] norm3 <- conv3
I0111 17:01:50.347257 31933 net.cpp:380] norm3 -> norm3
I0111 17:01:50.347440 31933 net.cpp:122] Setting up norm3
I0111 17:01:50.347450 31933 net.cpp:129] Top shape: 128 30 43 43 (7100160)
I0111 17:01:50.347453 31933 net.cpp:137] Memory required for data: 2505462272
I0111 17:01:50.347456 31933 layer_factory.hpp:77] Creating layer pool3
I0111 17:01:50.347462 31933 net.cpp:84] Creating Layer pool3
I0111 17:01:50.347465 31933 net.cpp:406] pool3 <- norm3
I0111 17:01:50.347471 31933 net.cpp:380] pool3 -> pool3
I0111 17:01:50.347506 31933 net.cpp:122] Setting up pool3
I0111 17:01:50.347528 31933 net.cpp:129] Top shape: 128 30 21 21 (1693440)
I0111 17:01:50.347532 31933 net.cpp:137] Memory required for data: 2512236032
I0111 17:01:50.347535 31933 layer_factory.hpp:77] Creating layer conv4
I0111 17:01:50.347548 31933 net.cpp:84] Creating Layer conv4
I0111 17:01:50.347553 31933 net.cpp:406] conv4 <- pool3
I0111 17:01:50.347558 31933 net.cpp:380] conv4 -> conv4
I0111 17:01:50.350334 31933 net.cpp:122] Setting up conv4
I0111 17:01:50.350348 31933 net.cpp:129] Top shape: 128 50 17 17 (1849600)
I0111 17:01:50.350353 31933 net.cpp:137] Memory required for data: 2519634432
I0111 17:01:50.350359 31933 layer_factory.hpp:77] Creating layer relu4
I0111 17:01:50.350365 31933 net.cpp:84] Creating Layer relu4
I0111 17:01:50.350368 31933 net.cpp:406] relu4 <- conv4
I0111 17:01:50.350375 31933 net.cpp:367] relu4 -> conv4 (in-place)
I0111 17:01:50.350982 31933 net.cpp:122] Setting up relu4
I0111 17:01:50.350994 31933 net.cpp:129] Top shape: 128 50 17 17 (1849600)
I0111 17:01:50.350997 31933 net.cpp:137] Memory required for data: 2527032832
I0111 17:01:50.351001 31933 layer_factory.hpp:77] Creating layer norm4
I0111 17:01:50.351009 31933 net.cpp:84] Creating Layer norm4
I0111 17:01:50.351013 31933 net.cpp:406] norm4 <- conv4
I0111 17:01:50.351018 31933 net.cpp:380] norm4 -> norm4
I0111 17:01:50.351651 31933 net.cpp:122] Setting up norm4
I0111 17:01:50.351665 31933 net.cpp:129] Top shape: 128 50 17 17 (1849600)
I0111 17:01:50.351675 31933 net.cpp:137] Memory required for data: 2534431232
I0111 17:01:50.351680 31933 layer_factory.hpp:77] Creating layer pool4
I0111 17:01:50.351688 31933 net.cpp:84] Creating Layer pool4
I0111 17:01:50.351691 31933 net.cpp:406] pool4 <- norm4
I0111 17:01:50.351696 31933 net.cpp:380] pool4 -> pool4
I0111 17:01:50.351733 31933 net.cpp:122] Setting up pool4
I0111 17:01:50.351740 31933 net.cpp:129] Top shape: 128 50 8 8 (409600)
I0111 17:01:50.351743 31933 net.cpp:137] Memory required for data: 2536069632
I0111 17:01:50.351747 31933 layer_factory.hpp:77] Creating layer ip1
I0111 17:01:50.351754 31933 net.cpp:84] Creating Layer ip1
I0111 17:01:50.351758 31933 net.cpp:406] ip1 <- pool4
I0111 17:01:50.351764 31933 net.cpp:380] ip1 -> ip1
I0111 17:01:50.353152 31933 net.cpp:122] Setting up ip1
I0111 17:01:50.353163 31933 net.cpp:129] Top shape: 128 50 (6400)
I0111 17:01:50.353168 31933 net.cpp:137] Memory required for data: 2536095232
I0111 17:01:50.353176 31933 layer_factory.hpp:77] Creating layer relu5
I0111 17:01:50.353183 31933 net.cpp:84] Creating Layer relu5
I0111 17:01:50.353186 31933 net.cpp:406] relu5 <- ip1
I0111 17:01:50.353193 31933 net.cpp:367] relu5 -> ip1 (in-place)
I0111 17:01:50.353356 31933 net.cpp:122] Setting up relu5
I0111 17:01:50.353365 31933 net.cpp:129] Top shape: 128 50 (6400)
I0111 17:01:50.353368 31933 net.cpp:137] Memory required for data: 2536120832
I0111 17:01:50.353372 31933 layer_factory.hpp:77] Creating layer drop5
I0111 17:01:50.353379 31933 net.cpp:84] Creating Layer drop5
I0111 17:01:50.353382 31933 net.cpp:406] drop5 <- ip1
I0111 17:01:50.353389 31933 net.cpp:367] drop5 -> ip1 (in-place)
I0111 17:01:50.353413 31933 net.cpp:122] Setting up drop5
I0111 17:01:50.353420 31933 net.cpp:129] Top shape: 128 50 (6400)
I0111 17:01:50.353423 31933 net.cpp:137] Memory required for data: 2536146432
I0111 17:01:50.353426 31933 layer_factory.hpp:77] Creating layer ip2
I0111 17:01:50.353433 31933 net.cpp:84] Creating Layer ip2
I0111 17:01:50.353436 31933 net.cpp:406] ip2 <- ip1
I0111 17:01:50.353442 31933 net.cpp:380] ip2 -> ip2
I0111 17:01:50.353544 31933 net.cpp:122] Setting up ip2
I0111 17:01:50.353551 31933 net.cpp:129] Top shape: 128 7 (896)
I0111 17:01:50.353554 31933 net.cpp:137] Memory required for data: 2536150016
I0111 17:01:50.353559 31933 layer_factory.hpp:77] Creating layer loss
I0111 17:01:50.353567 31933 net.cpp:84] Creating Layer loss
I0111 17:01:50.353570 31933 net.cpp:406] loss <- ip2
I0111 17:01:50.353574 31933 net.cpp:406] loss <- label
I0111 17:01:50.353580 31933 net.cpp:380] loss -> loss
I0111 17:01:50.353593 31933 layer_factory.hpp:77] Creating layer loss
…
I0111 17:01:50.354648 31933 solver.cpp:172] Creating test net (#0) specified by net file: ./lenet_train_test.prototxt
I0111 17:01:50.354678 31933 net.cpp:294] The NetState phase (1) differed from the phase (0) specified by a rule in layer mnist
I0111 17:01:50.354789 31933 net.cpp:51] Initializing net from parameters: 
name: "LeNet"
state {
  phase: TEST
}
layer {
  name: "mnist"
  type: "Data"
  top: "data"
  top: "label"
  include {
    phase: TEST
  }
  transform_param {
    scale: 0.00390625
  }
  data_param {
    source: "./data2/rail_val_lmdb"
    batch_size: 100
    backend: LMDB
  }
}
layer {
  name: "conv1"
  type: "Convolution"
  bottom: "data"
  top: "conv1"
  param {
    lr_mult: 1
  }
  param {
    lr_mult: 2
  }
  convolution_param {
    num_output: 30
    kernel_size: 5
    stride: 1
    weight_filler {
      type: "xavier"
    }
    bias_filler {
      type: "constant"
    }
  }
}
layer {
  name: "relu1"
  type: "ReLU"
  bottom: "conv1"
  top: "conv1"
}
layer {
  name: "norm1"
  type: "LRN"
  bottom: "conv1"
  top: "norm1"
  lrn_param {
    local_size: 5
    alpha: 0.0001
    beta: 0.75
  }
}
layer {
  name: "pool1"
  type: "Pooling"
  bottom: "norm1"
  top: "pool1"
  pooling_param {
    pool: MAX
    kernel_size: 3
    stride: 2
  }
}
layer {
  name: "conv2"
  type: "Convolution"
  bottom: "pool1"
  top: "conv2"
  param {
    lr_mult: 1
  }
  param {
    lr_mult: 2
  }
  convolution_param {
    num_output: 30
    kernel_size: 5
    stride: 1
    weight_filler {
      type: "xavier"
    }
    bias_filler {
      type: "constant"
    }
  }
}
layer {
  name: "relu2"
  type: "ReLU"
  bottom: "conv2"
  top: "conv2"
}
layer {
  name: "norm2"
  type: "LRN"
  bottom: "conv2"
  top: "norm2"
  lrn_param {
    local_size: 5
    alpha: 0.0001
    beta: 0.75
  }
}
layer {
  name: "pool2"
  type: "Pooling"
  bottom: "norm2"
  top: "pool2"
  pooling_param {
    pool: MAX
    kernel_size: 3
    stride: 2
  }
}
layer {
  name: "conv3"
  type: "Convolution"
  bottom: "pool2"
  top: "conv3"
  param {
    lr_mult: 1
  }
  param {
    lr_mult: 2
  }
  convolution_param {
    num_output: 30
    kernel_size: 5
    stride: 1
    weight_filler {
      type: "xavier"
    }
    bias_filler {
      type: "constant"
    }
  }
}
layer {
  name: "relu3"
  type: "ReLU"
  bottom: "conv3"
  top: "conv3"
}
layer {
  name: "norm3"
  type: "LRN"
  bottom: "conv3"
  top: "norm3"
  lrn_param {
    local_size: 5
    alpha: 0.0001
    beta: 0.75
  }
}
layer {
  name: "pool3"
  type: "Pooling"
  bottom: "norm3"
  top: "pool3"
  pooling_param {
    pool: MAX
    kernel_size: 3
    stride: 2
  }
}
layer {
  name: "conv4"
  type: "Convolution"
  bottom: "pool3"
  top: "conv4"
  param {
    lr_mult: 1
  }
  param {
    lr_mult: 2
  }
  convolution_param {
    num_output: 50
    kernel_size: 5
    stride: 1
    weight_filler {
      type: "xavier"
    }
    bias_filler {
      type: "constant"
    }
  }
}
layer {
  name: "relu4"
  type: "ReLU"
  bottom: "conv4"
  top: "conv4"
}
layer {
  name: "norm4"
  type: "LRN"
  bottom: "conv4"
  top: "norm4"
  lrn_param {
    local_size: 5
    alpha: 0.0001
    beta: 0.75
  }
}
layer {
  name: "pool4"
  type: "Pooling"
  bottom: "norm4"
  top: "pool4"
  pooling_param {
    pool: MAX
    kernel_size: 3
    stride: 2
  }
}
layer {
  name: "ip1"
  type: "InnerProduct"
  bottom: "pool4"
  top: "ip1"
  param {
    lr_mult: 1
  }
  param {
    lr_mult: 2
  }
  inner_product_param {
    num_output: 50
    weight_filler {
      type: "xavier"
    }
    bias_filler {
      type: "constant"
    }
  }
}
layer {
  name: "relu5"
  type: "ReLU"
  bottom: "ip1"
  top: "ip1"
}
layer {
  name: "drop5"
  type: "Dropout"
  bottom: "ip1"
  top: "ip1"
  dropout_param {
    dropout_ratio: 0.5
  }
}
layer {
  name: "ip2"
  type: "InnerProduct"
  bottom: "ip1"
  top: "ip2"
  param {
    lr_mult: 1
  }
  param {
    lr_mult: 2
  }
  inner_product_param {
    num_output: 7
    weight_filler {
      type: "xavier"
    }
    bias_filler {
      type: "constant"
    }
  }
}
layer {
  name: "accuracy"
  type: "Accuracy"
  bottom: "ip2"
  bottom: "label"
  top: "accuracy"
  include {
    phase: TEST
  }
}
layer {
  name: "loss"
  type: "SoftmaxWithLoss"
  bottom: "ip2"
  bottom: "label"
  top: "loss"
}
I0111 17:01:50.354881 31933 layer_factory.hpp:77] Creating layer mnist
I0111 17:01:50.354941 31933 db_lmdb.cpp:35] Opened lmdb ./data2/rail_val_lmdb
I0111 17:01:50.354960 31933 net.cpp:84] Creating Layer mnist
I0111 17:01:50.354965 31933 net.cpp:380] mnist -> data
I0111 17:01:50.354974 31933 net.cpp:380] mnist -> label
I0111 17:01:50.355180 31933 data_layer.cpp:45] output data size: 100,3,200,200
I0111 17:01:50.471312 31933 net.cpp:122] Setting up mnist
I0111 17:01:50.471377 31933 net.cpp:129] Top shape: 100 3 200 200 (12000000)
I0111 17:01:50.471384 31933 net.cpp:129] Top shape: 100 (100)
I0111 17:01:50.471386 31933 net.cpp:137] Memory required for data: 48000400
I0111 17:01:50.471395 31933 layer_factory.hpp:77] Creating layer label_mnist_1_split
I0111 17:01:50.471407 31933 net.cpp:84] Creating Layer label_mnist_1_split
I0111 17:01:50.471412 31933 net.cpp:406] label_mnist_1_split <- label
I0111 17:01:50.471421 31933 net.cpp:380] label_mnist_1_split -> label_mnist_1_split_0
I0111 17:01:50.471432 31933 net.cpp:380] label_mnist_1_split -> label_mnist_1_split_1
I0111 17:01:50.471560 31933 net.cpp:122] Setting up label_mnist_1_split
I0111 17:01:50.471568 31933 net.cpp:129] Top shape: 100 (100)
I0111 17:01:50.471573 31933 net.cpp:129] Top shape: 100 (100)
I0111 17:01:50.471576 31933 net.cpp:137] Memory required for data: 48001200
I0111 17:01:50.471580 31933 layer_factory.hpp:77] Creating layer conv1
I0111 17:01:50.471593 31933 net.cpp:84] Creating Layer conv1
I0111 17:01:50.471598 31933 net.cpp:406] conv1 <- data
I0111 17:01:50.471604 31933 net.cpp:380] conv1 -> conv1
I0111 17:01:50.474354 31933 net.cpp:122] Setting up conv1
I0111 17:01:50.474370 31933 net.cpp:129] Top shape: 100 30 196 196 (115248000)
I0111 17:01:50.474373 31933 net.cpp:137] Memory required for data: 508993200
I0111 17:01:50.474385 31933 layer_factory.hpp:77] Creating layer relu1
I0111 17:01:50.474392 31933 net.cpp:84] Creating Layer relu1
I0111 17:01:50.474397 31933 net.cpp:406] relu1 <- conv1
I0111 17:01:50.474402 31933 net.cpp:367] relu1 -> conv1 (in-place)
I0111 17:01:50.478281 31933 net.cpp:122] Setting up relu1
I0111 17:01:50.478299 31933 net.cpp:129] Top shape: 100 30 196 196 (115248000)
I0111 17:01:50.478303 31933 net.cpp:137] Memory required for data: 969985200
I0111 17:01:50.478307 31933 layer_factory.hpp:77] Creating layer norm1
I0111 17:01:50.478317 31933 net.cpp:84] Creating Layer norm1
I0111 17:01:50.478320 31933 net.cpp:406] norm1 <- conv1
I0111 17:01:50.478327 31933 net.cpp:380] norm1 -> norm1
I0111 17:01:50.479022 31933 net.cpp:122] Setting up norm1
I0111 17:01:50.479034 31933 net.cpp:129] Top shape: 100 30 196 196 (115248000)
I0111 17:01:50.479038 31933 net.cpp:137] Memory required for data: 1430977200
I0111 17:01:50.479041 31933 layer_factory.hpp:77] Creating layer pool1
I0111 17:01:50.479049 31933 net.cpp:84] Creating Layer pool1
I0111 17:01:50.479053 31933 net.cpp:406] pool1 <- norm1
I0111 17:01:50.479059 31933 net.cpp:380] pool1 -> pool1
I0111 17:01:50.479099 31933 net.cpp:122] Setting up pool1
I0111 17:01:50.479106 31933 net.cpp:129] Top shape: 100 30 98 98 (28812000)
I0111 17:01:50.479110 31933 net.cpp:137] Memory required for data: 1546225200
I0111 17:01:50.479125 31933 layer_factory.hpp:77] Creating layer conv2
I0111 17:01:50.479146 31933 net.cpp:84] Creating Layer conv2
I0111 17:01:50.479151 31933 net.cpp:406] conv2 <- pool1
I0111 17:01:50.479156 31933 net.cpp:380] conv2 -> conv2
I0111 17:01:50.481353 31933 net.cpp:122] Setting up conv2
I0111 17:01:50.481367 31933 net.cpp:129] Top shape: 100 30 94 94 (26508000)
I0111 17:01:50.481371 31933 net.cpp:137] Memory required for data: 1652257200
I0111 17:01:50.481380 31933 layer_factory.hpp:77] Creating layer relu2
I0111 17:01:50.481386 31933 net.cpp:84] Creating Layer relu2
I0111 17:01:50.481390 31933 net.cpp:406] relu2 <- conv2
I0111 17:01:50.481398 31933 net.cpp:367] relu2 -> conv2 (in-place)
I0111 17:01:50.482108 31933 net.cpp:122] Setting up relu2
I0111 17:01:50.482120 31933 net.cpp:129] Top shape: 100 30 94 94 (26508000)
I0111 17:01:50.482123 31933 net.cpp:137] Memory required for data: 1758289200
I0111 17:01:50.482127 31933 layer_factory.hpp:77] Creating layer norm2
I0111 17:01:50.482137 31933 net.cpp:84] Creating Layer norm2
I0111 17:01:50.482141 31933 net.cpp:406] norm2 <- conv2
I0111 17:01:50.482146 31933 net.cpp:380] norm2 -> norm2
I0111 17:01:50.482338 31933 net.cpp:122] Setting up norm2
I0111 17:01:50.482350 31933 net.cpp:129] Top shape: 100 30 94 94 (26508000)
I0111 17:01:50.482354 31933 net.cpp:137] Memory required for data: 1864321200
I0111 17:01:50.482357 31933 layer_factory.hpp:77] Creating layer pool2
I0111 17:01:50.482363 31933 net.cpp:84] Creating Layer pool2
I0111 17:01:50.482367 31933 net.cpp:406] pool2 <- norm2
I0111 17:01:50.482372 31933 net.cpp:380] pool2 -> pool2
I0111 17:01:50.482409 31933 net.cpp:122] Setting up pool2
I0111 17:01:50.482417 31933 net.cpp:129] Top shape: 100 30 47 47 (6627000)
I0111 17:01:50.482420 31933 net.cpp:137] Memory required for data: 1890829200
I0111 17:01:50.482424 31933 layer_factory.hpp:77] Creating layer conv3
I0111 17:01:50.482432 31933 net.cpp:84] Creating Layer conv3
I0111 17:01:50.482437 31933 net.cpp:406] conv3 <- pool2
I0111 17:01:50.482442 31933 net.cpp:380] conv3 -> conv3
I0111 17:01:50.484154 31933 net.cpp:122] Setting up conv3
I0111 17:01:50.484169 31933 net.cpp:129] Top shape: 100 30 43 43 (5547000)
I0111 17:01:50.484172 31933 net.cpp:137] Memory required for data: 1913017200
I0111 17:01:50.484180 31933 layer_factory.hpp:77] Creating layer relu3
I0111 17:01:50.484189 31933 net.cpp:84] Creating Layer relu3
I0111 17:01:50.484192 31933 net.cpp:406] relu3 <- conv3
I0111 17:01:50.484197 31933 net.cpp:367] relu3 -> conv3 (in-place)
I0111 17:01:50.484845 31933 net.cpp:122] Setting up relu3
I0111 17:01:50.484858 31933 net.cpp:129] Top shape: 100 30 43 43 (5547000)
I0111 17:01:50.484863 31933 net.cpp:137] Memory required for data: 1935205200
I0111 17:01:50.484866 31933 layer_factory.hpp:77] Creating layer norm3
I0111 17:01:50.484889 31933 net.cpp:84] Creating Layer norm3
I0111 17:01:50.484892 31933 net.cpp:406] norm3 <- conv3
I0111 17:01:50.484899 31933 net.cpp:380] norm3 -> norm3
I0111 17:01:50.485086 31933 net.cpp:122] Setting up norm3
I0111 17:01:50.485096 31933 net.cpp:129] Top shape: 100 30 43 43 (5547000)
I0111 17:01:50.485100 31933 net.cpp:137] Memory required for data: 1957393200
I0111 17:01:50.485103 31933 layer_factory.hpp:77] Creating layer pool3
I0111 17:01:50.485112 31933 net.cpp:84] Creating Layer pool3
I0111 17:01:50.485116 31933 net.cpp:406] pool3 <- norm3
I0111 17:01:50.485121 31933 net.cpp:380] pool3 -> pool3
I0111 17:01:50.485157 31933 net.cpp:122] Setting up pool3
I0111 17:01:50.485165 31933 net.cpp:129] Top shape: 100 30 21 21 (1323000)
I0111 17:01:50.485168 31933 net.cpp:137] Memory required for data: 1962685200
I0111 17:01:50.485172 31933 layer_factory.hpp:77] Creating layer conv4
I0111 17:01:50.485180 31933 net.cpp:84] Creating Layer conv4
I0111 17:01:50.485184 31933 net.cpp:406] conv4 <- pool3
I0111 17:01:50.485190 31933 net.cpp:380] conv4 -> conv4
I0111 17:01:50.486991 31933 net.cpp:122] Setting up conv4
I0111 17:01:50.487007 31933 net.cpp:129] Top shape: 100 50 17 17 (1445000)
I0111 17:01:50.487011 31933 net.cpp:137] Memory required for data: 1968465200
I0111 17:01:50.487025 31933 layer_factory.hpp:77] Creating layer relu4
I0111 17:01:50.487037 31933 net.cpp:84] Creating Layer relu4
I0111 17:01:50.487041 31933 net.cpp:406] relu4 <- conv4
I0111 17:01:50.487046 31933 net.cpp:367] relu4 -> conv4 (in-place)
I0111 17:01:50.487655 31933 net.cpp:122] Setting up relu4
I0111 17:01:50.487669 31933 net.cpp:129] Top shape: 100 50 17 17 (1445000)
I0111 17:01:50.487673 31933 net.cpp:137] Memory required for data: 1974245200
I0111 17:01:50.487676 31933 layer_factory.hpp:77] Creating layer norm4
I0111 17:01:50.487685 31933 net.cpp:84] Creating Layer norm4
I0111 17:01:50.487689 31933 net.cpp:406] norm4 <- conv4
I0111 17:01:50.487694 31933 net.cpp:380] norm4 -> norm4
I0111 17:01:50.488327 31933 net.cpp:122] Setting up norm4
I0111 17:01:50.488339 31933 net.cpp:129] Top shape: 100 50 17 17 (1445000)
I0111 17:01:50.488343 31933 net.cpp:137] Memory required for data: 1980025200
I0111 17:01:50.488345 31933 layer_factory.hpp:77] Creating layer pool4
I0111 17:01:50.488353 31933 net.cpp:84] Creating Layer pool4
I0111 17:01:50.488358 31933 net.cpp:406] pool4 <- norm4
I0111 17:01:50.488363 31933 net.cpp:380] pool4 -> pool4
I0111 17:01:50.488401 31933 net.cpp:122] Setting up pool4
I0111 17:01:50.488409 31933 net.cpp:129] Top shape: 100 50 8 8 (320000)
I0111 17:01:50.488411 31933 net.cpp:137] Memory required for data: 1981305200
I0111 17:01:50.488415 31933 layer_factory.hpp:77] Creating layer ip1
I0111 17:01:50.488423 31933 net.cpp:84] Creating Layer ip1
I0111 17:01:50.488427 31933 net.cpp:406] ip1 <- pool4
I0111 17:01:50.488431 31933 net.cpp:380] ip1 -> ip1
I0111 17:01:50.489809 31933 net.cpp:122] Setting up ip1
I0111 17:01:50.489825 31933 net.cpp:129] Top shape: 100 50 (5000)
I0111 17:01:50.489828 31933 net.cpp:137] Memory required for data: 1981325200
I0111 17:01:50.489835 31933 layer_factory.hpp:77] Creating layer relu5
I0111 17:01:50.489841 31933 net.cpp:84] Creating Layer relu5
I0111 17:01:50.489845 31933 net.cpp:406] relu5 <- ip1
I0111 17:01:50.489850 31933 net.cpp:367] relu5 -> ip1 (in-place)
I0111 17:01:50.490020 31933 net.cpp:122] Setting up relu5
I0111 17:01:50.490030 31933 net.cpp:129] Top shape: 100 50 (5000)
I0111 17:01:50.490032 31933 net.cpp:137] Memory required for data: 1981345200
I0111 17:01:50.490038 31933 layer_factory.hpp:77] Creating layer drop5
I0111 17:01:50.490046 31933 net.cpp:84] Creating Layer drop5
I0111 17:01:50.490048 31933 net.cpp:406] drop5 <- ip1
I0111 17:01:50.490056 31933 net.cpp:367] drop5 -> ip1 (in-place)
I0111 17:01:50.490082 31933 net.cpp:122] Setting up drop5
I0111 17:01:50.490089 31933 net.cpp:129] Top shape: 100 50 (5000)
I0111 17:01:50.490092 31933 net.cpp:137] Memory required for data: 1981365200
I0111 17:01:50.490095 31933 layer_factory.hpp:77] Creating layer ip2
I0111 17:01:50.490103 31933 net.cpp:84] Creating Layer ip2
I0111 17:01:50.490108 31933 net.cpp:406] ip2 <- ip1
I0111 17:01:50.490114 31933 net.cpp:380] ip2 -> ip2
I0111 17:01:50.490219 31933 net.cpp:122] Setting up ip2
I0111 17:01:50.490226 31933 net.cpp:129] Top shape: 100 7 (700)
I0111 17:01:50.490229 31933 net.cpp:137] Memory required for data: 1981368000
I0111 17:01:50.490236 31933 layer_factory.hpp:77] Creating layer ip2_ip2_0_split
I0111 17:01:50.490240 31933 net.cpp:84] Creating Layer ip2_ip2_0_split
I0111 17:01:50.490243 31933 net.cpp:406] ip2_ip2_0_split <- ip2
I0111 17:01:50.490248 31933 net.cpp:380] ip2_ip2_0_split -> ip2_ip2_0_split_0
I0111 17:01:50.490257 31933 net.cpp:380] ip2_ip2_0_split -> ip2_ip2_0_split_1
I0111 17:01:50.490293 31933 net.cpp:122] Setting up ip2_ip2_0_split
I0111 17:01:50.490298 31933 net.cpp:129] Top shape: 100 7 (700)
I0111 17:01:50.490301 31933 net.cpp:129] Top shape: 100 7 (700)
I0111 17:01:50.490304 31933 net.cpp:137] Memory required for data: 1981373600
I0111 17:01:50.490309 31933 layer_factory.hpp:77] Creating layer accuracy
I0111 17:01:50.490319 31933 net.cpp:84] Creating Layer accuracy
I0111 17:01:50.490324 31933 net.cpp:406] accuracy <- ip2_ip2_0_split_0
I0111 17:01:50.490327 31933 net.cpp:406] accuracy <- label_mnist_1_split_0
I0111 17:01:50.490337 31933 net.cpp:380] accuracy -> accuracy
…
