…
I0112 17:19:37.567646 27962 net.cpp:294] The NetState phase (0) differed from the phase (1) specified by a rule in layer mnist
I0112 17:19:37.567665 27962 net.cpp:294] The NetState phase (0) differed from the phase (1) specified by a rule in layer accuracy
I0112 17:19:37.567773 27962 net.cpp:51] Initializing net from parameters: 
name: "LeNet"
state {
  phase: TRAIN
  level: 0
  stage: ""
}
layer {
  name: "mnist"
  type: "Data"
  top: "data"
  top: "label"
  include {
    phase: TRAIN
  }
  transform_param {
    scale: 0.00390625
  }
  data_param {
    source: "./data2/rail_train_lmdb"
    batch_size: 128
    backend: LMDB
  }
}
layer {
  name: "conv1"
  type: "Convolution"
  bottom: "data"
  top: "conv1"
  param {
    lr_mult: 1
  }
  param {
    lr_mult: 2
  }
  convolution_param {
    num_output: 30
    kernel_size: 5
    stride: 1
    weight_filler {
      type: "xavier"
    }
    bias_filler {
      type: "constant"
    }
  }
}
layer {
  name: "relu1"
  type: "ReLU"
  bottom: "conv1"
  top: "conv1"
}
layer {
  name: "norm1"
  type: "LRN"
  bottom: "conv1"
  top: "norm1"
  lrn_param {
    local_size: 5
    alpha: 0.0001
    beta: 0.75
  }
}
layer {
  name: "pool1"
  type: "Pooling"
  bottom: "norm1"
  top: "pool1"
  pooling_param {
    pool: MAX
    kernel_size: 3
    stride: 2
  }
}
layer {
  name: "conv2"
  type: "Convolution"
  bottom: "pool1"
  top: "conv2"
  param {
    lr_mult: 1
  }
  param {
    lr_mult: 2
  }
  convolution_param {
    num_output: 30
    kernel_size: 5
    stride: 1
    weight_filler {
      type: "xavier"
    }
    bias_filler {
      type: "constant"
    }
  }
}
layer {
  name: "relu2"
  type: "ReLU"
  bottom: "conv2"
  top: "conv2"
}
layer {
  name: "norm2"
  type: "LRN"
  bottom: "conv2"
  top: "norm2"
  lrn_param {
    local_size: 5
    alpha: 0.0001
    beta: 0.75
  }
}
layer {
  name: "pool2"
  type: "Pooling"
  bottom: "norm2"
  top: "pool2"
  pooling_param {
    pool: MAX
    kernel_size: 3
    stride: 2
  }
}
layer {
  name: "conv3"
  type: "Convolution"
  bottom: "pool2"
  top: "conv3"
  param {
    lr_mult: 1
  }
  param {
    lr_mult: 2
  }
  convolution_param {
    num_output: 30
    kernel_size: 5
    stride: 1
    weight_filler {
      type: "xavier"
    }
    bias_filler {
      type: "constant"
    }
  }
}
layer {
  name: "relu3"
  type: "ReLU"
  bottom: "conv3"
  top: "conv3"
}
layer {
  name: "pool3"
  type: "Pooling"
  bottom: "conv3"
  top: "pool3"
  pooling_param {
    pool: MAX
    kernel_size: 3
    stride: 2
  }
}
layer {
  name: "conv4"
  type: "Convolution"
  bottom: "pool3"
  top: "conv4"
  param {
    lr_mult: 1
  }
  param {
    lr_mult: 2
  }
  convolution_param {
    num_output: 50
    kernel_size: 5
    stride: 1
    weight_filler {
      type: "xavier"
    }
    bias_filler {
      type: "constant"
    }
  }
}
layer {
  name: "relu4"
  type: "ReLU"
  bottom: "conv4"
  top: "conv4"
}
layer {
  name: "pool4"
  type: "Pooling"
  bottom: "conv4"
  top: "pool4"
  pooling_param {
    pool: MAX
    kernel_size: 3
    stride: 2
  }
}
layer {
  name: "ip1"
  type: "InnerProduct"
  bottom: "pool4"
  top: "ip1"
  param {
    lr_mult: 1
  }
  param {
    lr_mult: 2
  }
  inner_product_param {
    num_output: 50
    weight_filler {
      type: "xavier"
    }
    bias_filler {
      type: "constant"
    }
  }
}
layer {
  name: "relu5"
  type: "ReLU"
  bottom: "ip1"
  top: "ip1"
}
layer {
  name: "drop5"
  type: "Dropout"
  bottom: "ip1"
  top: "ip1"
  dropout_param {
    dropout_ratio: 0.5
  }
}
layer {
  name: "ip2"
  type: "InnerProduct"
  bottom: "ip1"
  top: "ip2"
  param {
    lr_mult: 1
  }
  param {
    lr_mult: 2
  }
  inner_product_param {
    num_output: 7
    weight_filler {
      type: "xavier"
    }
    bias_filler {
      type: "constant"
    }
  }
}
layer {
  name: "loss"
  type: "SoftmaxWithLoss"
  bottom: "ip2"
  bottom: "label"
  top: "loss"
}
I0112 17:19:37.567874 27962 layer_factory.hpp:77] Creating layer mnist
I0112 17:19:37.568039 27962 db_lmdb.cpp:35] Opened lmdb ./data2/rail_train_lmdb
I0112 17:19:37.568078 27962 net.cpp:84] Creating Layer mnist
I0112 17:19:37.568089 27962 net.cpp:380] mnist -> data
I0112 17:19:37.568115 27962 net.cpp:380] mnist -> label
I0112 17:19:37.569389 27962 data_layer.cpp:45] output data size: 128,3,200,200
I0112 17:19:37.720788 27962 net.cpp:122] Setting up mnist
I0112 17:19:37.720835 27962 net.cpp:129] Top shape: 128 3 200 200 (15360000)
I0112 17:19:37.720844 27962 net.cpp:129] Top shape: 128 (128)
I0112 17:19:37.720846 27962 net.cpp:137] Memory required for data: 61440512
I0112 17:19:37.720858 27962 layer_factory.hpp:77] Creating layer conv1
I0112 17:19:37.720902 27962 net.cpp:84] Creating Layer conv1
I0112 17:19:37.720911 27962 net.cpp:406] conv1 <- data
I0112 17:19:37.720927 27962 net.cpp:380] conv1 -> conv1
I0112 17:19:38.719168 27962 net.cpp:122] Setting up conv1
I0112 17:19:38.719216 27962 net.cpp:129] Top shape: 128 30 196 196 (147517440)
I0112 17:19:38.719223 27962 net.cpp:137] Memory required for data: 651510272
I0112 17:19:38.719246 27962 layer_factory.hpp:77] Creating layer relu1
I0112 17:19:38.719266 27962 net.cpp:84] Creating Layer relu1
I0112 17:19:38.719272 27962 net.cpp:406] relu1 <- conv1
I0112 17:19:38.719280 27962 net.cpp:367] relu1 -> conv1 (in-place)
I0112 17:19:38.719447 27962 net.cpp:122] Setting up relu1
I0112 17:19:38.719458 27962 net.cpp:129] Top shape: 128 30 196 196 (147517440)
I0112 17:19:38.719462 27962 net.cpp:137] Memory required for data: 1241580032
I0112 17:19:38.719466 27962 layer_factory.hpp:77] Creating layer norm1
I0112 17:19:38.719476 27962 net.cpp:84] Creating Layer norm1
I0112 17:19:38.719480 27962 net.cpp:406] norm1 <- conv1
I0112 17:19:38.719485 27962 net.cpp:380] norm1 -> norm1
I0112 17:19:38.720188 27962 net.cpp:122] Setting up norm1
I0112 17:19:38.720201 27962 net.cpp:129] Top shape: 128 30 196 196 (147517440)
I0112 17:19:38.720206 27962 net.cpp:137] Memory required for data: 1831649792
I0112 17:19:38.720209 27962 layer_factory.hpp:77] Creating layer pool1
I0112 17:19:38.720217 27962 net.cpp:84] Creating Layer pool1
I0112 17:19:38.720222 27962 net.cpp:406] pool1 <- norm1
I0112 17:19:38.720227 27962 net.cpp:380] pool1 -> pool1
I0112 17:19:38.720268 27962 net.cpp:122] Setting up pool1
I0112 17:19:38.720276 27962 net.cpp:129] Top shape: 128 30 98 98 (36879360)
I0112 17:19:38.720279 27962 net.cpp:137] Memory required for data: 1979167232
I0112 17:19:38.720283 27962 layer_factory.hpp:77] Creating layer conv2
I0112 17:19:38.720293 27962 net.cpp:84] Creating Layer conv2
I0112 17:19:38.720297 27962 net.cpp:406] conv2 <- pool1
I0112 17:19:38.720302 27962 net.cpp:380] conv2 -> conv2
I0112 17:19:38.723062 27962 net.cpp:122] Setting up conv2
I0112 17:19:38.723076 27962 net.cpp:129] Top shape: 128 30 94 94 (33930240)
I0112 17:19:38.723081 27962 net.cpp:137] Memory required for data: 2114888192
I0112 17:19:38.723089 27962 layer_factory.hpp:77] Creating layer relu2
I0112 17:19:38.723095 27962 net.cpp:84] Creating Layer relu2
I0112 17:19:38.723099 27962 net.cpp:406] relu2 <- conv2
I0112 17:19:38.723104 27962 net.cpp:367] relu2 -> conv2 (in-place)
I0112 17:19:38.723242 27962 net.cpp:122] Setting up relu2
I0112 17:19:38.723250 27962 net.cpp:129] Top shape: 128 30 94 94 (33930240)
I0112 17:19:38.723253 27962 net.cpp:137] Memory required for data: 2250609152
I0112 17:19:38.723258 27962 layer_factory.hpp:77] Creating layer norm2
I0112 17:19:38.723263 27962 net.cpp:84] Creating Layer norm2
I0112 17:19:38.723275 27962 net.cpp:406] norm2 <- conv2
I0112 17:19:38.723291 27962 net.cpp:380] norm2 -> norm2
I0112 17:19:38.723444 27962 net.cpp:122] Setting up norm2
I0112 17:19:38.723453 27962 net.cpp:129] Top shape: 128 30 94 94 (33930240)
I0112 17:19:38.723456 27962 net.cpp:137] Memory required for data: 2386330112
I0112 17:19:38.723459 27962 layer_factory.hpp:77] Creating layer pool2
I0112 17:19:38.723465 27962 net.cpp:84] Creating Layer pool2
I0112 17:19:38.723469 27962 net.cpp:406] pool2 <- norm2
I0112 17:19:38.723474 27962 net.cpp:380] pool2 -> pool2
I0112 17:19:38.723500 27962 net.cpp:122] Setting up pool2
I0112 17:19:38.723507 27962 net.cpp:129] Top shape: 128 30 47 47 (8482560)
I0112 17:19:38.723510 27962 net.cpp:137] Memory required for data: 2420260352
I0112 17:19:38.723512 27962 layer_factory.hpp:77] Creating layer conv3
I0112 17:19:38.723521 27962 net.cpp:84] Creating Layer conv3
I0112 17:19:38.723526 27962 net.cpp:406] conv3 <- pool2
I0112 17:19:38.723529 27962 net.cpp:380] conv3 -> conv3
I0112 17:19:38.724728 27962 net.cpp:122] Setting up conv3
I0112 17:19:38.724743 27962 net.cpp:129] Top shape: 128 30 43 43 (7100160)
I0112 17:19:38.724747 27962 net.cpp:137] Memory required for data: 2448660992
I0112 17:19:38.724756 27962 layer_factory.hpp:77] Creating layer relu3
I0112 17:19:38.724761 27962 net.cpp:84] Creating Layer relu3
I0112 17:19:38.724764 27962 net.cpp:406] relu3 <- conv3
I0112 17:19:38.724769 27962 net.cpp:367] relu3 -> conv3 (in-place)
I0112 17:19:38.724897 27962 net.cpp:122] Setting up relu3
I0112 17:19:38.724905 27962 net.cpp:129] Top shape: 128 30 43 43 (7100160)
I0112 17:19:38.724908 27962 net.cpp:137] Memory required for data: 2477061632
I0112 17:19:38.724911 27962 layer_factory.hpp:77] Creating layer pool3
I0112 17:19:38.724917 27962 net.cpp:84] Creating Layer pool3
I0112 17:19:38.724920 27962 net.cpp:406] pool3 <- conv3
I0112 17:19:38.724925 27962 net.cpp:380] pool3 -> pool3
I0112 17:19:38.724957 27962 net.cpp:122] Setting up pool3
I0112 17:19:38.724963 27962 net.cpp:129] Top shape: 128 30 21 21 (1693440)
I0112 17:19:38.724967 27962 net.cpp:137] Memory required for data: 2483835392
I0112 17:19:38.724969 27962 layer_factory.hpp:77] Creating layer conv4
I0112 17:19:38.724977 27962 net.cpp:84] Creating Layer conv4
I0112 17:19:38.724980 27962 net.cpp:406] conv4 <- pool3
I0112 17:19:38.724984 27962 net.cpp:380] conv4 -> conv4
I0112 17:19:38.727685 27962 net.cpp:122] Setting up conv4
I0112 17:19:38.727699 27962 net.cpp:129] Top shape: 128 50 17 17 (1849600)
I0112 17:19:38.727704 27962 net.cpp:137] Memory required for data: 2491233792
I0112 17:19:38.727710 27962 layer_factory.hpp:77] Creating layer relu4
I0112 17:19:38.727715 27962 net.cpp:84] Creating Layer relu4
I0112 17:19:38.727720 27962 net.cpp:406] relu4 <- conv4
I0112 17:19:38.727723 27962 net.cpp:367] relu4 -> conv4 (in-place)
I0112 17:19:38.727875 27962 net.cpp:122] Setting up relu4
I0112 17:19:38.727885 27962 net.cpp:129] Top shape: 128 50 17 17 (1849600)
I0112 17:19:38.727888 27962 net.cpp:137] Memory required for data: 2498632192
I0112 17:19:38.727891 27962 layer_factory.hpp:77] Creating layer pool4
I0112 17:19:38.727897 27962 net.cpp:84] Creating Layer pool4
I0112 17:19:38.727900 27962 net.cpp:406] pool4 <- conv4
I0112 17:19:38.727905 27962 net.cpp:380] pool4 -> pool4
I0112 17:19:38.727941 27962 net.cpp:122] Setting up pool4
I0112 17:19:38.727948 27962 net.cpp:129] Top shape: 128 50 8 8 (409600)
I0112 17:19:38.727952 27962 net.cpp:137] Memory required for data: 2500270592
I0112 17:19:38.727954 27962 layer_factory.hpp:77] Creating layer ip1
I0112 17:19:38.727962 27962 net.cpp:84] Creating Layer ip1
I0112 17:19:38.727965 27962 net.cpp:406] ip1 <- pool4
I0112 17:19:38.727970 27962 net.cpp:380] ip1 -> ip1
I0112 17:19:38.729915 27962 net.cpp:122] Setting up ip1
I0112 17:19:38.729933 27962 net.cpp:129] Top shape: 128 50 (6400)
I0112 17:19:38.729936 27962 net.cpp:137] Memory required for data: 2500296192
I0112 17:19:38.729946 27962 layer_factory.hpp:77] Creating layer relu5
I0112 17:19:38.729954 27962 net.cpp:84] Creating Layer relu5
I0112 17:19:38.729964 27962 net.cpp:406] relu5 <- ip1
I0112 17:19:38.729974 27962 net.cpp:367] relu5 -> ip1 (in-place)
I0112 17:19:38.730715 27962 net.cpp:122] Setting up relu5
I0112 17:19:38.730728 27962 net.cpp:129] Top shape: 128 50 (6400)
I0112 17:19:38.730731 27962 net.cpp:137] Memory required for data: 2500321792
I0112 17:19:38.730736 27962 layer_factory.hpp:77] Creating layer drop5
I0112 17:19:38.730743 27962 net.cpp:84] Creating Layer drop5
I0112 17:19:38.730747 27962 net.cpp:406] drop5 <- ip1
I0112 17:19:38.730752 27962 net.cpp:367] drop5 -> ip1 (in-place)
I0112 17:19:38.730777 27962 net.cpp:122] Setting up drop5
I0112 17:19:38.730783 27962 net.cpp:129] Top shape: 128 50 (6400)
I0112 17:19:38.730787 27962 net.cpp:137] Memory required for data: 2500347392
I0112 17:19:38.730790 27962 layer_factory.hpp:77] Creating layer ip2
I0112 17:19:38.730798 27962 net.cpp:84] Creating Layer ip2
I0112 17:19:38.730800 27962 net.cpp:406] ip2 <- ip1
I0112 17:19:38.730806 27962 net.cpp:380] ip2 -> ip2
I0112 17:19:38.730901 27962 net.cpp:122] Setting up ip2
I0112 17:19:38.730907 27962 net.cpp:129] Top shape: 128 7 (896)
I0112 17:19:38.730911 27962 net.cpp:137] Memory required for data: 2500350976
I0112 17:19:38.730917 27962 layer_factory.hpp:77] Creating layer loss
I0112 17:19:38.730923 27962 net.cpp:84] Creating Layer loss
I0112 17:19:38.730926 27962 net.cpp:406] loss <- ip2
I0112 17:19:38.730931 27962 net.cpp:406] loss <- label
I0112 17:19:38.730937 27962 net.cpp:380] loss -> loss
I0112 17:19:38.730948 27962 layer_factory.hpp:77] Creating layer loss
…
I0112 17:19:38.731530 27962 solver.cpp:172] Creating test net (#0) specified by net file: ./lenet_train_test.prototxt
I0112 17:19:38.731560 27962 net.cpp:294] The NetState phase (1) differed from the phase (0) specified by a rule in layer mnist
I0112 17:19:38.731683 27962 net.cpp:51] Initializing net from parameters: 
name: "LeNet"
state {
  phase: TEST
}
layer {
  name: "mnist"
  type: "Data"
  top: "data"
  top: "label"
  include {
    phase: TEST
  }
  transform_param {
    scale: 0.00390625
  }
  data_param {
    source: "./data2/rail_val_lmdb"
    batch_size: 100
    backend: LMDB
  }
}
layer {
  name: "conv1"
  type: "Convolution"
  bottom: "data"
  top: "conv1"
  param {
    lr_mult: 1
  }
  param {
    lr_mult: 2
  }
  convolution_param {
    num_output: 30
    kernel_size: 5
    stride: 1
    weight_filler {
      type: "xavier"
    }
    bias_filler {
      type: "constant"
    }
  }
}
layer {
  name: "relu1"
  type: "ReLU"
  bottom: "conv1"
  top: "conv1"
}
layer {
  name: "norm1"
  type: "LRN"
  bottom: "conv1"
  top: "norm1"
  lrn_param {
    local_size: 5
    alpha: 0.0001
    beta: 0.75
  }
}
layer {
  name: "pool1"
  type: "Pooling"
  bottom: "norm1"
  top: "pool1"
  pooling_param {
    pool: MAX
    kernel_size: 3
    stride: 2
  }
}
layer {
  name: "conv2"
  type: "Convolution"
  bottom: "pool1"
  top: "conv2"
  param {
    lr_mult: 1
  }
  param {
    lr_mult: 2
  }
  convolution_param {
    num_output: 30
    kernel_size: 5
    stride: 1
    weight_filler {
      type: "xavier"
    }
    bias_filler {
      type: "constant"
    }
  }
}
layer {
  name: "relu2"
  type: "ReLU"
  bottom: "conv2"
  top: "conv2"
}
layer {
  name: "norm2"
  type: "LRN"
  bottom: "conv2"
  top: "norm2"
  lrn_param {
    local_size: 5
    alpha: 0.0001
    beta: 0.75
  }
}
layer {
  name: "pool2"
  type: "Pooling"
  bottom: "norm2"
  top: "pool2"
  pooling_param {
    pool: MAX
    kernel_size: 3
    stride: 2
  }
}
layer {
  name: "conv3"
  type: "Convolution"
  bottom: "pool2"
  top: "conv3"
  param {
    lr_mult: 1
  }
  param {
    lr_mult: 2
  }
  convolution_param {
    num_output: 30
    kernel_size: 5
    stride: 1
    weight_filler {
      type: "xavier"
    }
    bias_filler {
      type: "constant"
    }
  }
}
layer {
  name: "relu3"
  type: "ReLU"
  bottom: "conv3"
  top: "conv3"
}
layer {
  name: "pool3"
  type: "Pooling"
  bottom: "conv3"
  top: "pool3"
  pooling_param {
    pool: MAX
    kernel_size: 3
    stride: 2
  }
}
layer {
  name: "conv4"
  type: "Convolution"
  bottom: "pool3"
  top: "conv4"
  param {
    lr_mult: 1
  }
  param {
    lr_mult: 2
  }
  convolution_param {
    num_output: 50
    kernel_size: 5
    stride: 1
    weight_filler {
      type: "xavier"
    }
    bias_filler {
      type: "constant"
    }
  }
}
layer {
  name: "relu4"
  type: "ReLU"
  bottom: "conv4"
  top: "conv4"
}
layer {
  name: "pool4"
  type: "Pooling"
  bottom: "conv4"
  top: "pool4"
  pooling_param {
    pool: MAX
    kernel_size: 3
    stride: 2
  }
}
layer {
  name: "ip1"
  type: "InnerProduct"
  bottom: "pool4"
  top: "ip1"
  param {
    lr_mult: 1
  }
  param {
    lr_mult: 2
  }
  inner_product_param {
    num_output: 50
    weight_filler {
      type: "xavier"
    }
    bias_filler {
      type: "constant"
    }
  }
}
layer {
  name: "relu5"
  type: "ReLU"
  bottom: "ip1"
  top: "ip1"
}
layer {
  name: "drop5"
  type: "Dropout"
  bottom: "ip1"
  top: "ip1"
  dropout_param {
    dropout_ratio: 0.5
  }
}
layer {
  name: "ip2"
  type: "InnerProduct"
  bottom: "ip1"
  top: "ip2"
  param {
    lr_mult: 1
  }
  param {
    lr_mult: 2
  }
  inner_product_param {
    num_output: 7
    weight_filler {
      type: "xavier"
    }
    bias_filler {
      type: "constant"
    }
  }
}
layer {
  name: "accuracy"
  type: "Accuracy"
  bottom: "ip2"
  bottom: "label"
  top: "accuracy"
  include {
    phase: TEST
  }
}
layer {
  name: "loss"
  type: "SoftmaxWithLoss"
  bottom: "ip2"
  bottom: "label"
  top: "loss"
}
I0112 17:19:38.731770 27962 layer_factory.hpp:77] Creating layer mnist
I0112 17:19:38.731827 27962 db_lmdb.cpp:35] Opened lmdb ./data2/rail_val_lmdb
I0112 17:19:38.731851 27962 net.cpp:84] Creating Layer mnist
I0112 17:19:38.731858 27962 net.cpp:380] mnist -> data
I0112 17:19:38.731865 27962 net.cpp:380] mnist -> label
I0112 17:19:38.731992 27962 data_layer.cpp:45] output data size: 100,3,200,200
I0112 17:19:38.846374 27962 net.cpp:122] Setting up mnist
I0112 17:19:38.846421 27962 net.cpp:129] Top shape: 100 3 200 200 (12000000)
I0112 17:19:38.846426 27962 net.cpp:129] Top shape: 100 (100)
I0112 17:19:38.846431 27962 net.cpp:137] Memory required for data: 48000400
I0112 17:19:38.846437 27962 layer_factory.hpp:77] Creating layer label_mnist_1_split
I0112 17:19:38.846462 27962 net.cpp:84] Creating Layer label_mnist_1_split
I0112 17:19:38.846477 27962 net.cpp:406] label_mnist_1_split <- label
I0112 17:19:38.846487 27962 net.cpp:380] label_mnist_1_split -> label_mnist_1_split_0
I0112 17:19:38.846496 27962 net.cpp:380] label_mnist_1_split -> label_mnist_1_split_1
I0112 17:19:38.846808 27962 net.cpp:122] Setting up label_mnist_1_split
I0112 17:19:38.846863 27962 net.cpp:129] Top shape: 100 (100)
I0112 17:19:38.846874 27962 net.cpp:129] Top shape: 100 (100)
I0112 17:19:38.846881 27962 net.cpp:137] Memory required for data: 48001200
I0112 17:19:38.846891 27962 layer_factory.hpp:77] Creating layer conv1
I0112 17:19:38.846923 27962 net.cpp:84] Creating Layer conv1
I0112 17:19:38.846933 27962 net.cpp:406] conv1 <- data
I0112 17:19:38.846948 27962 net.cpp:380] conv1 -> conv1
I0112 17:19:38.850052 27962 net.cpp:122] Setting up conv1
I0112 17:19:38.850088 27962 net.cpp:129] Top shape: 100 30 196 196 (115248000)
I0112 17:19:38.850100 27962 net.cpp:137] Memory required for data: 508993200
I0112 17:19:38.850126 27962 layer_factory.hpp:77] Creating layer relu1
I0112 17:19:38.850142 27962 net.cpp:84] Creating Layer relu1
I0112 17:19:38.850152 27962 net.cpp:406] relu1 <- conv1
I0112 17:19:38.850165 27962 net.cpp:367] relu1 -> conv1 (in-place)
I0112 17:19:38.850515 27962 net.cpp:122] Setting up relu1
I0112 17:19:38.850534 27962 net.cpp:129] Top shape: 100 30 196 196 (115248000)
I0112 17:19:38.850543 27962 net.cpp:137] Memory required for data: 969985200
I0112 17:19:38.850551 27962 layer_factory.hpp:77] Creating layer norm1
I0112 17:19:38.850570 27962 net.cpp:84] Creating Layer norm1
I0112 17:19:38.850579 27962 net.cpp:406] norm1 <- conv1
I0112 17:19:38.850591 27962 net.cpp:380] norm1 -> norm1
I0112 17:19:38.850989 27962 net.cpp:122] Setting up norm1
I0112 17:19:38.851008 27962 net.cpp:129] Top shape: 100 30 196 196 (115248000)
I0112 17:19:38.851016 27962 net.cpp:137] Memory required for data: 1430977200
I0112 17:19:38.851024 27962 layer_factory.hpp:77] Creating layer pool1
I0112 17:19:38.851039 27962 net.cpp:84] Creating Layer pool1
I0112 17:19:38.851048 27962 net.cpp:406] pool1 <- norm1
I0112 17:19:38.851060 27962 net.cpp:380] pool1 -> pool1
I0112 17:19:38.851136 27962 net.cpp:122] Setting up pool1
I0112 17:19:38.851152 27962 net.cpp:129] Top shape: 100 30 98 98 (28812000)
I0112 17:19:38.851161 27962 net.cpp:137] Memory required for data: 1546225200
I0112 17:19:38.851167 27962 layer_factory.hpp:77] Creating layer conv2
I0112 17:19:38.851187 27962 net.cpp:84] Creating Layer conv2
I0112 17:19:38.851198 27962 net.cpp:406] conv2 <- pool1
I0112 17:19:38.851212 27962 net.cpp:380] conv2 -> conv2
I0112 17:19:38.858211 27962 net.cpp:122] Setting up conv2
I0112 17:19:38.858258 27962 net.cpp:129] Top shape: 100 30 94 94 (26508000)
I0112 17:19:38.858270 27962 net.cpp:137] Memory required for data: 1652257200
I0112 17:19:38.858292 27962 layer_factory.hpp:77] Creating layer relu2
I0112 17:19:38.858311 27962 net.cpp:84] Creating Layer relu2
I0112 17:19:38.858321 27962 net.cpp:406] relu2 <- conv2
I0112 17:19:38.858336 27962 net.cpp:367] relu2 -> conv2 (in-place)
I0112 17:19:38.860033 27962 net.cpp:122] Setting up relu2
I0112 17:19:38.860062 27962 net.cpp:129] Top shape: 100 30 94 94 (26508000)
I0112 17:19:38.860079 27962 net.cpp:137] Memory required for data: 1758289200
I0112 17:19:38.860090 27962 layer_factory.hpp:77] Creating layer norm2
I0112 17:19:38.860110 27962 net.cpp:84] Creating Layer norm2
I0112 17:19:38.860119 27962 net.cpp:406] norm2 <- conv2
I0112 17:19:38.860133 27962 net.cpp:380] norm2 -> norm2
I0112 17:19:38.860544 27962 net.cpp:122] Setting up norm2
I0112 17:19:38.860565 27962 net.cpp:129] Top shape: 100 30 94 94 (26508000)
I0112 17:19:38.860574 27962 net.cpp:137] Memory required for data: 1864321200
I0112 17:19:38.860580 27962 layer_factory.hpp:77] Creating layer pool2
I0112 17:19:38.860596 27962 net.cpp:84] Creating Layer pool2
I0112 17:19:38.860605 27962 net.cpp:406] pool2 <- norm2
I0112 17:19:38.860617 27962 net.cpp:380] pool2 -> pool2
I0112 17:19:38.860710 27962 net.cpp:122] Setting up pool2
I0112 17:19:38.860743 27962 net.cpp:129] Top shape: 100 30 47 47 (6627000)
I0112 17:19:38.860766 27962 net.cpp:137] Memory required for data: 1890829200
I0112 17:19:38.860774 27962 layer_factory.hpp:77] Creating layer conv3
I0112 17:19:38.860795 27962 net.cpp:84] Creating Layer conv3
I0112 17:19:38.860805 27962 net.cpp:406] conv3 <- pool2
I0112 17:19:38.860818 27962 net.cpp:380] conv3 -> conv3
I0112 17:19:38.863780 27962 net.cpp:122] Setting up conv3
I0112 17:19:38.863809 27962 net.cpp:129] Top shape: 100 30 43 43 (5547000)
I0112 17:19:38.863819 27962 net.cpp:137] Memory required for data: 1913017200
I0112 17:19:38.863838 27962 layer_factory.hpp:77] Creating layer relu3
I0112 17:19:38.863852 27962 net.cpp:84] Creating Layer relu3
I0112 17:19:38.863860 27962 net.cpp:406] relu3 <- conv3
I0112 17:19:38.863874 27962 net.cpp:367] relu3 -> conv3 (in-place)
I0112 17:19:38.864199 27962 net.cpp:122] Setting up relu3
I0112 17:19:38.864217 27962 net.cpp:129] Top shape: 100 30 43 43 (5547000)
I0112 17:19:38.864224 27962 net.cpp:137] Memory required for data: 1935205200
I0112 17:19:38.864233 27962 layer_factory.hpp:77] Creating layer pool3
I0112 17:19:38.864244 27962 net.cpp:84] Creating Layer pool3
I0112 17:19:38.864253 27962 net.cpp:406] pool3 <- conv3
I0112 17:19:38.864264 27962 net.cpp:380] pool3 -> pool3
I0112 17:19:38.864346 27962 net.cpp:122] Setting up pool3
I0112 17:19:38.864361 27962 net.cpp:129] Top shape: 100 30 21 21 (1323000)
I0112 17:19:38.864367 27962 net.cpp:137] Memory required for data: 1940497200
I0112 17:19:38.864373 27962 layer_factory.hpp:77] Creating layer conv4
I0112 17:19:38.864394 27962 net.cpp:84] Creating Layer conv4
I0112 17:19:38.864401 27962 net.cpp:406] conv4 <- pool3
I0112 17:19:38.864415 27962 net.cpp:380] conv4 -> conv4
I0112 17:19:38.867537 27962 net.cpp:122] Setting up conv4
I0112 17:19:38.867568 27962 net.cpp:129] Top shape: 100 50 17 17 (1445000)
I0112 17:19:38.867578 27962 net.cpp:137] Memory required for data: 1946277200
I0112 17:19:38.867590 27962 layer_factory.hpp:77] Creating layer relu4
I0112 17:19:38.867602 27962 net.cpp:84] Creating Layer relu4
I0112 17:19:38.867612 27962 net.cpp:406] relu4 <- conv4
I0112 17:19:38.867624 27962 net.cpp:367] relu4 -> conv4 (in-place)
I0112 17:19:38.867939 27962 net.cpp:122] Setting up relu4
I0112 17:19:38.867956 27962 net.cpp:129] Top shape: 100 50 17 17 (1445000)
I0112 17:19:38.867964 27962 net.cpp:137] Memory required for data: 1952057200
I0112 17:19:38.867971 27962 layer_factory.hpp:77] Creating layer pool4
I0112 17:19:38.867985 27962 net.cpp:84] Creating Layer pool4
I0112 17:19:38.867991 27962 net.cpp:406] pool4 <- conv4
I0112 17:19:38.868003 27962 net.cpp:380] pool4 -> pool4
I0112 17:19:38.868083 27962 net.cpp:122] Setting up pool4
I0112 17:19:38.868096 27962 net.cpp:129] Top shape: 100 50 8 8 (320000)
I0112 17:19:38.868103 27962 net.cpp:137] Memory required for data: 1953337200
I0112 17:19:38.868111 27962 layer_factory.hpp:77] Creating layer ip1
I0112 17:19:38.868130 27962 net.cpp:84] Creating Layer ip1
I0112 17:19:38.868139 27962 net.cpp:406] ip1 <- pool4
I0112 17:19:38.868152 27962 net.cpp:380] ip1 -> ip1
I0112 17:19:38.870249 27962 net.cpp:122] Setting up ip1
I0112 17:19:38.870265 27962 net.cpp:129] Top shape: 100 50 (5000)
I0112 17:19:38.870272 27962 net.cpp:137] Memory required for data: 1953357200
I0112 17:19:38.870290 27962 layer_factory.hpp:77] Creating layer relu5
I0112 17:19:38.870303 27962 net.cpp:84] Creating Layer relu5
I0112 17:19:38.870311 27962 net.cpp:406] relu5 <- ip1
I0112 17:19:38.870321 27962 net.cpp:367] relu5 -> ip1 (in-place)
I0112 17:19:38.870657 27962 net.cpp:122] Setting up relu5
I0112 17:19:38.870674 27962 net.cpp:129] Top shape: 100 50 (5000)
I0112 17:19:38.870682 27962 net.cpp:137] Memory required for data: 1953377200
I0112 17:19:38.870688 27962 layer_factory.hpp:77] Creating layer drop5
I0112 17:19:38.870702 27962 net.cpp:84] Creating Layer drop5
I0112 17:19:38.870710 27962 net.cpp:406] drop5 <- ip1
I0112 17:19:38.870721 27962 net.cpp:367] drop5 -> ip1 (in-place)
I0112 17:19:38.870774 27962 net.cpp:122] Setting up drop5
I0112 17:19:38.870792 27962 net.cpp:129] Top shape: 100 50 (5000)
I0112 17:19:38.870812 27962 net.cpp:137] Memory required for data: 1953397200
I0112 17:19:38.870820 27962 layer_factory.hpp:77] Creating layer ip2
I0112 17:19:38.870833 27962 net.cpp:84] Creating Layer ip2
I0112 17:19:38.870841 27962 net.cpp:406] ip2 <- ip1
I0112 17:19:38.870853 27962 net.cpp:380] ip2 -> ip2
I0112 17:19:38.871062 27962 net.cpp:122] Setting up ip2
I0112 17:19:38.871074 27962 net.cpp:129] Top shape: 100 7 (700)
I0112 17:19:38.871081 27962 net.cpp:137] Memory required for data: 1953400000
I0112 17:19:38.871094 27962 layer_factory.hpp:77] Creating layer ip2_ip2_0_split
I0112 17:19:38.871107 27962 net.cpp:84] Creating Layer ip2_ip2_0_split
I0112 17:19:38.871114 27962 net.cpp:406] ip2_ip2_0_split <- ip2
I0112 17:19:38.871126 27962 net.cpp:380] ip2_ip2_0_split -> ip2_ip2_0_split_0
I0112 17:19:38.871145 27962 net.cpp:380] ip2_ip2_0_split -> ip2_ip2_0_split_1
I0112 17:19:38.871217 27962 net.cpp:122] Setting up ip2_ip2_0_split
I0112 17:19:38.871230 27962 net.cpp:129] Top shape: 100 7 (700)
I0112 17:19:38.871238 27962 net.cpp:129] Top shape: 100 7 (700)
I0112 17:19:38.871245 27962 net.cpp:137] Memory required for data: 1953405600
I0112 17:19:38.871253 27962 layer_factory.hpp:77] Creating layer accuracy
I0112 17:19:38.871268 27962 net.cpp:84] Creating Layer accuracy
I0112 17:19:38.871274 27962 net.cpp:406] accuracy <- ip2_ip2_0_split_0
I0112 17:19:38.871285 27962 net.cpp:406] accuracy <- label_mnist_1_split_0
I0112 17:19:38.871299 27962 net.cpp:380] accuracy -> accuracy
…
