…
I0112 16:30:03.240761 25670 net.cpp:294] The NetState phase (0) differed from the phase (1) specified by a rule in layer mnist
I0112 16:30:03.240783 25670 net.cpp:294] The NetState phase (0) differed from the phase (1) specified by a rule in layer accuracy
I0112 16:30:03.240901 25670 net.cpp:51] Initializing net from parameters: 
name: "LeNet"
state {
  phase: TRAIN
  level: 0
  stage: ""
}
layer {
  name: "mnist"
  type: "Data"
  top: "data"
  top: "label"
  include {
    phase: TRAIN
  }
  transform_param {
    scale: 0.00390625
  }
  data_param {
    source: "./data/rail_train_lmdb"
    batch_size: 128
    backend: LMDB
  }
}
layer {
  name: "conv1"
  type: "Convolution"
  bottom: "data"
  top: "conv1"
  param {
    lr_mult: 1
  }
  param {
    lr_mult: 2
  }
  convolution_param {
    num_output: 30
    kernel_size: 5
    stride: 1
    weight_filler {
      type: "xavier"
    }
    bias_filler {
      type: "constant"
    }
  }
}
layer {
  name: "relu1"
  type: "ReLU"
  bottom: "conv1"
  top: "conv1"
}
layer {
  name: "norm1"
  type: "LRN"
  bottom: "conv1"
  top: "norm1"
  lrn_param {
    local_size: 5
    alpha: 0.0001
    beta: 0.75
  }
}
layer {
  name: "pool1"
  type: "Pooling"
  bottom: "norm1"
  top: "pool1"
  pooling_param {
    pool: MAX
    kernel_size: 3
    stride: 2
  }
}
layer {
  name: "conv2"
  type: "Convolution"
  bottom: "pool1"
  top: "conv2"
  param {
    lr_mult: 1
  }
  param {
    lr_mult: 2
  }
  convolution_param {
    num_output: 30
    kernel_size: 5
    stride: 1
    weight_filler {
      type: "xavier"
    }
    bias_filler {
      type: "constant"
    }
  }
}
layer {
  name: "relu2"
  type: "ReLU"
  bottom: "conv2"
  top: "conv2"
}
layer {
  name: "norm2"
  type: "LRN"
  bottom: "conv2"
  top: "norm2"
  lrn_param {
    local_size: 5
    alpha: 0.0001
    beta: 0.75
  }
}
layer {
  name: "pool2"
  type: "Pooling"
  bottom: "norm2"
  top: "pool2"
  pooling_param {
    pool: MAX
    kernel_size: 3
    stride: 2
  }
}
layer {
  name: "conv3"
  type: "Convolution"
  bottom: "pool2"
  top: "conv3"
  param {
    lr_mult: 1
  }
  param {
    lr_mult: 2
  }
  convolution_param {
    num_output: 30
    kernel_size: 5
    stride: 1
    weight_filler {
      type: "xavier"
    }
    bias_filler {
      type: "constant"
    }
  }
}
layer {
  name: "relu3"
  type: "ReLU"
  bottom: "conv3"
  top: "conv3"
}
layer {
  name: "norm3"
  type: "LRN"
  bottom: "conv3"
  top: "norm3"
  lrn_param {
    local_size: 5
    alpha: 0.0001
    beta: 0.75
  }
}
layer {
  name: "pool3"
  type: "Pooling"
  bottom: "norm3"
  top: "pool3"
  pooling_param {
    pool: MAX
    kernel_size: 3
    stride: 2
  }
}
layer {
  name: "conv4"
  type: "Convolution"
  bottom: "pool3"
  top: "conv4"
  param {
    lr_mult: 1
  }
  param {
    lr_mult: 2
  }
  convolution_param {
    num_output: 50
    kernel_size: 5
    stride: 1
    weight_filler {
      type: "xavier"
    }
    bias_filler {
      type: "constant"
    }
  }
}
layer {
  name: "relu4"
  type: "ReLU"
  bottom: "conv4"
  top: "conv4"
}
layer {
  name: "norm4"
  type: "LRN"
  bottom: "conv4"
  top: "norm4"
  lrn_param {
    local_size: 5
    alpha: 0.0001
    beta: 0.75
  }
}
layer {
  name: "pool4"
  type: "Pooling"
  bottom: "norm4"
  top: "pool4"
  pooling_param {
    pool: MAX
    kernel_size: 3
    stride: 2
  }
}
layer {
  name: "ip1"
  type: "InnerProduct"
  bottom: "pool4"
  top: "ip1"
  param {
    lr_mult: 1
  }
  param {
    lr_mult: 2
  }
  inner_product_param {
    num_output: 50
    weight_filler {
      type: "xavier"
    }
    bias_filler {
      type: "constant"
    }
  }
}
layer {
  name: "relu5"
  type: "ReLU"
  bottom: "ip1"
  top: "ip1"
}
layer {
  name: "drop5"
  type: "Dropout"
  bottom: "ip1"
  top: "ip1"
  dropout_param {
    dropout_ratio: 0.5
  }
}
layer {
  name: "ip2"
  type: "InnerProduct"
  bottom: "ip1"
  top: "ip2"
  param {
    lr_mult: 1
  }
  param {
    lr_mult: 2
  }
  inner_product_param {
    num_output: 7
    weight_filler {
      type: "xavier"
    }
    bias_filler {
      type: "constant"
    }
  }
}
layer {
  name: "loss"
  type: "SoftmaxWithLoss"
  bottom: "ip2"
  bottom: "label"
  top: "loss"
}
I0112 16:30:03.241003 25670 layer_factory.hpp:77] Creating layer mnist
I0112 16:30:03.241138 25670 db_lmdb.cpp:35] Opened lmdb ./data/rail_train_lmdb
I0112 16:30:03.241173 25670 net.cpp:84] Creating Layer mnist
I0112 16:30:03.241183 25670 net.cpp:380] mnist -> data
I0112 16:30:03.241204 25670 net.cpp:380] mnist -> label
I0112 16:30:03.242473 25670 data_layer.cpp:45] output data size: 128,3,200,200
I0112 16:30:03.394409 25670 net.cpp:122] Setting up mnist
I0112 16:30:03.394460 25670 net.cpp:129] Top shape: 128 3 200 200 (15360000)
I0112 16:30:03.394467 25670 net.cpp:129] Top shape: 128 (128)
I0112 16:30:03.394471 25670 net.cpp:137] Memory required for data: 61440512
I0112 16:30:03.394481 25670 layer_factory.hpp:77] Creating layer conv1
I0112 16:30:03.394510 25670 net.cpp:84] Creating Layer conv1
I0112 16:30:03.394518 25670 net.cpp:406] conv1 <- data
I0112 16:30:03.394532 25670 net.cpp:380] conv1 -> conv1
I0112 16:30:04.448845 25670 net.cpp:122] Setting up conv1
I0112 16:30:04.448902 25670 net.cpp:129] Top shape: 128 30 196 196 (147517440)
I0112 16:30:04.448909 25670 net.cpp:137] Memory required for data: 651510272
I0112 16:30:04.448943 25670 layer_factory.hpp:77] Creating layer relu1
I0112 16:30:04.448974 25670 net.cpp:84] Creating Layer relu1
I0112 16:30:04.448982 25670 net.cpp:406] relu1 <- conv1
I0112 16:30:04.448990 25670 net.cpp:367] relu1 -> conv1 (in-place)
I0112 16:30:04.449188 25670 net.cpp:122] Setting up relu1
I0112 16:30:04.449200 25670 net.cpp:129] Top shape: 128 30 196 196 (147517440)
I0112 16:30:04.449205 25670 net.cpp:137] Memory required for data: 1241580032
I0112 16:30:04.449210 25670 layer_factory.hpp:77] Creating layer norm1
I0112 16:30:04.449223 25670 net.cpp:84] Creating Layer norm1
I0112 16:30:04.449229 25670 net.cpp:406] norm1 <- conv1
I0112 16:30:04.449235 25670 net.cpp:380] norm1 -> norm1
I0112 16:30:04.450134 25670 net.cpp:122] Setting up norm1
I0112 16:30:04.450152 25670 net.cpp:129] Top shape: 128 30 196 196 (147517440)
I0112 16:30:04.450157 25670 net.cpp:137] Memory required for data: 1831649792
I0112 16:30:04.450162 25670 layer_factory.hpp:77] Creating layer pool1
I0112 16:30:04.450173 25670 net.cpp:84] Creating Layer pool1
I0112 16:30:04.450178 25670 net.cpp:406] pool1 <- norm1
I0112 16:30:04.450186 25670 net.cpp:380] pool1 -> pool1
I0112 16:30:04.450242 25670 net.cpp:122] Setting up pool1
I0112 16:30:04.450251 25670 net.cpp:129] Top shape: 128 30 98 98 (36879360)
I0112 16:30:04.450256 25670 net.cpp:137] Memory required for data: 1979167232
I0112 16:30:04.450260 25670 layer_factory.hpp:77] Creating layer conv2
I0112 16:30:04.450274 25670 net.cpp:84] Creating Layer conv2
I0112 16:30:04.450279 25670 net.cpp:406] conv2 <- pool1
I0112 16:30:04.450286 25670 net.cpp:380] conv2 -> conv2
I0112 16:30:04.453742 25670 net.cpp:122] Setting up conv2
I0112 16:30:04.453763 25670 net.cpp:129] Top shape: 128 30 94 94 (33930240)
I0112 16:30:04.453768 25670 net.cpp:137] Memory required for data: 2114888192
I0112 16:30:04.453779 25670 layer_factory.hpp:77] Creating layer relu2
I0112 16:30:04.453788 25670 net.cpp:84] Creating Layer relu2
I0112 16:30:04.453793 25670 net.cpp:406] relu2 <- conv2
I0112 16:30:04.453799 25670 net.cpp:367] relu2 -> conv2 (in-place)
I0112 16:30:04.453991 25670 net.cpp:122] Setting up relu2
I0112 16:30:04.454012 25670 net.cpp:129] Top shape: 128 30 94 94 (33930240)
I0112 16:30:04.454027 25670 net.cpp:137] Memory required for data: 2250609152
I0112 16:30:04.454033 25670 layer_factory.hpp:77] Creating layer norm2
I0112 16:30:04.454041 25670 net.cpp:84] Creating Layer norm2
I0112 16:30:04.454046 25670 net.cpp:406] norm2 <- conv2
I0112 16:30:04.454052 25670 net.cpp:380] norm2 -> norm2
I0112 16:30:04.454278 25670 net.cpp:122] Setting up norm2
I0112 16:30:04.454293 25670 net.cpp:129] Top shape: 128 30 94 94 (33930240)
I0112 16:30:04.454296 25670 net.cpp:137] Memory required for data: 2386330112
I0112 16:30:04.454301 25670 layer_factory.hpp:77] Creating layer pool2
I0112 16:30:04.454310 25670 net.cpp:84] Creating Layer pool2
I0112 16:30:04.454315 25670 net.cpp:406] pool2 <- norm2
I0112 16:30:04.454321 25670 net.cpp:380] pool2 -> pool2
I0112 16:30:04.454363 25670 net.cpp:122] Setting up pool2
I0112 16:30:04.454372 25670 net.cpp:129] Top shape: 128 30 47 47 (8482560)
I0112 16:30:04.454376 25670 net.cpp:137] Memory required for data: 2420260352
I0112 16:30:04.454380 25670 layer_factory.hpp:77] Creating layer conv3
I0112 16:30:04.454392 25670 net.cpp:84] Creating Layer conv3
I0112 16:30:04.454397 25670 net.cpp:406] conv3 <- pool2
I0112 16:30:04.454406 25670 net.cpp:380] conv3 -> conv3
I0112 16:30:04.456102 25670 net.cpp:122] Setting up conv3
I0112 16:30:04.456120 25670 net.cpp:129] Top shape: 128 30 43 43 (7100160)
I0112 16:30:04.456126 25670 net.cpp:137] Memory required for data: 2448660992
I0112 16:30:04.456136 25670 layer_factory.hpp:77] Creating layer relu3
I0112 16:30:04.456147 25670 net.cpp:84] Creating Layer relu3
I0112 16:30:04.456152 25670 net.cpp:406] relu3 <- conv3
I0112 16:30:04.456159 25670 net.cpp:367] relu3 -> conv3 (in-place)
I0112 16:30:04.456348 25670 net.cpp:122] Setting up relu3
I0112 16:30:04.456360 25670 net.cpp:129] Top shape: 128 30 43 43 (7100160)
I0112 16:30:04.456363 25670 net.cpp:137] Memory required for data: 2477061632
I0112 16:30:04.456368 25670 layer_factory.hpp:77] Creating layer norm3
I0112 16:30:04.456378 25670 net.cpp:84] Creating Layer norm3
I0112 16:30:04.456382 25670 net.cpp:406] norm3 <- conv3
I0112 16:30:04.456390 25670 net.cpp:380] norm3 -> norm3
I0112 16:30:04.457309 25670 net.cpp:122] Setting up norm3
I0112 16:30:04.457327 25670 net.cpp:129] Top shape: 128 30 43 43 (7100160)
I0112 16:30:04.457332 25670 net.cpp:137] Memory required for data: 2505462272
I0112 16:30:04.457336 25670 layer_factory.hpp:77] Creating layer pool3
I0112 16:30:04.457345 25670 net.cpp:84] Creating Layer pool3
I0112 16:30:04.457350 25670 net.cpp:406] pool3 <- norm3
I0112 16:30:04.457358 25670 net.cpp:380] pool3 -> pool3
I0112 16:30:04.457402 25670 net.cpp:122] Setting up pool3
I0112 16:30:04.457412 25670 net.cpp:129] Top shape: 128 30 21 21 (1693440)
I0112 16:30:04.457415 25670 net.cpp:137] Memory required for data: 2512236032
I0112 16:30:04.457419 25670 layer_factory.hpp:77] Creating layer conv4
I0112 16:30:04.457433 25670 net.cpp:84] Creating Layer conv4
I0112 16:30:04.457439 25670 net.cpp:406] conv4 <- pool3
I0112 16:30:04.457445 25670 net.cpp:380] conv4 -> conv4
I0112 16:30:04.460355 25670 net.cpp:122] Setting up conv4
I0112 16:30:04.460373 25670 net.cpp:129] Top shape: 128 50 17 17 (1849600)
I0112 16:30:04.460378 25670 net.cpp:137] Memory required for data: 2519634432
I0112 16:30:04.460386 25670 layer_factory.hpp:77] Creating layer relu4
I0112 16:30:04.460394 25670 net.cpp:84] Creating Layer relu4
I0112 16:30:04.460399 25670 net.cpp:406] relu4 <- conv4
I0112 16:30:04.460408 25670 net.cpp:367] relu4 -> conv4 (in-place)
I0112 16:30:04.461299 25670 net.cpp:122] Setting up relu4
I0112 16:30:04.461318 25670 net.cpp:129] Top shape: 128 50 17 17 (1849600)
I0112 16:30:04.461323 25670 net.cpp:137] Memory required for data: 2527032832
I0112 16:30:04.461328 25670 layer_factory.hpp:77] Creating layer norm4
I0112 16:30:04.461338 25670 net.cpp:84] Creating Layer norm4
I0112 16:30:04.461343 25670 net.cpp:406] norm4 <- conv4
I0112 16:30:04.461349 25670 net.cpp:380] norm4 -> norm4
I0112 16:30:04.461570 25670 net.cpp:122] Setting up norm4
I0112 16:30:04.461589 25670 net.cpp:129] Top shape: 128 50 17 17 (1849600)
I0112 16:30:04.461601 25670 net.cpp:137] Memory required for data: 2534431232
I0112 16:30:04.461606 25670 layer_factory.hpp:77] Creating layer pool4
I0112 16:30:04.461617 25670 net.cpp:84] Creating Layer pool4
I0112 16:30:04.461622 25670 net.cpp:406] pool4 <- norm4
I0112 16:30:04.461629 25670 net.cpp:380] pool4 -> pool4
I0112 16:30:04.461671 25670 net.cpp:122] Setting up pool4
I0112 16:30:04.461681 25670 net.cpp:129] Top shape: 128 50 8 8 (409600)
I0112 16:30:04.461685 25670 net.cpp:137] Memory required for data: 2536069632
I0112 16:30:04.461688 25670 layer_factory.hpp:77] Creating layer ip1
I0112 16:30:04.461700 25670 net.cpp:84] Creating Layer ip1
I0112 16:30:04.461705 25670 net.cpp:406] ip1 <- pool4
I0112 16:30:04.461714 25670 net.cpp:380] ip1 -> ip1
I0112 16:30:04.463995 25670 net.cpp:122] Setting up ip1
I0112 16:30:04.464011 25670 net.cpp:129] Top shape: 128 50 (6400)
I0112 16:30:04.464016 25670 net.cpp:137] Memory required for data: 2536095232
I0112 16:30:04.464032 25670 layer_factory.hpp:77] Creating layer relu5
I0112 16:30:04.464040 25670 net.cpp:84] Creating Layer relu5
I0112 16:30:04.464045 25670 net.cpp:406] relu5 <- ip1
I0112 16:30:04.464054 25670 net.cpp:367] relu5 -> ip1 (in-place)
I0112 16:30:04.464249 25670 net.cpp:122] Setting up relu5
I0112 16:30:04.464260 25670 net.cpp:129] Top shape: 128 50 (6400)
I0112 16:30:04.464263 25670 net.cpp:137] Memory required for data: 2536120832
I0112 16:30:04.464268 25670 layer_factory.hpp:77] Creating layer drop5
I0112 16:30:04.464277 25670 net.cpp:84] Creating Layer drop5
I0112 16:30:04.464282 25670 net.cpp:406] drop5 <- ip1
I0112 16:30:04.464290 25670 net.cpp:367] drop5 -> ip1 (in-place)
I0112 16:30:04.464318 25670 net.cpp:122] Setting up drop5
I0112 16:30:04.464325 25670 net.cpp:129] Top shape: 128 50 (6400)
I0112 16:30:04.464329 25670 net.cpp:137] Memory required for data: 2536146432
I0112 16:30:04.464334 25670 layer_factory.hpp:77] Creating layer ip2
I0112 16:30:04.464344 25670 net.cpp:84] Creating Layer ip2
I0112 16:30:04.464349 25670 net.cpp:406] ip2 <- ip1
I0112 16:30:04.464356 25670 net.cpp:380] ip2 -> ip2
I0112 16:30:04.464476 25670 net.cpp:122] Setting up ip2
I0112 16:30:04.464488 25670 net.cpp:129] Top shape: 128 7 (896)
I0112 16:30:04.464493 25670 net.cpp:137] Memory required for data: 2536150016
I0112 16:30:04.464498 25670 layer_factory.hpp:77] Creating layer loss
I0112 16:30:04.464506 25670 net.cpp:84] Creating Layer loss
I0112 16:30:04.464510 25670 net.cpp:406] loss <- ip2
I0112 16:30:04.464515 25670 net.cpp:406] loss <- label
I0112 16:30:04.464522 25670 net.cpp:380] loss -> loss
I0112 16:30:04.464541 25670 layer_factory.hpp:77] Creating layer loss
…
I0112 16:30:04.465332 25670 solver.cpp:172] Creating test net (#0) specified by net file: ./lenet_train_test.prototxt
I0112 16:30:04.465370 25670 net.cpp:294] The NetState phase (1) differed from the phase (0) specified by a rule in layer mnist
I0112 16:30:04.465523 25670 net.cpp:51] Initializing net from parameters: 
name: "LeNet"
state {
  phase: TEST
}
layer {
  name: "mnist"
  type: "Data"
  top: "data"
  top: "label"
  include {
    phase: TEST
  }
  transform_param {
    scale: 0.00390625
  }
  data_param {
    source: "./data/rail_val_lmdb"
    batch_size: 100
    backend: LMDB
  }
}
layer {
  name: "conv1"
  type: "Convolution"
  bottom: "data"
  top: "conv1"
  param {
    lr_mult: 1
  }
  param {
    lr_mult: 2
  }
  convolution_param {
    num_output: 30
    kernel_size: 5
    stride: 1
    weight_filler {
      type: "xavier"
    }
    bias_filler {
      type: "constant"
    }
  }
}
layer {
  name: "relu1"
  type: "ReLU"
  bottom: "conv1"
  top: "conv1"
}
layer {
  name: "norm1"
  type: "LRN"
  bottom: "conv1"
  top: "norm1"
  lrn_param {
    local_size: 5
    alpha: 0.0001
    beta: 0.75
  }
}
layer {
  name: "pool1"
  type: "Pooling"
  bottom: "norm1"
  top: "pool1"
  pooling_param {
    pool: MAX
    kernel_size: 3
    stride: 2
  }
}
layer {
  name: "conv2"
  type: "Convolution"
  bottom: "pool1"
  top: "conv2"
  param {
    lr_mult: 1
  }
  param {
    lr_mult: 2
  }
  convolution_param {
    num_output: 30
    kernel_size: 5
    stride: 1
    weight_filler {
      type: "xavier"
    }
    bias_filler {
      type: "constant"
    }
  }
}
layer {
  name: "relu2"
  type: "ReLU"
  bottom: "conv2"
  top: "conv2"
}
layer {
  name: "norm2"
  type: "LRN"
  bottom: "conv2"
  top: "norm2"
  lrn_param {
    local_size: 5
    alpha: 0.0001
    beta: 0.75
  }
}
layer {
  name: "pool2"
  type: "Pooling"
  bottom: "norm2"
  top: "pool2"
  pooling_param {
    pool: MAX
    kernel_size: 3
    stride: 2
  }
}
layer {
  name: "conv3"
  type: "Convolution"
  bottom: "pool2"
  top: "conv3"
  param {
    lr_mult: 1
  }
  param {
    lr_mult: 2
  }
  convolution_param {
    num_output: 30
    kernel_size: 5
    stride: 1
    weight_filler {
      type: "xavier"
    }
    bias_filler {
      type: "constant"
    }
  }
}
layer {
  name: "relu3"
  type: "ReLU"
  bottom: "conv3"
  top: "conv3"
}
layer {
  name: "norm3"
  type: "LRN"
  bottom: "conv3"
  top: "norm3"
  lrn_param {
    local_size: 5
    alpha: 0.0001
    beta: 0.75
  }
}
layer {
  name: "pool3"
  type: "Pooling"
  bottom: "norm3"
  top: "pool3"
  pooling_param {
    pool: MAX
    kernel_size: 3
    stride: 2
  }
}
layer {
  name: "conv4"
  type: "Convolution"
  bottom: "pool3"
  top: "conv4"
  param {
    lr_mult: 1
  }
  param {
    lr_mult: 2
  }
  convolution_param {
    num_output: 50
    kernel_size: 5
    stride: 1
    weight_filler {
      type: "xavier"
    }
    bias_filler {
      type: "constant"
    }
  }
}
layer {
  name: "relu4"
  type: "ReLU"
  bottom: "conv4"
  top: "conv4"
}
layer {
  name: "norm4"
  type: "LRN"
  bottom: "conv4"
  top: "norm4"
  lrn_param {
    local_size: 5
    alpha: 0.0001
    beta: 0.75
  }
}
layer {
  name: "pool4"
  type: "Pooling"
  bottom: "norm4"
  top: "pool4"
  pooling_param {
    pool: MAX
    kernel_size: 3
    stride: 2
  }
}
layer {
  name: "ip1"
  type: "InnerProduct"
  bottom: "pool4"
  top: "ip1"
  param {
    lr_mult: 1
  }
  param {
    lr_mult: 2
  }
  inner_product_param {
    num_output: 50
    weight_filler {
      type: "xavier"
    }
    bias_filler {
      type: "constant"
    }
  }
}
layer {
  name: "relu5"
  type: "ReLU"
  bottom: "ip1"
  top: "ip1"
}
layer {
  name: "drop5"
  type: "Dropout"
  bottom: "ip1"
  top: "ip1"
  dropout_param {
    dropout_ratio: 0.5
  }
}
layer {
  name: "ip2"
  type: "InnerProduct"
  bottom: "ip1"
  top: "ip2"
  param {
    lr_mult: 1
  }
  param {
    lr_mult: 2
  }
  inner_product_param {
    num_output: 7
    weight_filler {
      type: "xavier"
    }
    bias_filler {
      type: "constant"
    }
  }
}
layer {
  name: "accuracy"
  type: "Accuracy"
  bottom: "ip2"
  bottom: "label"
  top: "accuracy"
  include {
    phase: TEST
  }
}
layer {
  name: "loss"
  type: "SoftmaxWithLoss"
  bottom: "ip2"
  bottom: "label"
  top: "loss"
}
I0112 16:30:04.465644 25670 layer_factory.hpp:77] Creating layer mnist
I0112 16:30:04.465718 25670 db_lmdb.cpp:35] Opened lmdb ./data/rail_val_lmdb
I0112 16:30:04.465742 25670 net.cpp:84] Creating Layer mnist
I0112 16:30:04.465754 25670 net.cpp:380] mnist -> data
I0112 16:30:04.465764 25670 net.cpp:380] mnist -> label
I0112 16:30:04.466019 25670 data_layer.cpp:45] output data size: 100,3,200,200
I0112 16:30:04.601419 25670 net.cpp:122] Setting up mnist
I0112 16:30:04.601474 25670 net.cpp:129] Top shape: 100 3 200 200 (12000000)
I0112 16:30:04.601481 25670 net.cpp:129] Top shape: 100 (100)
I0112 16:30:04.601485 25670 net.cpp:137] Memory required for data: 48000400
I0112 16:30:04.601495 25670 layer_factory.hpp:77] Creating layer label_mnist_1_split
I0112 16:30:04.601514 25670 net.cpp:84] Creating Layer label_mnist_1_split
I0112 16:30:04.601521 25670 net.cpp:406] label_mnist_1_split <- label
I0112 16:30:04.601532 25670 net.cpp:380] label_mnist_1_split -> label_mnist_1_split_0
I0112 16:30:04.601547 25670 net.cpp:380] label_mnist_1_split -> label_mnist_1_split_1
I0112 16:30:04.601794 25670 net.cpp:122] Setting up label_mnist_1_split
I0112 16:30:04.601874 25670 net.cpp:129] Top shape: 100 (100)
I0112 16:30:04.601887 25670 net.cpp:129] Top shape: 100 (100)
I0112 16:30:04.601896 25670 net.cpp:137] Memory required for data: 48001200
I0112 16:30:04.601907 25670 layer_factory.hpp:77] Creating layer conv1
I0112 16:30:04.601943 25670 net.cpp:84] Creating Layer conv1
I0112 16:30:04.601956 25670 net.cpp:406] conv1 <- data
I0112 16:30:04.601976 25670 net.cpp:380] conv1 -> conv1
I0112 16:30:04.605468 25670 net.cpp:122] Setting up conv1
I0112 16:30:04.605504 25670 net.cpp:129] Top shape: 100 30 196 196 (115248000)
I0112 16:30:04.605515 25670 net.cpp:137] Memory required for data: 508993200
I0112 16:30:04.605540 25670 layer_factory.hpp:77] Creating layer relu1
I0112 16:30:04.605554 25670 net.cpp:84] Creating Layer relu1
I0112 16:30:04.605563 25670 net.cpp:406] relu1 <- conv1
I0112 16:30:04.605581 25670 net.cpp:367] relu1 -> conv1 (in-place)
I0112 16:30:04.607255 25670 net.cpp:122] Setting up relu1
I0112 16:30:04.607285 25670 net.cpp:129] Top shape: 100 30 196 196 (115248000)
I0112 16:30:04.607293 25670 net.cpp:137] Memory required for data: 969985200
I0112 16:30:04.607305 25670 layer_factory.hpp:77] Creating layer norm1
I0112 16:30:04.607326 25670 net.cpp:84] Creating Layer norm1
I0112 16:30:04.607336 25670 net.cpp:406] norm1 <- conv1
I0112 16:30:04.607348 25670 net.cpp:380] norm1 -> norm1
I0112 16:30:04.607772 25670 net.cpp:122] Setting up norm1
I0112 16:30:04.607797 25670 net.cpp:129] Top shape: 100 30 196 196 (115248000)
I0112 16:30:04.607805 25670 net.cpp:137] Memory required for data: 1430977200
I0112 16:30:04.607813 25670 layer_factory.hpp:77] Creating layer pool1
I0112 16:30:04.607828 25670 net.cpp:84] Creating Layer pool1
I0112 16:30:04.607837 25670 net.cpp:406] pool1 <- norm1
I0112 16:30:04.607849 25670 net.cpp:380] pool1 -> pool1
I0112 16:30:04.607933 25670 net.cpp:122] Setting up pool1
I0112 16:30:04.607950 25670 net.cpp:129] Top shape: 100 30 98 98 (28812000)
I0112 16:30:04.607959 25670 net.cpp:137] Memory required for data: 1546225200
I0112 16:30:04.607966 25670 layer_factory.hpp:77] Creating layer conv2
I0112 16:30:04.608016 25670 net.cpp:84] Creating Layer conv2
I0112 16:30:04.608031 25670 net.cpp:406] conv2 <- pool1
I0112 16:30:04.608044 25670 net.cpp:380] conv2 -> conv2
I0112 16:30:04.611613 25670 net.cpp:122] Setting up conv2
I0112 16:30:04.611656 25670 net.cpp:129] Top shape: 100 30 94 94 (26508000)
I0112 16:30:04.611668 25670 net.cpp:137] Memory required for data: 1652257200
I0112 16:30:04.611696 25670 layer_factory.hpp:77] Creating layer relu2
I0112 16:30:04.611712 25670 net.cpp:84] Creating Layer relu2
I0112 16:30:04.611721 25670 net.cpp:406] relu2 <- conv2
I0112 16:30:04.611737 25670 net.cpp:367] relu2 -> conv2 (in-place)
I0112 16:30:04.612169 25670 net.cpp:122] Setting up relu2
I0112 16:30:04.612191 25670 net.cpp:129] Top shape: 100 30 94 94 (26508000)
I0112 16:30:04.612198 25670 net.cpp:137] Memory required for data: 1758289200
I0112 16:30:04.612208 25670 layer_factory.hpp:77] Creating layer norm2
I0112 16:30:04.612233 25670 net.cpp:84] Creating Layer norm2
I0112 16:30:04.612242 25670 net.cpp:406] norm2 <- conv2
I0112 16:30:04.612257 25670 net.cpp:380] norm2 -> norm2
I0112 16:30:04.612781 25670 net.cpp:122] Setting up norm2
I0112 16:30:04.612809 25670 net.cpp:129] Top shape: 100 30 94 94 (26508000)
I0112 16:30:04.612818 25670 net.cpp:137] Memory required for data: 1864321200
I0112 16:30:04.612825 25670 layer_factory.hpp:77] Creating layer pool2
I0112 16:30:04.612841 25670 net.cpp:84] Creating Layer pool2
I0112 16:30:04.612849 25670 net.cpp:406] pool2 <- norm2
I0112 16:30:04.612862 25670 net.cpp:380] pool2 -> pool2
I0112 16:30:04.612948 25670 net.cpp:122] Setting up pool2
I0112 16:30:04.612967 25670 net.cpp:129] Top shape: 100 30 47 47 (6627000)
I0112 16:30:04.612975 25670 net.cpp:137] Memory required for data: 1890829200
I0112 16:30:04.612982 25670 layer_factory.hpp:77] Creating layer conv3
I0112 16:30:04.613008 25670 net.cpp:84] Creating Layer conv3
I0112 16:30:04.613019 25670 net.cpp:406] conv3 <- pool2
I0112 16:30:04.613036 25670 net.cpp:380] conv3 -> conv3
I0112 16:30:04.620065 25670 net.cpp:122] Setting up conv3
I0112 16:30:04.620115 25670 net.cpp:129] Top shape: 100 30 43 43 (5547000)
I0112 16:30:04.620128 25670 net.cpp:137] Memory required for data: 1913017200
I0112 16:30:04.620149 25670 layer_factory.hpp:77] Creating layer relu3
I0112 16:30:04.620164 25670 net.cpp:84] Creating Layer relu3
I0112 16:30:04.620174 25670 net.cpp:406] relu3 <- conv3
I0112 16:30:04.620191 25670 net.cpp:367] relu3 -> conv3 (in-place)
I0112 16:30:04.621877 25670 net.cpp:122] Setting up relu3
I0112 16:30:04.621909 25670 net.cpp:129] Top shape: 100 30 43 43 (5547000)
I0112 16:30:04.621917 25670 net.cpp:137] Memory required for data: 1935205200
I0112 16:30:04.621928 25670 layer_factory.hpp:77] Creating layer norm3
I0112 16:30:04.621947 25670 net.cpp:84] Creating Layer norm3
I0112 16:30:04.621955 25670 net.cpp:406] norm3 <- conv3
I0112 16:30:04.621969 25670 net.cpp:380] norm3 -> norm3
I0112 16:30:04.622401 25670 net.cpp:122] Setting up norm3
I0112 16:30:04.622427 25670 net.cpp:129] Top shape: 100 30 43 43 (5547000)
I0112 16:30:04.622436 25670 net.cpp:137] Memory required for data: 1957393200
I0112 16:30:04.622443 25670 layer_factory.hpp:77] Creating layer pool3
I0112 16:30:04.622458 25670 net.cpp:84] Creating Layer pool3
I0112 16:30:04.622467 25670 net.cpp:406] pool3 <- norm3
I0112 16:30:04.622478 25670 net.cpp:380] pool3 -> pool3
I0112 16:30:04.622563 25670 net.cpp:122] Setting up pool3
I0112 16:30:04.622581 25670 net.cpp:129] Top shape: 100 30 21 21 (1323000)
I0112 16:30:04.622588 25670 net.cpp:137] Memory required for data: 1962685200
I0112 16:30:04.622596 25670 layer_factory.hpp:77] Creating layer conv4
I0112 16:30:04.622617 25670 net.cpp:84] Creating Layer conv4
I0112 16:30:04.622627 25670 net.cpp:406] conv4 <- pool3
I0112 16:30:04.622642 25670 net.cpp:380] conv4 -> conv4
I0112 16:30:04.626101 25670 net.cpp:122] Setting up conv4
I0112 16:30:04.626138 25670 net.cpp:129] Top shape: 100 50 17 17 (1445000)
I0112 16:30:04.626149 25670 net.cpp:137] Memory required for data: 1968465200
I0112 16:30:04.626174 25670 layer_factory.hpp:77] Creating layer relu4
I0112 16:30:04.626205 25670 net.cpp:84] Creating Layer relu4
I0112 16:30:04.626215 25670 net.cpp:406] relu4 <- conv4
I0112 16:30:04.626229 25670 net.cpp:367] relu4 -> conv4 (in-place)
I0112 16:30:04.626598 25670 net.cpp:122] Setting up relu4
I0112 16:30:04.626618 25670 net.cpp:129] Top shape: 100 50 17 17 (1445000)
I0112 16:30:04.626626 25670 net.cpp:137] Memory required for data: 1974245200
I0112 16:30:04.626634 25670 layer_factory.hpp:77] Creating layer norm4
I0112 16:30:04.626655 25670 net.cpp:84] Creating Layer norm4
I0112 16:30:04.626664 25670 net.cpp:406] norm4 <- conv4
I0112 16:30:04.626677 25670 net.cpp:380] norm4 -> norm4
I0112 16:30:04.627096 25670 net.cpp:122] Setting up norm4
I0112 16:30:04.627120 25670 net.cpp:129] Top shape: 100 50 17 17 (1445000)
I0112 16:30:04.627127 25670 net.cpp:137] Memory required for data: 1980025200
I0112 16:30:04.627135 25670 layer_factory.hpp:77] Creating layer pool4
I0112 16:30:04.627148 25670 net.cpp:84] Creating Layer pool4
I0112 16:30:04.627156 25670 net.cpp:406] pool4 <- norm4
I0112 16:30:04.627168 25670 net.cpp:380] pool4 -> pool4
I0112 16:30:04.627249 25670 net.cpp:122] Setting up pool4
I0112 16:30:04.627265 25670 net.cpp:129] Top shape: 100 50 8 8 (320000)
I0112 16:30:04.627272 25670 net.cpp:137] Memory required for data: 1981305200
I0112 16:30:04.627280 25670 layer_factory.hpp:77] Creating layer ip1
I0112 16:30:04.627298 25670 net.cpp:84] Creating Layer ip1
I0112 16:30:04.627308 25670 net.cpp:406] ip1 <- pool4
I0112 16:30:04.627321 25670 net.cpp:380] ip1 -> ip1
I0112 16:30:04.629546 25670 net.cpp:122] Setting up ip1
I0112 16:30:04.629567 25670 net.cpp:129] Top shape: 100 50 (5000)
I0112 16:30:04.629576 25670 net.cpp:137] Memory required for data: 1981325200
I0112 16:30:04.629597 25670 layer_factory.hpp:77] Creating layer relu5
I0112 16:30:04.629609 25670 net.cpp:84] Creating Layer relu5
I0112 16:30:04.629618 25670 net.cpp:406] relu5 <- ip1
I0112 16:30:04.629634 25670 net.cpp:367] relu5 -> ip1 (in-place)
I0112 16:30:04.631299 25670 net.cpp:122] Setting up relu5
I0112 16:30:04.631326 25670 net.cpp:129] Top shape: 100 50 (5000)
I0112 16:30:04.631335 25670 net.cpp:137] Memory required for data: 1981345200
I0112 16:30:04.631345 25670 layer_factory.hpp:77] Creating layer drop5
I0112 16:30:04.631359 25670 net.cpp:84] Creating Layer drop5
I0112 16:30:04.631367 25670 net.cpp:406] drop5 <- ip1
I0112 16:30:04.631383 25670 net.cpp:367] drop5 -> ip1 (in-place)
I0112 16:30:04.631444 25670 net.cpp:122] Setting up drop5
I0112 16:30:04.631458 25670 net.cpp:129] Top shape: 100 50 (5000)
I0112 16:30:04.631464 25670 net.cpp:137] Memory required for data: 1981365200
I0112 16:30:04.631471 25670 layer_factory.hpp:77] Creating layer ip2
I0112 16:30:04.631494 25670 net.cpp:84] Creating Layer ip2
I0112 16:30:04.631502 25670 net.cpp:406] ip2 <- ip1
I0112 16:30:04.631515 25670 net.cpp:380] ip2 -> ip2
I0112 16:30:04.631754 25670 net.cpp:122] Setting up ip2
I0112 16:30:04.631772 25670 net.cpp:129] Top shape: 100 7 (700)
I0112 16:30:04.631778 25670 net.cpp:137] Memory required for data: 1981368000
I0112 16:30:04.631793 25670 layer_factory.hpp:77] Creating layer ip2_ip2_0_split
I0112 16:30:04.631808 25670 net.cpp:84] Creating Layer ip2_ip2_0_split
I0112 16:30:04.631817 25670 net.cpp:406] ip2_ip2_0_split <- ip2
I0112 16:30:04.631829 25670 net.cpp:380] ip2_ip2_0_split -> ip2_ip2_0_split_0
I0112 16:30:04.631852 25670 net.cpp:380] ip2_ip2_0_split -> ip2_ip2_0_split_1
I0112 16:30:04.631930 25670 net.cpp:122] Setting up ip2_ip2_0_split
I0112 16:30:04.631945 25670 net.cpp:129] Top shape: 100 7 (700)
I0112 16:30:04.631954 25670 net.cpp:129] Top shape: 100 7 (700)
I0112 16:30:04.631961 25670 net.cpp:137] Memory required for data: 1981373600
I0112 16:30:04.631968 25670 layer_factory.hpp:77] Creating layer accuracy
I0112 16:30:04.631989 25670 net.cpp:84] Creating Layer accuracy
I0112 16:30:04.631997 25670 net.cpp:406] accuracy <- ip2_ip2_0_split_0
I0112 16:30:04.632007 25670 net.cpp:406] accuracy <- label_mnist_1_split_0
I0112 16:30:04.632019 25670 net.cpp:380] accuracy -> accuracy
…
