…
I0111 15:21:39.318125 28473 net.cpp:294] The NetState phase (0) differed from the phase (1) specified by a rule in layer mnist
I0111 15:21:39.318143 28473 net.cpp:294] The NetState phase (0) differed from the phase (1) specified by a rule in layer accuracy
I0111 15:21:39.318244 28473 net.cpp:51] Initializing net from parameters: 
name: "LeNet"
state {
  phase: TRAIN
  level: 0
  stage: ""
}
layer {
  name: "mnist"
  type: "Data"
  top: "data"
  top: "label"
  include {
    phase: TRAIN
  }
  transform_param {
    scale: 0.00390625
  }
  data_param {
    source: "./data/rail_train_lmdb"
    batch_size: 128
    backend: LMDB
  }
}
layer {
  name: "conv1"
  type: "Convolution"
  bottom: "data"
  top: "conv1"
  param {
    lr_mult: 1
  }
  param {
    lr_mult: 2
  }
  convolution_param {
    num_output: 30
    kernel_size: 5
    stride: 1
    weight_filler {
      type: "xavier"
    }
    bias_filler {
      type: "constant"
    }
  }
}
layer {
  name: "relu1"
  type: "ReLU"
  bottom: "conv1"
  top: "conv1"
}
layer {
  name: "norm1"
  type: "LRN"
  bottom: "conv1"
  top: "norm1"
  lrn_param {
    local_size: 5
    alpha: 0.0001
    beta: 0.75
  }
}
layer {
  name: "pool1"
  type: "Pooling"
  bottom: "norm1"
  top: "pool1"
  pooling_param {
    pool: MAX
    kernel_size: 3
    stride: 2
  }
}
layer {
  name: "conv2"
  type: "Convolution"
  bottom: "pool1"
  top: "conv2"
  param {
    lr_mult: 1
  }
  param {
    lr_mult: 2
  }
  convolution_param {
    num_output: 30
    kernel_size: 5
    stride: 1
    weight_filler {
      type: "xavier"
    }
    bias_filler {
      type: "constant"
    }
  }
}
layer {
  name: "relu2"
  type: "ReLU"
  bottom: "conv2"
  top: "conv2"
}
layer {
  name: "norm2"
  type: "LRN"
  bottom: "conv2"
  top: "norm2"
  lrn_param {
    local_size: 5
    alpha: 0.0001
    beta: 0.75
  }
}
layer {
  name: "pool2"
  type: "Pooling"
  bottom: "norm2"
  top: "pool2"
  pooling_param {
    pool: MAX
    kernel_size: 3
    stride: 2
  }
}
layer {
  name: "conv3"
  type: "Convolution"
  bottom: "pool2"
  top: "conv3"
  param {
    lr_mult: 1
  }
  param {
    lr_mult: 2
  }
  convolution_param {
    num_output: 30
    kernel_size: 5
    stride: 1
    weight_filler {
      type: "xavier"
    }
    bias_filler {
      type: "constant"
    }
  }
}
layer {
  name: "relu3"
  type: "ReLU"
  bottom: "conv3"
  top: "conv3"
}
layer {
  name: "norm3"
  type: "LRN"
  bottom: "conv3"
  top: "norm3"
  lrn_param {
    local_size: 5
    alpha: 0.0001
    beta: 0.75
  }
}
layer {
  name: "pool3"
  type: "Pooling"
  bottom: "norm3"
  top: "pool3"
  pooling_param {
    pool: MAX
    kernel_size: 3
    stride: 2
  }
}
layer {
  name: "conv4"
  type: "Convolution"
  bottom: "pool3"
  top: "conv4"
  param {
    lr_mult: 1
  }
  param {
    lr_mult: 2
  }
  convolution_param {
    num_output: 50
    kernel_size: 5
    stride: 1
    weight_filler {
      type: "xavier"
    }
    bias_filler {
      type: "constant"
    }
  }
}
layer {
  name: "relu4"
  type: "ReLU"
  bottom: "conv4"
  top: "conv4"
}
layer {
  name: "norm4"
  type: "LRN"
  bottom: "conv4"
  top: "norm4"
  lrn_param {
    local_size: 5
    alpha: 0.0001
    beta: 0.75
  }
}
layer {
  name: "pool4"
  type: "Pooling"
  bottom: "norm4"
  top: "pool4"
  pooling_param {
    pool: MAX
    kernel_size: 3
    stride: 2
  }
}
layer {
  name: "ip1"
  type: "InnerProduct"
  bottom: "pool4"
  top: "ip1"
  param {
    lr_mult: 1
  }
  param {
    lr_mult: 2
  }
  inner_product_param {
    num_output: 50
    weight_filler {
      type: "xavier"
    }
    bias_filler {
      type: "constant"
    }
  }
}
layer {
  name: "relu5"
  type: "ReLU"
  bottom: "ip1"
  top: "ip1"
}
layer {
  name: "drop5"
  type: "Dropout"
  bottom: "ip1"
  top: "ip1"
  dropout_param {
    dropout_ratio: 0.5
  }
}
layer {
  name: "ip2"
  type: "InnerProduct"
  bottom: "ip1"
  top: "ip2"
  param {
    lr_mult: 1
  }
  param {
    lr_mult: 2
  }
  inner_product_param {
    num_output: 7
    weight_filler {
      type: "xavier"
    }
    bias_filler {
      type: "constant"
    }
  }
}
layer {
  name: "loss"
  type: "SoftmaxWithLoss"
  bottom: "ip2"
  bottom: "label"
  top: "loss"
}
I0111 15:21:39.318330 28473 layer_factory.hpp:77] Creating layer mnist
I0111 15:21:39.318450 28473 db_lmdb.cpp:35] Opened lmdb ./data/rail_train_lmdb
I0111 15:21:39.318475 28473 net.cpp:84] Creating Layer mnist
I0111 15:21:39.318483 28473 net.cpp:380] mnist -> data
I0111 15:21:39.318505 28473 net.cpp:380] mnist -> label
I0111 15:21:39.319221 28473 data_layer.cpp:45] output data size: 128,3,200,200
I0111 15:21:39.503746 28473 net.cpp:122] Setting up mnist
I0111 15:21:39.503811 28473 net.cpp:129] Top shape: 128 3 200 200 (15360000)
I0111 15:21:39.503821 28473 net.cpp:129] Top shape: 128 (128)
I0111 15:21:39.503826 28473 net.cpp:137] Memory required for data: 61440512
I0111 15:21:39.503842 28473 layer_factory.hpp:77] Creating layer conv1
I0111 15:21:39.503906 28473 net.cpp:84] Creating Layer conv1
I0111 15:21:39.503919 28473 net.cpp:406] conv1 <- data
I0111 15:21:39.503940 28473 net.cpp:380] conv1 -> conv1
I0111 15:21:40.813539 28473 net.cpp:122] Setting up conv1
I0111 15:21:40.813597 28473 net.cpp:129] Top shape: 128 30 196 196 (147517440)
I0111 15:21:40.813604 28473 net.cpp:137] Memory required for data: 651510272
I0111 15:21:40.813639 28473 layer_factory.hpp:77] Creating layer relu1
I0111 15:21:40.813658 28473 net.cpp:84] Creating Layer relu1
I0111 15:21:40.813664 28473 net.cpp:406] relu1 <- conv1
I0111 15:21:40.813673 28473 net.cpp:367] relu1 -> conv1 (in-place)
I0111 15:21:40.813895 28473 net.cpp:122] Setting up relu1
I0111 15:21:40.813907 28473 net.cpp:129] Top shape: 128 30 196 196 (147517440)
I0111 15:21:40.813911 28473 net.cpp:137] Memory required for data: 1241580032
I0111 15:21:40.813917 28473 layer_factory.hpp:77] Creating layer norm1
I0111 15:21:40.813930 28473 net.cpp:84] Creating Layer norm1
I0111 15:21:40.813935 28473 net.cpp:406] norm1 <- conv1
I0111 15:21:40.813941 28473 net.cpp:380] norm1 -> norm1
I0111 15:21:40.814759 28473 net.cpp:122] Setting up norm1
I0111 15:21:40.814776 28473 net.cpp:129] Top shape: 128 30 196 196 (147517440)
I0111 15:21:40.814780 28473 net.cpp:137] Memory required for data: 1831649792
I0111 15:21:40.814785 28473 layer_factory.hpp:77] Creating layer pool1
I0111 15:21:40.814796 28473 net.cpp:84] Creating Layer pool1
I0111 15:21:40.814801 28473 net.cpp:406] pool1 <- norm1
I0111 15:21:40.814807 28473 net.cpp:380] pool1 -> pool1
I0111 15:21:40.814859 28473 net.cpp:122] Setting up pool1
I0111 15:21:40.814869 28473 net.cpp:129] Top shape: 128 30 98 98 (36879360)
I0111 15:21:40.814873 28473 net.cpp:137] Memory required for data: 1979167232
I0111 15:21:40.814877 28473 layer_factory.hpp:77] Creating layer conv2
I0111 15:21:40.814891 28473 net.cpp:84] Creating Layer conv2
I0111 15:21:40.814896 28473 net.cpp:406] conv2 <- pool1
I0111 15:21:40.814903 28473 net.cpp:380] conv2 -> conv2
I0111 15:21:40.818260 28473 net.cpp:122] Setting up conv2
I0111 15:21:40.818279 28473 net.cpp:129] Top shape: 128 30 94 94 (33930240)
I0111 15:21:40.818285 28473 net.cpp:137] Memory required for data: 2114888192
I0111 15:21:40.818296 28473 layer_factory.hpp:77] Creating layer relu2
I0111 15:21:40.818305 28473 net.cpp:84] Creating Layer relu2
I0111 15:21:40.818310 28473 net.cpp:406] relu2 <- conv2
I0111 15:21:40.818316 28473 net.cpp:367] relu2 -> conv2 (in-place)
I0111 15:21:40.819104 28473 net.cpp:122] Setting up relu2
I0111 15:21:40.819133 28473 net.cpp:129] Top shape: 128 30 94 94 (33930240)
I0111 15:21:40.819138 28473 net.cpp:137] Memory required for data: 2250609152
I0111 15:21:40.819144 28473 layer_factory.hpp:77] Creating layer norm2
I0111 15:21:40.819151 28473 net.cpp:84] Creating Layer norm2
I0111 15:21:40.819155 28473 net.cpp:406] norm2 <- conv2
I0111 15:21:40.819162 28473 net.cpp:380] norm2 -> norm2
I0111 15:21:40.819391 28473 net.cpp:122] Setting up norm2
I0111 15:21:40.819402 28473 net.cpp:129] Top shape: 128 30 94 94 (33930240)
I0111 15:21:40.819406 28473 net.cpp:137] Memory required for data: 2386330112
I0111 15:21:40.819411 28473 layer_factory.hpp:77] Creating layer pool2
I0111 15:21:40.819419 28473 net.cpp:84] Creating Layer pool2
I0111 15:21:40.819424 28473 net.cpp:406] pool2 <- norm2
I0111 15:21:40.819430 28473 net.cpp:380] pool2 -> pool2
I0111 15:21:40.819469 28473 net.cpp:122] Setting up pool2
I0111 15:21:40.819478 28473 net.cpp:129] Top shape: 128 30 47 47 (8482560)
I0111 15:21:40.819483 28473 net.cpp:137] Memory required for data: 2420260352
I0111 15:21:40.819486 28473 layer_factory.hpp:77] Creating layer conv3
I0111 15:21:40.819496 28473 net.cpp:84] Creating Layer conv3
I0111 15:21:40.819501 28473 net.cpp:406] conv3 <- pool2
I0111 15:21:40.819507 28473 net.cpp:380] conv3 -> conv3
I0111 15:21:40.821677 28473 net.cpp:122] Setting up conv3
I0111 15:21:40.821696 28473 net.cpp:129] Top shape: 128 30 43 43 (7100160)
I0111 15:21:40.821702 28473 net.cpp:137] Memory required for data: 2448660992
I0111 15:21:40.821712 28473 layer_factory.hpp:77] Creating layer relu3
I0111 15:21:40.821719 28473 net.cpp:84] Creating Layer relu3
I0111 15:21:40.821723 28473 net.cpp:406] relu3 <- conv3
I0111 15:21:40.821730 28473 net.cpp:367] relu3 -> conv3 (in-place)
I0111 15:21:40.822507 28473 net.cpp:122] Setting up relu3
I0111 15:21:40.822522 28473 net.cpp:129] Top shape: 128 30 43 43 (7100160)
I0111 15:21:40.822526 28473 net.cpp:137] Memory required for data: 2477061632
I0111 15:21:40.822531 28473 layer_factory.hpp:77] Creating layer norm3
I0111 15:21:40.822540 28473 net.cpp:84] Creating Layer norm3
I0111 15:21:40.822544 28473 net.cpp:406] norm3 <- conv3
I0111 15:21:40.822551 28473 net.cpp:380] norm3 -> norm3
I0111 15:21:40.822773 28473 net.cpp:122] Setting up norm3
I0111 15:21:40.822784 28473 net.cpp:129] Top shape: 128 30 43 43 (7100160)
I0111 15:21:40.822788 28473 net.cpp:137] Memory required for data: 2505462272
I0111 15:21:40.822793 28473 layer_factory.hpp:77] Creating layer pool3
I0111 15:21:40.822800 28473 net.cpp:84] Creating Layer pool3
I0111 15:21:40.822805 28473 net.cpp:406] pool3 <- norm3
I0111 15:21:40.822810 28473 net.cpp:380] pool3 -> pool3
I0111 15:21:40.822850 28473 net.cpp:122] Setting up pool3
I0111 15:21:40.822857 28473 net.cpp:129] Top shape: 128 30 21 21 (1693440)
I0111 15:21:40.822861 28473 net.cpp:137] Memory required for data: 2512236032
I0111 15:21:40.822865 28473 layer_factory.hpp:77] Creating layer conv4
I0111 15:21:40.822875 28473 net.cpp:84] Creating Layer conv4
I0111 15:21:40.822880 28473 net.cpp:406] conv4 <- pool3
I0111 15:21:40.822886 28473 net.cpp:380] conv4 -> conv4
I0111 15:21:40.826129 28473 net.cpp:122] Setting up conv4
I0111 15:21:40.826144 28473 net.cpp:129] Top shape: 128 50 17 17 (1849600)
I0111 15:21:40.826149 28473 net.cpp:137] Memory required for data: 2519634432
I0111 15:21:40.826155 28473 layer_factory.hpp:77] Creating layer relu4
I0111 15:21:40.826161 28473 net.cpp:84] Creating Layer relu4
I0111 15:21:40.826165 28473 net.cpp:406] relu4 <- conv4
I0111 15:21:40.826170 28473 net.cpp:367] relu4 -> conv4 (in-place)
I0111 15:21:40.826776 28473 net.cpp:122] Setting up relu4
I0111 15:21:40.826788 28473 net.cpp:129] Top shape: 128 50 17 17 (1849600)
I0111 15:21:40.826792 28473 net.cpp:137] Memory required for data: 2527032832
I0111 15:21:40.826795 28473 layer_factory.hpp:77] Creating layer norm4
I0111 15:21:40.826802 28473 net.cpp:84] Creating Layer norm4
I0111 15:21:40.826805 28473 net.cpp:406] norm4 <- conv4
I0111 15:21:40.826815 28473 net.cpp:380] norm4 -> norm4
I0111 15:21:40.827456 28473 net.cpp:122] Setting up norm4
I0111 15:21:40.827468 28473 net.cpp:129] Top shape: 128 50 17 17 (1849600)
I0111 15:21:40.827471 28473 net.cpp:137] Memory required for data: 2534431232
I0111 15:21:40.827476 28473 layer_factory.hpp:77] Creating layer pool4
I0111 15:21:40.827484 28473 net.cpp:84] Creating Layer pool4
I0111 15:21:40.827488 28473 net.cpp:406] pool4 <- norm4
I0111 15:21:40.827493 28473 net.cpp:380] pool4 -> pool4
I0111 15:21:40.827528 28473 net.cpp:122] Setting up pool4
I0111 15:21:40.827535 28473 net.cpp:129] Top shape: 128 50 8 8 (409600)
I0111 15:21:40.827538 28473 net.cpp:137] Memory required for data: 2536069632
I0111 15:21:40.827541 28473 layer_factory.hpp:77] Creating layer ip1
I0111 15:21:40.827550 28473 net.cpp:84] Creating Layer ip1
I0111 15:21:40.827553 28473 net.cpp:406] ip1 <- pool4
I0111 15:21:40.827559 28473 net.cpp:380] ip1 -> ip1
I0111 15:21:40.828951 28473 net.cpp:122] Setting up ip1
I0111 15:21:40.828965 28473 net.cpp:129] Top shape: 128 50 (6400)
I0111 15:21:40.828969 28473 net.cpp:137] Memory required for data: 2536095232
I0111 15:21:40.828981 28473 layer_factory.hpp:77] Creating layer relu5
I0111 15:21:40.828987 28473 net.cpp:84] Creating Layer relu5
I0111 15:21:40.828991 28473 net.cpp:406] relu5 <- ip1
I0111 15:21:40.828999 28473 net.cpp:367] relu5 -> ip1 (in-place)
I0111 15:21:40.829169 28473 net.cpp:122] Setting up relu5
I0111 15:21:40.829177 28473 net.cpp:129] Top shape: 128 50 (6400)
I0111 15:21:40.829180 28473 net.cpp:137] Memory required for data: 2536120832
I0111 15:21:40.829183 28473 layer_factory.hpp:77] Creating layer drop5
I0111 15:21:40.829190 28473 net.cpp:84] Creating Layer drop5
I0111 15:21:40.829192 28473 net.cpp:406] drop5 <- ip1
I0111 15:21:40.829198 28473 net.cpp:367] drop5 -> ip1 (in-place)
I0111 15:21:40.829223 28473 net.cpp:122] Setting up drop5
I0111 15:21:40.829231 28473 net.cpp:129] Top shape: 128 50 (6400)
I0111 15:21:40.829233 28473 net.cpp:137] Memory required for data: 2536146432
I0111 15:21:40.829236 28473 layer_factory.hpp:77] Creating layer ip2
I0111 15:21:40.829243 28473 net.cpp:84] Creating Layer ip2
I0111 15:21:40.829246 28473 net.cpp:406] ip2 <- ip1
I0111 15:21:40.829252 28473 net.cpp:380] ip2 -> ip2
I0111 15:21:40.829349 28473 net.cpp:122] Setting up ip2
I0111 15:21:40.829357 28473 net.cpp:129] Top shape: 128 7 (896)
I0111 15:21:40.829360 28473 net.cpp:137] Memory required for data: 2536150016
I0111 15:21:40.829365 28473 layer_factory.hpp:77] Creating layer loss
I0111 15:21:40.829371 28473 net.cpp:84] Creating Layer loss
I0111 15:21:40.829375 28473 net.cpp:406] loss <- ip2
I0111 15:21:40.829380 28473 net.cpp:406] loss <- label
I0111 15:21:40.829385 28473 net.cpp:380] loss -> loss
I0111 15:21:40.829398 28473 layer_factory.hpp:77] Creating layer loss
…
I0111 15:21:40.830464 28473 solver.cpp:172] Creating test net (#0) specified by net file: ./lenet_train_test.prototxt
I0111 15:21:40.830494 28473 net.cpp:294] The NetState phase (1) differed from the phase (0) specified by a rule in layer mnist
I0111 15:21:40.830608 28473 net.cpp:51] Initializing net from parameters: 
name: "LeNet"
state {
  phase: TEST
}
layer {
  name: "mnist"
  type: "Data"
  top: "data"
  top: "label"
  include {
    phase: TEST
  }
  transform_param {
    scale: 0.00390625
  }
  data_param {
    source: "./data/rail_val_lmdb"
    batch_size: 100
    backend: LMDB
  }
}
layer {
  name: "conv1"
  type: "Convolution"
  bottom: "data"
  top: "conv1"
  param {
    lr_mult: 1
  }
  param {
    lr_mult: 2
  }
  convolution_param {
    num_output: 30
    kernel_size: 5
    stride: 1
    weight_filler {
      type: "xavier"
    }
    bias_filler {
      type: "constant"
    }
  }
}
layer {
  name: "relu1"
  type: "ReLU"
  bottom: "conv1"
  top: "conv1"
}
layer {
  name: "norm1"
  type: "LRN"
  bottom: "conv1"
  top: "norm1"
  lrn_param {
    local_size: 5
    alpha: 0.0001
    beta: 0.75
  }
}
layer {
  name: "pool1"
  type: "Pooling"
  bottom: "norm1"
  top: "pool1"
  pooling_param {
    pool: MAX
    kernel_size: 3
    stride: 2
  }
}
layer {
  name: "conv2"
  type: "Convolution"
  bottom: "pool1"
  top: "conv2"
  param {
    lr_mult: 1
  }
  param {
    lr_mult: 2
  }
  convolution_param {
    num_output: 30
    kernel_size: 5
    stride: 1
    weight_filler {
      type: "xavier"
    }
    bias_filler {
      type: "constant"
    }
  }
}
layer {
  name: "relu2"
  type: "ReLU"
  bottom: "conv2"
  top: "conv2"
}
layer {
  name: "norm2"
  type: "LRN"
  bottom: "conv2"
  top: "norm2"
  lrn_param {
    local_size: 5
    alpha: 0.0001
    beta: 0.75
  }
}
layer {
  name: "pool2"
  type: "Pooling"
  bottom: "norm2"
  top: "pool2"
  pooling_param {
    pool: MAX
    kernel_size: 3
    stride: 2
  }
}
layer {
  name: "conv3"
  type: "Convolution"
  bottom: "pool2"
  top: "conv3"
  param {
    lr_mult: 1
  }
  param {
    lr_mult: 2
  }
  convolution_param {
    num_output: 30
    kernel_size: 5
    stride: 1
    weight_filler {
      type: "xavier"
    }
    bias_filler {
      type: "constant"
    }
  }
}
layer {
  name: "relu3"
  type: "ReLU"
  bottom: "conv3"
  top: "conv3"
}
layer {
  name: "norm3"
  type: "LRN"
  bottom: "conv3"
  top: "norm3"
  lrn_param {
    local_size: 5
    alpha: 0.0001
    beta: 0.75
  }
}
layer {
  name: "pool3"
  type: "Pooling"
  bottom: "norm3"
  top: "pool3"
  pooling_param {
    pool: MAX
    kernel_size: 3
    stride: 2
  }
}
layer {
  name: "conv4"
  type: "Convolution"
  bottom: "pool3"
  top: "conv4"
  param {
    lr_mult: 1
  }
  param {
    lr_mult: 2
  }
  convolution_param {
    num_output: 50
    kernel_size: 5
    stride: 1
    weight_filler {
      type: "xavier"
    }
    bias_filler {
      type: "constant"
    }
  }
}
layer {
  name: "relu4"
  type: "ReLU"
  bottom: "conv4"
  top: "conv4"
}
layer {
  name: "norm4"
  type: "LRN"
  bottom: "conv4"
  top: "norm4"
  lrn_param {
    local_size: 5
    alpha: 0.0001
    beta: 0.75
  }
}
layer {
  name: "pool4"
  type: "Pooling"
  bottom: "norm4"
  top: "pool4"
  pooling_param {
    pool: MAX
    kernel_size: 3
    stride: 2
  }
}
layer {
  name: "ip1"
  type: "InnerProduct"
  bottom: "pool4"
  top: "ip1"
  param {
    lr_mult: 1
  }
  param {
    lr_mult: 2
  }
  inner_product_param {
    num_output: 50
    weight_filler {
      type: "xavier"
    }
    bias_filler {
      type: "constant"
    }
  }
}
layer {
  name: "relu5"
  type: "ReLU"
  bottom: "ip1"
  top: "ip1"
}
layer {
  name: "drop5"
  type: "Dropout"
  bottom: "ip1"
  top: "ip1"
  dropout_param {
    dropout_ratio: 0.5
  }
}
layer {
  name: "ip2"
  type: "InnerProduct"
  bottom: "ip1"
  top: "ip2"
  param {
    lr_mult: 1
  }
  param {
    lr_mult: 2
  }
  inner_product_param {
    num_output: 7
    weight_filler {
      type: "xavier"
    }
    bias_filler {
      type: "constant"
    }
  }
}
layer {
  name: "accuracy"
  type: "Accuracy"
  bottom: "ip2"
  bottom: "label"
  top: "accuracy"
  include {
    phase: TEST
  }
}
layer {
  name: "loss"
  type: "SoftmaxWithLoss"
  bottom: "ip2"
  bottom: "label"
  top: "loss"
}
I0111 15:21:40.830704 28473 layer_factory.hpp:77] Creating layer mnist
I0111 15:21:40.830775 28473 db_lmdb.cpp:35] Opened lmdb ./data/rail_val_lmdb
I0111 15:21:40.830797 28473 net.cpp:84] Creating Layer mnist
I0111 15:21:40.830803 28473 net.cpp:380] mnist -> data
I0111 15:21:40.830811 28473 net.cpp:380] mnist -> label
I0111 15:21:40.831027 28473 data_layer.cpp:45] output data size: 100,3,200,200
I0111 15:21:40.946992 28473 net.cpp:122] Setting up mnist
I0111 15:21:40.947042 28473 net.cpp:129] Top shape: 100 3 200 200 (12000000)
I0111 15:21:40.947047 28473 net.cpp:129] Top shape: 100 (100)
I0111 15:21:40.947052 28473 net.cpp:137] Memory required for data: 48000400
I0111 15:21:40.947057 28473 layer_factory.hpp:77] Creating layer label_mnist_1_split
I0111 15:21:40.947070 28473 net.cpp:84] Creating Layer label_mnist_1_split
I0111 15:21:40.947074 28473 net.cpp:406] label_mnist_1_split <- label
I0111 15:21:40.947083 28473 net.cpp:380] label_mnist_1_split -> label_mnist_1_split_0
I0111 15:21:40.947093 28473 net.cpp:380] label_mnist_1_split -> label_mnist_1_split_1
I0111 15:21:40.947243 28473 net.cpp:122] Setting up label_mnist_1_split
I0111 15:21:40.947252 28473 net.cpp:129] Top shape: 100 (100)
I0111 15:21:40.947255 28473 net.cpp:129] Top shape: 100 (100)
I0111 15:21:40.947258 28473 net.cpp:137] Memory required for data: 48001200
I0111 15:21:40.947262 28473 layer_factory.hpp:77] Creating layer conv1
I0111 15:21:40.947275 28473 net.cpp:84] Creating Layer conv1
I0111 15:21:40.947279 28473 net.cpp:406] conv1 <- data
I0111 15:21:40.947286 28473 net.cpp:380] conv1 -> conv1
I0111 15:21:40.949991 28473 net.cpp:122] Setting up conv1
I0111 15:21:40.950007 28473 net.cpp:129] Top shape: 100 30 196 196 (115248000)
I0111 15:21:40.950011 28473 net.cpp:137] Memory required for data: 508993200
I0111 15:21:40.950022 28473 layer_factory.hpp:77] Creating layer relu1
I0111 15:21:40.950031 28473 net.cpp:84] Creating Layer relu1
I0111 15:21:40.950036 28473 net.cpp:406] relu1 <- conv1
I0111 15:21:40.950040 28473 net.cpp:367] relu1 -> conv1 (in-place)
I0111 15:21:40.954157 28473 net.cpp:122] Setting up relu1
I0111 15:21:40.954174 28473 net.cpp:129] Top shape: 100 30 196 196 (115248000)
I0111 15:21:40.954177 28473 net.cpp:137] Memory required for data: 969985200
I0111 15:21:40.954181 28473 layer_factory.hpp:77] Creating layer norm1
I0111 15:21:40.954190 28473 net.cpp:84] Creating Layer norm1
I0111 15:21:40.954193 28473 net.cpp:406] norm1 <- conv1
I0111 15:21:40.954200 28473 net.cpp:380] norm1 -> norm1
I0111 15:21:40.954900 28473 net.cpp:122] Setting up norm1
I0111 15:21:40.954912 28473 net.cpp:129] Top shape: 100 30 196 196 (115248000)
I0111 15:21:40.954916 28473 net.cpp:137] Memory required for data: 1430977200
I0111 15:21:40.954919 28473 layer_factory.hpp:77] Creating layer pool1
I0111 15:21:40.954927 28473 net.cpp:84] Creating Layer pool1
I0111 15:21:40.954931 28473 net.cpp:406] pool1 <- norm1
I0111 15:21:40.954937 28473 net.cpp:380] pool1 -> pool1
I0111 15:21:40.954974 28473 net.cpp:122] Setting up pool1
I0111 15:21:40.954980 28473 net.cpp:129] Top shape: 100 30 98 98 (28812000)
I0111 15:21:40.954983 28473 net.cpp:137] Memory required for data: 1546225200
I0111 15:21:40.955005 28473 layer_factory.hpp:77] Creating layer conv2
I0111 15:21:40.955019 28473 net.cpp:84] Creating Layer conv2
I0111 15:21:40.955024 28473 net.cpp:406] conv2 <- pool1
I0111 15:21:40.955029 28473 net.cpp:380] conv2 -> conv2
I0111 15:21:40.957237 28473 net.cpp:122] Setting up conv2
I0111 15:21:40.957252 28473 net.cpp:129] Top shape: 100 30 94 94 (26508000)
I0111 15:21:40.957257 28473 net.cpp:137] Memory required for data: 1652257200
I0111 15:21:40.957265 28473 layer_factory.hpp:77] Creating layer relu2
I0111 15:21:40.957271 28473 net.cpp:84] Creating Layer relu2
I0111 15:21:40.957274 28473 net.cpp:406] relu2 <- conv2
I0111 15:21:40.957283 28473 net.cpp:367] relu2 -> conv2 (in-place)
I0111 15:21:40.957890 28473 net.cpp:122] Setting up relu2
I0111 15:21:40.957901 28473 net.cpp:129] Top shape: 100 30 94 94 (26508000)
I0111 15:21:40.957904 28473 net.cpp:137] Memory required for data: 1758289200
I0111 15:21:40.957908 28473 layer_factory.hpp:77] Creating layer norm2
I0111 15:21:40.957918 28473 net.cpp:84] Creating Layer norm2
I0111 15:21:40.957922 28473 net.cpp:406] norm2 <- conv2
I0111 15:21:40.957927 28473 net.cpp:380] norm2 -> norm2
I0111 15:21:40.958120 28473 net.cpp:122] Setting up norm2
I0111 15:21:40.958130 28473 net.cpp:129] Top shape: 100 30 94 94 (26508000)
I0111 15:21:40.958133 28473 net.cpp:137] Memory required for data: 1864321200
I0111 15:21:40.958137 28473 layer_factory.hpp:77] Creating layer pool2
I0111 15:21:40.958144 28473 net.cpp:84] Creating Layer pool2
I0111 15:21:40.958148 28473 net.cpp:406] pool2 <- norm2
I0111 15:21:40.958155 28473 net.cpp:380] pool2 -> pool2
I0111 15:21:40.958190 28473 net.cpp:122] Setting up pool2
I0111 15:21:40.958197 28473 net.cpp:129] Top shape: 100 30 47 47 (6627000)
I0111 15:21:40.958200 28473 net.cpp:137] Memory required for data: 1890829200
I0111 15:21:40.958204 28473 layer_factory.hpp:77] Creating layer conv3
I0111 15:21:40.958211 28473 net.cpp:84] Creating Layer conv3
I0111 15:21:40.958215 28473 net.cpp:406] conv3 <- pool2
I0111 15:21:40.958221 28473 net.cpp:380] conv3 -> conv3
I0111 15:21:40.959940 28473 net.cpp:122] Setting up conv3
I0111 15:21:40.959954 28473 net.cpp:129] Top shape: 100 30 43 43 (5547000)
I0111 15:21:40.959957 28473 net.cpp:137] Memory required for data: 1913017200
I0111 15:21:40.959965 28473 layer_factory.hpp:77] Creating layer relu3
I0111 15:21:40.959972 28473 net.cpp:84] Creating Layer relu3
I0111 15:21:40.959976 28473 net.cpp:406] relu3 <- conv3
I0111 15:21:40.959981 28473 net.cpp:367] relu3 -> conv3 (in-place)
I0111 15:21:40.960602 28473 net.cpp:122] Setting up relu3
I0111 15:21:40.960615 28473 net.cpp:129] Top shape: 100 30 43 43 (5547000)
I0111 15:21:40.960618 28473 net.cpp:137] Memory required for data: 1935205200
I0111 15:21:40.960623 28473 layer_factory.hpp:77] Creating layer norm3
I0111 15:21:40.960629 28473 net.cpp:84] Creating Layer norm3
I0111 15:21:40.960633 28473 net.cpp:406] norm3 <- conv3
I0111 15:21:40.960639 28473 net.cpp:380] norm3 -> norm3
I0111 15:21:40.960826 28473 net.cpp:122] Setting up norm3
I0111 15:21:40.960835 28473 net.cpp:129] Top shape: 100 30 43 43 (5547000)
I0111 15:21:40.960839 28473 net.cpp:137] Memory required for data: 1957393200
I0111 15:21:40.960841 28473 layer_factory.hpp:77] Creating layer pool3
I0111 15:21:40.960846 28473 net.cpp:84] Creating Layer pool3
I0111 15:21:40.960850 28473 net.cpp:406] pool3 <- norm3
I0111 15:21:40.960858 28473 net.cpp:380] pool3 -> pool3
I0111 15:21:40.960893 28473 net.cpp:122] Setting up pool3
I0111 15:21:40.960899 28473 net.cpp:129] Top shape: 100 30 21 21 (1323000)
I0111 15:21:40.960901 28473 net.cpp:137] Memory required for data: 1962685200
I0111 15:21:40.960904 28473 layer_factory.hpp:77] Creating layer conv4
I0111 15:21:40.960914 28473 net.cpp:84] Creating Layer conv4
I0111 15:21:40.960918 28473 net.cpp:406] conv4 <- pool3
I0111 15:21:40.960923 28473 net.cpp:380] conv4 -> conv4
I0111 15:21:40.962719 28473 net.cpp:122] Setting up conv4
I0111 15:21:40.962733 28473 net.cpp:129] Top shape: 100 50 17 17 (1445000)
I0111 15:21:40.962743 28473 net.cpp:137] Memory required for data: 1968465200
I0111 15:21:40.962754 28473 layer_factory.hpp:77] Creating layer relu4
I0111 15:21:40.962760 28473 net.cpp:84] Creating Layer relu4
I0111 15:21:40.962764 28473 net.cpp:406] relu4 <- conv4
I0111 15:21:40.962769 28473 net.cpp:367] relu4 -> conv4 (in-place)
I0111 15:21:40.963377 28473 net.cpp:122] Setting up relu4
I0111 15:21:40.963390 28473 net.cpp:129] Top shape: 100 50 17 17 (1445000)
I0111 15:21:40.963394 28473 net.cpp:137] Memory required for data: 1974245200
I0111 15:21:40.963398 28473 layer_factory.hpp:77] Creating layer norm4
I0111 15:21:40.963407 28473 net.cpp:84] Creating Layer norm4
I0111 15:21:40.963409 28473 net.cpp:406] norm4 <- conv4
I0111 15:21:40.963414 28473 net.cpp:380] norm4 -> norm4
I0111 15:21:40.964047 28473 net.cpp:122] Setting up norm4
I0111 15:21:40.964059 28473 net.cpp:129] Top shape: 100 50 17 17 (1445000)
I0111 15:21:40.964062 28473 net.cpp:137] Memory required for data: 1980025200
I0111 15:21:40.964066 28473 layer_factory.hpp:77] Creating layer pool4
I0111 15:21:40.964073 28473 net.cpp:84] Creating Layer pool4
I0111 15:21:40.964077 28473 net.cpp:406] pool4 <- norm4
I0111 15:21:40.964082 28473 net.cpp:380] pool4 -> pool4
I0111 15:21:40.964120 28473 net.cpp:122] Setting up pool4
I0111 15:21:40.964128 28473 net.cpp:129] Top shape: 100 50 8 8 (320000)
I0111 15:21:40.964130 28473 net.cpp:137] Memory required for data: 1981305200
I0111 15:21:40.964133 28473 layer_factory.hpp:77] Creating layer ip1
I0111 15:21:40.964140 28473 net.cpp:84] Creating Layer ip1
I0111 15:21:40.964143 28473 net.cpp:406] ip1 <- pool4
I0111 15:21:40.964150 28473 net.cpp:380] ip1 -> ip1
I0111 15:21:40.965521 28473 net.cpp:122] Setting up ip1
I0111 15:21:40.965536 28473 net.cpp:129] Top shape: 100 50 (5000)
I0111 15:21:40.965539 28473 net.cpp:137] Memory required for data: 1981325200
I0111 15:21:40.965548 28473 layer_factory.hpp:77] Creating layer relu5
I0111 15:21:40.965553 28473 net.cpp:84] Creating Layer relu5
I0111 15:21:40.965556 28473 net.cpp:406] relu5 <- ip1
I0111 15:21:40.965561 28473 net.cpp:367] relu5 -> ip1 (in-place)
I0111 15:21:40.965730 28473 net.cpp:122] Setting up relu5
I0111 15:21:40.965739 28473 net.cpp:129] Top shape: 100 50 (5000)
I0111 15:21:40.965741 28473 net.cpp:137] Memory required for data: 1981345200
I0111 15:21:40.965744 28473 layer_factory.hpp:77] Creating layer drop5
I0111 15:21:40.965751 28473 net.cpp:84] Creating Layer drop5
I0111 15:21:40.965754 28473 net.cpp:406] drop5 <- ip1
I0111 15:21:40.965760 28473 net.cpp:367] drop5 -> ip1 (in-place)
I0111 15:21:40.965785 28473 net.cpp:122] Setting up drop5
I0111 15:21:40.965791 28473 net.cpp:129] Top shape: 100 50 (5000)
I0111 15:21:40.965795 28473 net.cpp:137] Memory required for data: 1981365200
I0111 15:21:40.965797 28473 layer_factory.hpp:77] Creating layer ip2
I0111 15:21:40.965804 28473 net.cpp:84] Creating Layer ip2
I0111 15:21:40.965808 28473 net.cpp:406] ip2 <- ip1
I0111 15:21:40.965813 28473 net.cpp:380] ip2 -> ip2
I0111 15:21:40.965919 28473 net.cpp:122] Setting up ip2
I0111 15:21:40.965925 28473 net.cpp:129] Top shape: 100 7 (700)
I0111 15:21:40.965929 28473 net.cpp:137] Memory required for data: 1981368000
I0111 15:21:40.965934 28473 layer_factory.hpp:77] Creating layer ip2_ip2_0_split
I0111 15:21:40.965939 28473 net.cpp:84] Creating Layer ip2_ip2_0_split
I0111 15:21:40.965942 28473 net.cpp:406] ip2_ip2_0_split <- ip2
I0111 15:21:40.965947 28473 net.cpp:380] ip2_ip2_0_split -> ip2_ip2_0_split_0
I0111 15:21:40.965955 28473 net.cpp:380] ip2_ip2_0_split -> ip2_ip2_0_split_1
I0111 15:21:40.965987 28473 net.cpp:122] Setting up ip2_ip2_0_split
I0111 15:21:40.965992 28473 net.cpp:129] Top shape: 100 7 (700)
I0111 15:21:40.965998 28473 net.cpp:129] Top shape: 100 7 (700)
I0111 15:21:40.966001 28473 net.cpp:137] Memory required for data: 1981373600
I0111 15:21:40.966003 28473 layer_factory.hpp:77] Creating layer accuracy
I0111 15:21:40.966014 28473 net.cpp:84] Creating Layer accuracy
I0111 15:21:40.966017 28473 net.cpp:406] accuracy <- ip2_ip2_0_split_0
I0111 15:21:40.966027 28473 net.cpp:406] accuracy <- label_mnist_1_split_0
I0111 15:21:40.966037 28473 net.cpp:380] accuracy -> accuracy
…
