…
I0122 11:16:20.067133 11746 net.cpp:294] The NetState phase (0) differed from the phase (1) specified by a rule in layer mnist
I0122 11:16:20.067167 11746 net.cpp:294] The NetState phase (0) differed from the phase (1) specified by a rule in layer accuracy
I0122 11:16:20.067363 11746 net.cpp:51] Initializing net from parameters: 
name: "LeNet"
state {
  phase: TRAIN
  level: 0
  stage: ""
}
layer {
  name: "mnist"
  type: "Data"
  top: "data"
  top: "label"
  include {
    phase: TRAIN
  }
  transform_param {
    scale: 0.00390625
  }
  data_param {
    source: "./data3/rail_train_lmdb"
    batch_size: 128
    backend: LMDB
  }
}
layer {
  name: "conv1"
  type: "Convolution"
  bottom: "data"
  top: "conv1"
  param {
    lr_mult: 1
  }
  param {
    lr_mult: 2
  }
  convolution_param {
    num_output: 6
    kernel_size: 3
    stride: 1
    weight_filler {
      type: "xavier"
    }
    bias_filler {
      type: "constant"
    }
  }
}
layer {
  name: "relu1"
  type: "ReLU"
  bottom: "conv1"
  top: "conv1"
}
layer {
  name: "norm1"
  type: "LRN"
  bottom: "conv1"
  top: "norm1"
  lrn_param {
    local_size: 5
    alpha: 0.0001
    beta: 0.75
  }
}
layer {
  name: "pool1"
  type: "Pooling"
  bottom: "norm1"
  top: "pool1"
  pooling_param {
    pool: MAX
    kernel_size: 3
    stride: 2
  }
}
layer {
  name: "conv2"
  type: "Convolution"
  bottom: "pool1"
  top: "conv2"
  param {
    lr_mult: 1
  }
  param {
    lr_mult: 2
  }
  convolution_param {
    num_output: 16
    kernel_size: 3
    stride: 1
    weight_filler {
      type: "xavier"
    }
    bias_filler {
      type: "constant"
    }
  }
}
layer {
  name: "relu2"
  type: "ReLU"
  bottom: "conv2"
  top: "conv2"
}
layer {
  name: "norm2"
  type: "LRN"
  bottom: "conv2"
  top: "norm2"
  lrn_param {
    local_size: 5
    alpha: 0.0001
    beta: 0.75
  }
}
layer {
  name: "pool2"
  type: "Pooling"
  bottom: "norm2"
  top: "pool2"
  pooling_param {
    pool: MAX
    kernel_size: 3
    stride: 2
  }
}
layer {
  name: "ip1"
  type: "InnerProduct"
  bottom: "pool2"
  top: "ip1"
  param {
    lr_mult: 1
  }
  param {
    lr_mult: 2
  }
  inner_product_param {
    num_output: 120
    weight_filler {
      type: "xavier"
    }
    bias_filler {
      type: "constant"
    }
  }
}
layer {
  name: "relu3"
  type: "ReLU"
  bottom: "ip1"
  top: "ip1"
}
layer {
  name: "drop3"
  type: "Dropout"
  bottom: "ip1"
  top: "ip1"
  dropout_param {
    dropout_ratio: 0.5
  }
}
layer {
  name: "ip2"
  type: "InnerProduct"
  bottom: "ip1"
  top: "ip2"
  param {
    lr_mult: 1
  }
  param {
    lr_mult: 2
  }
  inner_product_param {
    num_output: 84
    weight_filler {
      type: "xavier"
    }
    bias_filler {
      type: "constant"
    }
  }
}
layer {
  name: "relu4"
  type: "ReLU"
  bottom: "ip2"
  top: "ip2"
}
layer {
  name: "drop2"
  type: "Dropout"
  bottom: "ip2"
  top: "ip2"
  dropout_param {
    dropout_ratio: 0.5
  }
}
layer {
  name: "ip3"
  type: "InnerProduct"
  bottom: "ip2"
  top: "ip3"
  param {
    lr_mult: 1
  }
  param {
    lr_mult: 2
  }
  inner_product_param {
    num_output: 7
    weight_filler {
      type: "xavier"
    }
    bias_filler {
      type: "constant"
    }
  }
}
layer {
  name: "loss"
  type: "SoftmaxWithLoss"
  bottom: "ip3"
  bottom: "label"
  top: "loss"
}
I0122 11:16:20.067517 11746 layer_factory.hpp:77] Creating layer mnist
I0122 11:16:20.067749 11746 db_lmdb.cpp:35] Opened lmdb ./data3/rail_train_lmdb
I0122 11:16:20.067819 11746 net.cpp:84] Creating Layer mnist
I0122 11:16:20.067836 11746 net.cpp:380] mnist -> data
I0122 11:16:20.067873 11746 net.cpp:380] mnist -> label
I0122 11:16:20.069823 11746 data_layer.cpp:45] output data size: 128,3,200,200
I0122 11:16:20.259781 11746 net.cpp:122] Setting up mnist
I0122 11:16:20.259845 11746 net.cpp:129] Top shape: 128 3 200 200 (15360000)
I0122 11:16:20.259853 11746 net.cpp:129] Top shape: 128 (128)
I0122 11:16:20.259858 11746 net.cpp:137] Memory required for data: 61440512
I0122 11:16:20.259872 11746 layer_factory.hpp:77] Creating layer conv1
I0122 11:16:20.259908 11746 net.cpp:84] Creating Layer conv1
I0122 11:16:20.259919 11746 net.cpp:406] conv1 <- data
I0122 11:16:20.259940 11746 net.cpp:380] conv1 -> conv1
I0122 11:16:21.292585 11746 net.cpp:122] Setting up conv1
I0122 11:16:21.292639 11746 net.cpp:129] Top shape: 128 6 198 198 (30108672)
I0122 11:16:21.292659 11746 net.cpp:137] Memory required for data: 181875200
I0122 11:16:21.292685 11746 layer_factory.hpp:77] Creating layer relu1
I0122 11:16:21.292698 11746 net.cpp:84] Creating Layer relu1
I0122 11:16:21.292703 11746 net.cpp:406] relu1 <- conv1
I0122 11:16:21.292711 11746 net.cpp:367] relu1 -> conv1 (in-place)
I0122 11:16:21.292879 11746 net.cpp:122] Setting up relu1
I0122 11:16:21.292892 11746 net.cpp:129] Top shape: 128 6 198 198 (30108672)
I0122 11:16:21.292896 11746 net.cpp:137] Memory required for data: 302309888
I0122 11:16:21.292901 11746 layer_factory.hpp:77] Creating layer norm1
I0122 11:16:21.292912 11746 net.cpp:84] Creating Layer norm1
I0122 11:16:21.292914 11746 net.cpp:406] norm1 <- conv1
I0122 11:16:21.292920 11746 net.cpp:380] norm1 -> norm1
I0122 11:16:21.293645 11746 net.cpp:122] Setting up norm1
I0122 11:16:21.293660 11746 net.cpp:129] Top shape: 128 6 198 198 (30108672)
I0122 11:16:21.293664 11746 net.cpp:137] Memory required for data: 422744576
I0122 11:16:21.293668 11746 layer_factory.hpp:77] Creating layer pool1
I0122 11:16:21.293678 11746 net.cpp:84] Creating Layer pool1
I0122 11:16:21.293680 11746 net.cpp:406] pool1 <- norm1
I0122 11:16:21.293687 11746 net.cpp:380] pool1 -> pool1
I0122 11:16:21.293730 11746 net.cpp:122] Setting up pool1
I0122 11:16:21.293740 11746 net.cpp:129] Top shape: 128 6 99 99 (7527168)
I0122 11:16:21.293742 11746 net.cpp:137] Memory required for data: 452853248
I0122 11:16:21.293745 11746 layer_factory.hpp:77] Creating layer conv2
I0122 11:16:21.293759 11746 net.cpp:84] Creating Layer conv2
I0122 11:16:21.293763 11746 net.cpp:406] conv2 <- pool1
I0122 11:16:21.293768 11746 net.cpp:380] conv2 -> conv2
I0122 11:16:21.297312 11746 net.cpp:122] Setting up conv2
I0122 11:16:21.297327 11746 net.cpp:129] Top shape: 128 16 97 97 (19269632)
I0122 11:16:21.297333 11746 net.cpp:137] Memory required for data: 529931776
I0122 11:16:21.297340 11746 layer_factory.hpp:77] Creating layer relu2
I0122 11:16:21.297348 11746 net.cpp:84] Creating Layer relu2
I0122 11:16:21.297353 11746 net.cpp:406] relu2 <- conv2
I0122 11:16:21.297358 11746 net.cpp:367] relu2 -> conv2 (in-place)
I0122 11:16:21.297507 11746 net.cpp:122] Setting up relu2
I0122 11:16:21.297515 11746 net.cpp:129] Top shape: 128 16 97 97 (19269632)
I0122 11:16:21.297518 11746 net.cpp:137] Memory required for data: 607010304
I0122 11:16:21.297523 11746 layer_factory.hpp:77] Creating layer norm2
I0122 11:16:21.297529 11746 net.cpp:84] Creating Layer norm2
I0122 11:16:21.297533 11746 net.cpp:406] norm2 <- conv2
I0122 11:16:21.297539 11746 net.cpp:380] norm2 -> norm2
I0122 11:16:21.297704 11746 net.cpp:122] Setting up norm2
I0122 11:16:21.297713 11746 net.cpp:129] Top shape: 128 16 97 97 (19269632)
I0122 11:16:21.297716 11746 net.cpp:137] Memory required for data: 684088832
I0122 11:16:21.297719 11746 layer_factory.hpp:77] Creating layer pool2
I0122 11:16:21.297729 11746 net.cpp:84] Creating Layer pool2
I0122 11:16:21.297731 11746 net.cpp:406] pool2 <- norm2
I0122 11:16:21.297736 11746 net.cpp:380] pool2 -> pool2
I0122 11:16:21.297766 11746 net.cpp:122] Setting up pool2
I0122 11:16:21.297782 11746 net.cpp:129] Top shape: 128 16 48 48 (4718592)
I0122 11:16:21.297794 11746 net.cpp:137] Memory required for data: 702963200
I0122 11:16:21.297798 11746 layer_factory.hpp:77] Creating layer ip1
I0122 11:16:21.297806 11746 net.cpp:84] Creating Layer ip1
I0122 11:16:21.297809 11746 net.cpp:406] ip1 <- pool2
I0122 11:16:21.297816 11746 net.cpp:380] ip1 -> ip1
I0122 11:16:21.323287 11746 net.cpp:122] Setting up ip1
I0122 11:16:21.323307 11746 net.cpp:129] Top shape: 128 120 (15360)
I0122 11:16:21.323310 11746 net.cpp:137] Memory required for data: 703024640
I0122 11:16:21.323318 11746 layer_factory.hpp:77] Creating layer relu3
I0122 11:16:21.323324 11746 net.cpp:84] Creating Layer relu3
I0122 11:16:21.323328 11746 net.cpp:406] relu3 <- ip1
I0122 11:16:21.323335 11746 net.cpp:367] relu3 -> ip1 (in-place)
I0122 11:16:21.323498 11746 net.cpp:122] Setting up relu3
I0122 11:16:21.323508 11746 net.cpp:129] Top shape: 128 120 (15360)
I0122 11:16:21.323510 11746 net.cpp:137] Memory required for data: 703086080
I0122 11:16:21.323514 11746 layer_factory.hpp:77] Creating layer drop3
I0122 11:16:21.323520 11746 net.cpp:84] Creating Layer drop3
I0122 11:16:21.323524 11746 net.cpp:406] drop3 <- ip1
I0122 11:16:21.323530 11746 net.cpp:367] drop3 -> ip1 (in-place)
I0122 11:16:21.323551 11746 net.cpp:122] Setting up drop3
I0122 11:16:21.323556 11746 net.cpp:129] Top shape: 128 120 (15360)
I0122 11:16:21.323559 11746 net.cpp:137] Memory required for data: 703147520
I0122 11:16:21.323562 11746 layer_factory.hpp:77] Creating layer ip2
I0122 11:16:21.323570 11746 net.cpp:84] Creating Layer ip2
I0122 11:16:21.323575 11746 net.cpp:406] ip2 <- ip1
I0122 11:16:21.323578 11746 net.cpp:380] ip2 -> ip2
I0122 11:16:21.323721 11746 net.cpp:122] Setting up ip2
I0122 11:16:21.323729 11746 net.cpp:129] Top shape: 128 84 (10752)
I0122 11:16:21.323731 11746 net.cpp:137] Memory required for data: 703190528
I0122 11:16:21.323737 11746 layer_factory.hpp:77] Creating layer relu4
I0122 11:16:21.323743 11746 net.cpp:84] Creating Layer relu4
I0122 11:16:21.323747 11746 net.cpp:406] relu4 <- ip2
I0122 11:16:21.323751 11746 net.cpp:367] relu4 -> ip2 (in-place)
I0122 11:16:21.324432 11746 net.cpp:122] Setting up relu4
I0122 11:16:21.324446 11746 net.cpp:129] Top shape: 128 84 (10752)
I0122 11:16:21.324450 11746 net.cpp:137] Memory required for data: 703233536
I0122 11:16:21.324455 11746 layer_factory.hpp:77] Creating layer drop2
I0122 11:16:21.324460 11746 net.cpp:84] Creating Layer drop2
I0122 11:16:21.324463 11746 net.cpp:406] drop2 <- ip2
I0122 11:16:21.324468 11746 net.cpp:367] drop2 -> ip2 (in-place)
I0122 11:16:21.324488 11746 net.cpp:122] Setting up drop2
I0122 11:16:21.324494 11746 net.cpp:129] Top shape: 128 84 (10752)
I0122 11:16:21.324497 11746 net.cpp:137] Memory required for data: 703276544
I0122 11:16:21.324501 11746 layer_factory.hpp:77] Creating layer ip3
I0122 11:16:21.324506 11746 net.cpp:84] Creating Layer ip3
I0122 11:16:21.324509 11746 net.cpp:406] ip3 <- ip2
I0122 11:16:21.324515 11746 net.cpp:380] ip3 -> ip3
I0122 11:16:21.324611 11746 net.cpp:122] Setting up ip3
I0122 11:16:21.324618 11746 net.cpp:129] Top shape: 128 7 (896)
I0122 11:16:21.324621 11746 net.cpp:137] Memory required for data: 703280128
I0122 11:16:21.324630 11746 layer_factory.hpp:77] Creating layer loss
I0122 11:16:21.324640 11746 net.cpp:84] Creating Layer loss
I0122 11:16:21.324642 11746 net.cpp:406] loss <- ip3
I0122 11:16:21.324646 11746 net.cpp:406] loss <- label
I0122 11:16:21.324652 11746 net.cpp:380] loss -> loss
I0122 11:16:21.324663 11746 layer_factory.hpp:77] Creating layer loss
…
I0122 11:16:21.325181 11746 solver.cpp:172] Creating test net (#0) specified by net file: ./lenet_origin.prototxt
I0122 11:16:21.325206 11746 net.cpp:294] The NetState phase (1) differed from the phase (0) specified by a rule in layer mnist
I0122 11:16:21.325302 11746 net.cpp:51] Initializing net from parameters: 
name: "LeNet"
state {
  phase: TEST
}
layer {
  name: "mnist"
  type: "Data"
  top: "data"
  top: "label"
  include {
    phase: TEST
  }
  transform_param {
    scale: 0.00390625
  }
  data_param {
    source: "./data3/rail_val_lmdb"
    batch_size: 100
    backend: LMDB
  }
}
layer {
  name: "conv1"
  type: "Convolution"
  bottom: "data"
  top: "conv1"
  param {
    lr_mult: 1
  }
  param {
    lr_mult: 2
  }
  convolution_param {
    num_output: 6
    kernel_size: 3
    stride: 1
    weight_filler {
      type: "xavier"
    }
    bias_filler {
      type: "constant"
    }
  }
}
layer {
  name: "relu1"
  type: "ReLU"
  bottom: "conv1"
  top: "conv1"
}
layer {
  name: "norm1"
  type: "LRN"
  bottom: "conv1"
  top: "norm1"
  lrn_param {
    local_size: 5
    alpha: 0.0001
    beta: 0.75
  }
}
layer {
  name: "pool1"
  type: "Pooling"
  bottom: "norm1"
  top: "pool1"
  pooling_param {
    pool: MAX
    kernel_size: 3
    stride: 2
  }
}
layer {
  name: "conv2"
  type: "Convolution"
  bottom: "pool1"
  top: "conv2"
  param {
    lr_mult: 1
  }
  param {
    lr_mult: 2
  }
  convolution_param {
    num_output: 16
    kernel_size: 3
    stride: 1
    weight_filler {
      type: "xavier"
    }
    bias_filler {
      type: "constant"
    }
  }
}
layer {
  name: "relu2"
  type: "ReLU"
  bottom: "conv2"
  top: "conv2"
}
layer {
  name: "norm2"
  type: "LRN"
  bottom: "conv2"
  top: "norm2"
  lrn_param {
    local_size: 5
    alpha: 0.0001
    beta: 0.75
  }
}
layer {
  name: "pool2"
  type: "Pooling"
  bottom: "norm2"
  top: "pool2"
  pooling_param {
    pool: MAX
    kernel_size: 3
    stride: 2
  }
}
layer {
  name: "ip1"
  type: "InnerProduct"
  bottom: "pool2"
  top: "ip1"
  param {
    lr_mult: 1
  }
  param {
    lr_mult: 2
  }
  inner_product_param {
    num_output: 120
    weight_filler {
      type: "xavier"
    }
    bias_filler {
      type: "constant"
    }
  }
}
layer {
  name: "relu3"
  type: "ReLU"
  bottom: "ip1"
  top: "ip1"
}
layer {
  name: "drop3"
  type: "Dropout"
  bottom: "ip1"
  top: "ip1"
  dropout_param {
    dropout_ratio: 0.5
  }
}
layer {
  name: "ip2"
  type: "InnerProduct"
  bottom: "ip1"
  top: "ip2"
  param {
    lr_mult: 1
  }
  param {
    lr_mult: 2
  }
  inner_product_param {
    num_output: 84
    weight_filler {
      type: "xavier"
    }
    bias_filler {
      type: "constant"
    }
  }
}
layer {
  name: "relu4"
  type: "ReLU"
  bottom: "ip2"
  top: "ip2"
}
layer {
  name: "drop2"
  type: "Dropout"
  bottom: "ip2"
  top: "ip2"
  dropout_param {
    dropout_ratio: 0.5
  }
}
layer {
  name: "ip3"
  type: "InnerProduct"
  bottom: "ip2"
  top: "ip3"
  param {
    lr_mult: 1
  }
  param {
    lr_mult: 2
  }
  inner_product_param {
    num_output: 7
    weight_filler {
      type: "xavier"
    }
    bias_filler {
      type: "constant"
    }
  }
}
layer {
  name: "accuracy"
  type: "Accuracy"
  bottom: "ip3"
  bottom: "label"
  top: "accuracy"
  include {
    phase: TEST
  }
}
layer {
  name: "loss"
  type: "SoftmaxWithLoss"
  bottom: "ip3"
  bottom: "label"
  top: "loss"
}
I0122 11:16:21.325382 11746 layer_factory.hpp:77] Creating layer mnist
I0122 11:16:21.325444 11746 db_lmdb.cpp:35] Opened lmdb ./data3/rail_val_lmdb
I0122 11:16:21.325467 11746 net.cpp:84] Creating Layer mnist
I0122 11:16:21.325472 11746 net.cpp:380] mnist -> data
I0122 11:16:21.325479 11746 net.cpp:380] mnist -> label
I0122 11:16:21.325678 11746 data_layer.cpp:45] output data size: 100,3,200,200
I0122 11:16:21.438319 11746 net.cpp:122] Setting up mnist
I0122 11:16:21.438374 11746 net.cpp:129] Top shape: 100 3 200 200 (12000000)
I0122 11:16:21.438395 11746 net.cpp:129] Top shape: 100 (100)
I0122 11:16:21.438400 11746 net.cpp:137] Memory required for data: 48000400
I0122 11:16:21.438406 11746 layer_factory.hpp:77] Creating layer label_mnist_1_split
I0122 11:16:21.438422 11746 net.cpp:84] Creating Layer label_mnist_1_split
I0122 11:16:21.438426 11746 net.cpp:406] label_mnist_1_split <- label
I0122 11:16:21.438436 11746 net.cpp:380] label_mnist_1_split -> label_mnist_1_split_0
I0122 11:16:21.438447 11746 net.cpp:380] label_mnist_1_split -> label_mnist_1_split_1
I0122 11:16:21.438660 11746 net.cpp:122] Setting up label_mnist_1_split
I0122 11:16:21.438732 11746 net.cpp:129] Top shape: 100 (100)
I0122 11:16:21.438745 11746 net.cpp:129] Top shape: 100 (100)
I0122 11:16:21.438751 11746 net.cpp:137] Memory required for data: 48001200
I0122 11:16:21.438762 11746 layer_factory.hpp:77] Creating layer conv1
I0122 11:16:21.438796 11746 net.cpp:84] Creating Layer conv1
I0122 11:16:21.438808 11746 net.cpp:406] conv1 <- data
I0122 11:16:21.438827 11746 net.cpp:380] conv1 -> conv1
I0122 11:16:21.445538 11746 net.cpp:122] Setting up conv1
I0122 11:16:21.445572 11746 net.cpp:129] Top shape: 100 6 198 198 (23522400)
I0122 11:16:21.445583 11746 net.cpp:137] Memory required for data: 142090800
I0122 11:16:21.445608 11746 layer_factory.hpp:77] Creating layer relu1
I0122 11:16:21.445623 11746 net.cpp:84] Creating Layer relu1
I0122 11:16:21.445632 11746 net.cpp:406] relu1 <- conv1
I0122 11:16:21.445649 11746 net.cpp:367] relu1 -> conv1 (in-place)
I0122 11:16:21.446004 11746 net.cpp:122] Setting up relu1
I0122 11:16:21.446023 11746 net.cpp:129] Top shape: 100 6 198 198 (23522400)
I0122 11:16:21.446032 11746 net.cpp:137] Memory required for data: 236180400
I0122 11:16:21.446041 11746 layer_factory.hpp:77] Creating layer norm1
I0122 11:16:21.446061 11746 net.cpp:84] Creating Layer norm1
I0122 11:16:21.446069 11746 net.cpp:406] norm1 <- conv1
I0122 11:16:21.446084 11746 net.cpp:380] norm1 -> norm1
I0122 11:16:21.446490 11746 net.cpp:122] Setting up norm1
I0122 11:16:21.446507 11746 net.cpp:129] Top shape: 100 6 198 198 (23522400)
I0122 11:16:21.446516 11746 net.cpp:137] Memory required for data: 330270000
I0122 11:16:21.446523 11746 layer_factory.hpp:77] Creating layer pool1
I0122 11:16:21.446539 11746 net.cpp:84] Creating Layer pool1
I0122 11:16:21.446547 11746 net.cpp:406] pool1 <- norm1
I0122 11:16:21.446561 11746 net.cpp:380] pool1 -> pool1
I0122 11:16:21.446637 11746 net.cpp:122] Setting up pool1
I0122 11:16:21.446655 11746 net.cpp:129] Top shape: 100 6 99 99 (5880600)
I0122 11:16:21.446663 11746 net.cpp:137] Memory required for data: 353792400
I0122 11:16:21.446671 11746 layer_factory.hpp:77] Creating layer conv2
I0122 11:16:21.446694 11746 net.cpp:84] Creating Layer conv2
I0122 11:16:21.446704 11746 net.cpp:406] conv2 <- pool1
I0122 11:16:21.446717 11746 net.cpp:380] conv2 -> conv2
I0122 11:16:21.449714 11746 net.cpp:122] Setting up conv2
I0122 11:16:21.449748 11746 net.cpp:129] Top shape: 100 16 97 97 (15054400)
I0122 11:16:21.449759 11746 net.cpp:137] Memory required for data: 414010000
I0122 11:16:21.449791 11746 layer_factory.hpp:77] Creating layer relu2
I0122 11:16:21.449823 11746 net.cpp:84] Creating Layer relu2
I0122 11:16:21.449833 11746 net.cpp:406] relu2 <- conv2
I0122 11:16:21.449851 11746 net.cpp:367] relu2 -> conv2 (in-place)
I0122 11:16:21.451519 11746 net.cpp:122] Setting up relu2
I0122 11:16:21.451550 11746 net.cpp:129] Top shape: 100 16 97 97 (15054400)
I0122 11:16:21.451558 11746 net.cpp:137] Memory required for data: 474227600
I0122 11:16:21.451568 11746 layer_factory.hpp:77] Creating layer norm2
I0122 11:16:21.451589 11746 net.cpp:84] Creating Layer norm2
I0122 11:16:21.451598 11746 net.cpp:406] norm2 <- conv2
I0122 11:16:21.451611 11746 net.cpp:380] norm2 -> norm2
I0122 11:16:21.452040 11746 net.cpp:122] Setting up norm2
I0122 11:16:21.452060 11746 net.cpp:129] Top shape: 100 16 97 97 (15054400)
I0122 11:16:21.452069 11746 net.cpp:137] Memory required for data: 534445200
I0122 11:16:21.452076 11746 layer_factory.hpp:77] Creating layer pool2
I0122 11:16:21.452090 11746 net.cpp:84] Creating Layer pool2
I0122 11:16:21.452100 11746 net.cpp:406] pool2 <- norm2
I0122 11:16:21.452113 11746 net.cpp:380] pool2 -> pool2
I0122 11:16:21.452189 11746 net.cpp:122] Setting up pool2
I0122 11:16:21.452205 11746 net.cpp:129] Top shape: 100 16 48 48 (3686400)
I0122 11:16:21.452214 11746 net.cpp:137] Memory required for data: 549190800
I0122 11:16:21.452220 11746 layer_factory.hpp:77] Creating layer ip1
I0122 11:16:21.452239 11746 net.cpp:84] Creating Layer ip1
I0122 11:16:21.452250 11746 net.cpp:406] ip1 <- pool2
I0122 11:16:21.452265 11746 net.cpp:380] ip1 -> ip1
I0122 11:16:21.506598 11746 net.cpp:122] Setting up ip1
I0122 11:16:21.506654 11746 net.cpp:129] Top shape: 100 120 (12000)
I0122 11:16:21.506661 11746 net.cpp:137] Memory required for data: 549238800
I0122 11:16:21.506686 11746 layer_factory.hpp:77] Creating layer relu3
I0122 11:16:21.506702 11746 net.cpp:84] Creating Layer relu3
I0122 11:16:21.506711 11746 net.cpp:406] relu3 <- ip1
I0122 11:16:21.506722 11746 net.cpp:367] relu3 -> ip1 (in-place)
I0122 11:16:21.507072 11746 net.cpp:122] Setting up relu3
I0122 11:16:21.507086 11746 net.cpp:129] Top shape: 100 120 (12000)
I0122 11:16:21.507091 11746 net.cpp:137] Memory required for data: 549286800
I0122 11:16:21.507098 11746 layer_factory.hpp:77] Creating layer drop3
I0122 11:16:21.507110 11746 net.cpp:84] Creating Layer drop3
I0122 11:16:21.507117 11746 net.cpp:406] drop3 <- ip1
I0122 11:16:21.507128 11746 net.cpp:367] drop3 -> ip1 (in-place)
I0122 11:16:21.507174 11746 net.cpp:122] Setting up drop3
I0122 11:16:21.507182 11746 net.cpp:129] Top shape: 100 120 (12000)
I0122 11:16:21.507187 11746 net.cpp:137] Memory required for data: 549334800
I0122 11:16:21.507194 11746 layer_factory.hpp:77] Creating layer ip2
I0122 11:16:21.507208 11746 net.cpp:84] Creating Layer ip2
I0122 11:16:21.507215 11746 net.cpp:406] ip2 <- ip1
I0122 11:16:21.507225 11746 net.cpp:380] ip2 -> ip2
I0122 11:16:21.507514 11746 net.cpp:122] Setting up ip2
I0122 11:16:21.507530 11746 net.cpp:129] Top shape: 100 84 (8400)
I0122 11:16:21.507536 11746 net.cpp:137] Memory required for data: 549368400
I0122 11:16:21.507546 11746 layer_factory.hpp:77] Creating layer relu4
I0122 11:16:21.507555 11746 net.cpp:84] Creating Layer relu4
I0122 11:16:21.507561 11746 net.cpp:406] relu4 <- ip2
I0122 11:16:21.507570 11746 net.cpp:367] relu4 -> ip2 (in-place)
I0122 11:16:21.507835 11746 net.cpp:122] Setting up relu4
I0122 11:16:21.507850 11746 net.cpp:129] Top shape: 100 84 (8400)
I0122 11:16:21.507858 11746 net.cpp:137] Memory required for data: 549402000
I0122 11:16:21.507863 11746 layer_factory.hpp:77] Creating layer drop2
I0122 11:16:21.507871 11746 net.cpp:84] Creating Layer drop2
I0122 11:16:21.507877 11746 net.cpp:406] drop2 <- ip2
I0122 11:16:21.507886 11746 net.cpp:367] drop2 -> ip2 (in-place)
I0122 11:16:21.507925 11746 net.cpp:122] Setting up drop2
I0122 11:16:21.507935 11746 net.cpp:129] Top shape: 100 84 (8400)
I0122 11:16:21.507941 11746 net.cpp:137] Memory required for data: 549435600
I0122 11:16:21.507957 11746 layer_factory.hpp:77] Creating layer ip3
I0122 11:16:21.507985 11746 net.cpp:84] Creating Layer ip3
I0122 11:16:21.507992 11746 net.cpp:406] ip3 <- ip2
I0122 11:16:21.508003 11746 net.cpp:380] ip3 -> ip3
I0122 11:16:21.508188 11746 net.cpp:122] Setting up ip3
I0122 11:16:21.508199 11746 net.cpp:129] Top shape: 100 7 (700)
I0122 11:16:21.508204 11746 net.cpp:137] Memory required for data: 549438400
I0122 11:16:21.508219 11746 layer_factory.hpp:77] Creating layer ip3_ip3_0_split
I0122 11:16:21.508230 11746 net.cpp:84] Creating Layer ip3_ip3_0_split
I0122 11:16:21.508236 11746 net.cpp:406] ip3_ip3_0_split <- ip3
I0122 11:16:21.508247 11746 net.cpp:380] ip3_ip3_0_split -> ip3_ip3_0_split_0
I0122 11:16:21.508258 11746 net.cpp:380] ip3_ip3_0_split -> ip3_ip3_0_split_1
I0122 11:16:21.508313 11746 net.cpp:122] Setting up ip3_ip3_0_split
I0122 11:16:21.508325 11746 net.cpp:129] Top shape: 100 7 (700)
I0122 11:16:21.508332 11746 net.cpp:129] Top shape: 100 7 (700)
I0122 11:16:21.508337 11746 net.cpp:137] Memory required for data: 549444000
I0122 11:16:21.508343 11746 layer_factory.hpp:77] Creating layer accuracy
I0122 11:16:21.508354 11746 net.cpp:84] Creating Layer accuracy
I0122 11:16:21.508360 11746 net.cpp:406] accuracy <- ip3_ip3_0_split_0
I0122 11:16:21.508368 11746 net.cpp:406] accuracy <- label_mnist_1_split_0
I0122 11:16:21.508380 11746 net.cpp:380] accuracy -> accuracy
…
