…
I0122 09:47:53.179627  8162 net.cpp:294] The NetState phase (0) differed from the phase (1) specified by a rule in layer mnist
I0122 09:47:53.179646  8162 net.cpp:294] The NetState phase (0) differed from the phase (1) specified by a rule in layer accuracy
I0122 09:47:53.179718  8162 net.cpp:51] Initializing net from parameters: 
name: "LeNet"
state {
  phase: TRAIN
  level: 0
  stage: ""
}
layer {
  name: "mnist"
  type: "Data"
  top: "data"
  top: "label"
  include {
    phase: TRAIN
  }
  transform_param {
    scale: 0.00390625
  }
  data_param {
    source: "./data3/rail_train_lmdb"
    batch_size: 128
    backend: LMDB
  }
}
layer {
  name: "conv1"
  type: "Convolution"
  bottom: "data"
  top: "conv1"
  param {
    lr_mult: 1
  }
  param {
    lr_mult: 2
  }
  convolution_param {
    num_output: 20
    kernel_size: 5
    stride: 1
    weight_filler {
      type: "xavier"
    }
    bias_filler {
      type: "constant"
    }
  }
}
layer {
  name: "pool1"
  type: "Pooling"
  bottom: "conv1"
  top: "pool1"
  pooling_param {
    pool: MAX
    kernel_size: 2
    stride: 2
  }
}
layer {
  name: "conv2"
  type: "Convolution"
  bottom: "pool1"
  top: "conv2"
  param {
    lr_mult: 1
  }
  param {
    lr_mult: 2
  }
  convolution_param {
    num_output: 50
    kernel_size: 5
    stride: 1
    weight_filler {
      type: "xavier"
    }
    bias_filler {
      type: "constant"
    }
  }
}
layer {
  name: "pool2"
  type: "Pooling"
  bottom: "conv2"
  top: "pool2"
  pooling_param {
    pool: MAX
    kernel_size: 2
    stride: 2
  }
}
layer {
  name: "ip1"
  type: "InnerProduct"
  bottom: "pool2"
  top: "ip1"
  param {
    lr_mult: 1
  }
  param {
    lr_mult: 2
  }
  inner_product_param {
    num_output: 500
    weight_filler {
      type: "xavier"
    }
    bias_filler {
      type: "constant"
    }
  }
}
layer {
  name: "relu1"
  type: "ReLU"
  bottom: "ip1"
  top: "ip1"
}
layer {
  name: "ip2"
  type: "InnerProduct"
  bottom: "ip1"
  top: "ip2"
  param {
    lr_mult: 1
  }
  param {
    lr_mult: 2
  }
  inner_product_param {
    num_output: 7
    weight_filler {
      type: "xavier"
    }
    bias_filler {
      type: "constant"
    }
  }
}
layer {
  name: "loss"
  type: "SoftmaxWithLoss"
  bottom: "ip2"
  bottom: "label"
  top: "loss"
}
I0122 09:47:53.179780  8162 layer_factory.hpp:77] Creating layer mnist
I0122 09:47:53.179950  8162 db_lmdb.cpp:35] Opened lmdb ./data3/rail_train_lmdb
I0122 09:47:53.179988  8162 net.cpp:84] Creating Layer mnist
I0122 09:47:53.179999  8162 net.cpp:380] mnist -> data
I0122 09:47:53.180027  8162 net.cpp:380] mnist -> label
I0122 09:47:53.181247  8162 data_layer.cpp:45] output data size: 128,3,200,200
I0122 09:47:53.332404  8162 net.cpp:122] Setting up mnist
I0122 09:47:53.332454  8162 net.cpp:129] Top shape: 128 3 200 200 (15360000)
I0122 09:47:53.332461  8162 net.cpp:129] Top shape: 128 (128)
I0122 09:47:53.332465  8162 net.cpp:137] Memory required for data: 61440512
I0122 09:47:53.332479  8162 layer_factory.hpp:77] Creating layer conv1
I0122 09:47:53.332520  8162 net.cpp:84] Creating Layer conv1
I0122 09:47:53.332530  8162 net.cpp:406] conv1 <- data
I0122 09:47:53.332545  8162 net.cpp:380] conv1 -> conv1
I0122 09:47:54.372851  8162 net.cpp:122] Setting up conv1
I0122 09:47:54.372905  8162 net.cpp:129] Top shape: 128 20 196 196 (98344960)
I0122 09:47:54.372912  8162 net.cpp:137] Memory required for data: 454820352
I0122 09:47:54.372956  8162 layer_factory.hpp:77] Creating layer pool1
I0122 09:47:54.372974  8162 net.cpp:84] Creating Layer pool1
I0122 09:47:54.372980  8162 net.cpp:406] pool1 <- conv1
I0122 09:47:54.372988  8162 net.cpp:380] pool1 -> pool1
I0122 09:47:54.373042  8162 net.cpp:122] Setting up pool1
I0122 09:47:54.373050  8162 net.cpp:129] Top shape: 128 20 98 98 (24586240)
I0122 09:47:54.373054  8162 net.cpp:137] Memory required for data: 553165312
I0122 09:47:54.373059  8162 layer_factory.hpp:77] Creating layer conv2
I0122 09:47:54.373071  8162 net.cpp:84] Creating Layer conv2
I0122 09:47:54.373075  8162 net.cpp:406] conv2 <- pool1
I0122 09:47:54.373081  8162 net.cpp:380] conv2 -> conv2
I0122 09:47:54.376039  8162 net.cpp:122] Setting up conv2
I0122 09:47:54.376056  8162 net.cpp:129] Top shape: 128 50 94 94 (56550400)
I0122 09:47:54.376061  8162 net.cpp:137] Memory required for data: 779366912
I0122 09:47:54.376072  8162 layer_factory.hpp:77] Creating layer pool2
I0122 09:47:54.376081  8162 net.cpp:84] Creating Layer pool2
I0122 09:47:54.376085  8162 net.cpp:406] pool2 <- conv2
I0122 09:47:54.376091  8162 net.cpp:380] pool2 -> pool2
I0122 09:47:54.376137  8162 net.cpp:122] Setting up pool2
I0122 09:47:54.376144  8162 net.cpp:129] Top shape: 128 50 47 47 (14137600)
I0122 09:47:54.376148  8162 net.cpp:137] Memory required for data: 835917312
I0122 09:47:54.376152  8162 layer_factory.hpp:77] Creating layer ip1
I0122 09:47:54.376161  8162 net.cpp:84] Creating Layer ip1
I0122 09:47:54.376166  8162 net.cpp:406] ip1 <- pool2
I0122 09:47:54.376173  8162 net.cpp:380] ip1 -> ip1
I0122 09:47:54.756884  8162 net.cpp:122] Setting up ip1
I0122 09:47:54.756933  8162 net.cpp:129] Top shape: 128 500 (64000)
I0122 09:47:54.756938  8162 net.cpp:137] Memory required for data: 836173312
I0122 09:47:54.756958  8162 layer_factory.hpp:77] Creating layer relu1
I0122 09:47:54.756971  8162 net.cpp:84] Creating Layer relu1
I0122 09:47:54.756978  8162 net.cpp:406] relu1 <- ip1
I0122 09:47:54.756988  8162 net.cpp:367] relu1 -> ip1 (in-place)
I0122 09:47:54.757239  8162 net.cpp:122] Setting up relu1
I0122 09:47:54.757251  8162 net.cpp:129] Top shape: 128 500 (64000)
I0122 09:47:54.757253  8162 net.cpp:137] Memory required for data: 836429312
I0122 09:47:54.757258  8162 layer_factory.hpp:77] Creating layer ip2
I0122 09:47:54.757269  8162 net.cpp:84] Creating Layer ip2
I0122 09:47:54.757274  8162 net.cpp:406] ip2 <- ip1
I0122 09:47:54.757282  8162 net.cpp:380] ip2 -> ip2
I0122 09:47:54.757421  8162 net.cpp:122] Setting up ip2
I0122 09:47:54.757428  8162 net.cpp:129] Top shape: 128 7 (896)
I0122 09:47:54.757432  8162 net.cpp:137] Memory required for data: 836432896
I0122 09:47:54.757438  8162 layer_factory.hpp:77] Creating layer loss
I0122 09:47:54.757449  8162 net.cpp:84] Creating Layer loss
I0122 09:47:54.757453  8162 net.cpp:406] loss <- ip2
I0122 09:47:54.757457  8162 net.cpp:406] loss <- label
I0122 09:47:54.757464  8162 net.cpp:380] loss -> loss
I0122 09:47:54.757481  8162 layer_factory.hpp:77] Creating layer loss
…
I0122 09:47:54.758679  8162 solver.cpp:172] Creating test net (#0) specified by net file: ./lenet_train_test.prototxt
I0122 09:47:54.758708  8162 net.cpp:294] The NetState phase (1) differed from the phase (0) specified by a rule in layer mnist
I0122 09:47:54.758791  8162 net.cpp:51] Initializing net from parameters: 
name: "LeNet"
state {
  phase: TEST
}
layer {
  name: "mnist"
  type: "Data"
  top: "data"
  top: "label"
  include {
    phase: TEST
  }
  transform_param {
    scale: 0.00390625
  }
  data_param {
    source: "./data3/rail_val_lmdb"
    batch_size: 100
    backend: LMDB
  }
}
layer {
  name: "conv1"
  type: "Convolution"
  bottom: "data"
  top: "conv1"
  param {
    lr_mult: 1
  }
  param {
    lr_mult: 2
  }
  convolution_param {
    num_output: 20
    kernel_size: 5
    stride: 1
    weight_filler {
      type: "xavier"
    }
    bias_filler {
      type: "constant"
    }
  }
}
layer {
  name: "pool1"
  type: "Pooling"
  bottom: "conv1"
  top: "pool1"
  pooling_param {
    pool: MAX
    kernel_size: 2
    stride: 2
  }
}
layer {
  name: "conv2"
  type: "Convolution"
  bottom: "pool1"
  top: "conv2"
  param {
    lr_mult: 1
  }
  param {
    lr_mult: 2
  }
  convolution_param {
    num_output: 50
    kernel_size: 5
    stride: 1
    weight_filler {
      type: "xavier"
    }
    bias_filler {
      type: "constant"
    }
  }
}
layer {
  name: "pool2"
  type: "Pooling"
  bottom: "conv2"
  top: "pool2"
  pooling_param {
    pool: MAX
    kernel_size: 2
    stride: 2
  }
}
layer {
  name: "ip1"
  type: "InnerProduct"
  bottom: "pool2"
  top: "ip1"
  param {
    lr_mult: 1
  }
  param {
    lr_mult: 2
  }
  inner_product_param {
    num_output: 500
    weight_filler {
      type: "xavier"
    }
    bias_filler {
      type: "constant"
    }
  }
}
layer {
  name: "relu1"
  type: "ReLU"
  bottom: "ip1"
  top: "ip1"
}
layer {
  name: "ip2"
  type: "InnerProduct"
  bottom: "ip1"
  top: "ip2"
  param {
    lr_mult: 1
  }
  param {
    lr_mult: 2
  }
  inner_product_param {
    num_output: 7
    weight_filler {
      type: "xavier"
    }
    bias_filler {
      type: "constant"
    }
  }
}
layer {
  name: "accuracy"
  type: "Accuracy"
  bottom: "ip2"
  bottom: "label"
  top: "accuracy"
  include {
    phase: TEST
  }
}
layer {
  name: "loss"
  type: "SoftmaxWithLoss"
  bottom: "ip2"
  bottom: "label"
  top: "loss"
}
I0122 09:47:54.758864  8162 layer_factory.hpp:77] Creating layer mnist
I0122 09:47:54.758937  8162 db_lmdb.cpp:35] Opened lmdb ./data3/rail_val_lmdb
I0122 09:47:54.758963  8162 net.cpp:84] Creating Layer mnist
I0122 09:47:54.758971  8162 net.cpp:380] mnist -> data
I0122 09:47:54.758980  8162 net.cpp:380] mnist -> label
I0122 09:47:54.759207  8162 data_layer.cpp:45] output data size: 100,3,200,200
I0122 09:47:54.879434  8162 net.cpp:122] Setting up mnist
I0122 09:47:54.879494  8162 net.cpp:129] Top shape: 100 3 200 200 (12000000)
I0122 09:47:54.879503  8162 net.cpp:129] Top shape: 100 (100)
I0122 09:47:54.879508  8162 net.cpp:137] Memory required for data: 48000400
I0122 09:47:54.879515  8162 layer_factory.hpp:77] Creating layer label_mnist_1_split
I0122 09:47:54.879534  8162 net.cpp:84] Creating Layer label_mnist_1_split
I0122 09:47:54.879539  8162 net.cpp:406] label_mnist_1_split <- label
I0122 09:47:54.879549  8162 net.cpp:380] label_mnist_1_split -> label_mnist_1_split_0
I0122 09:47:54.879561  8162 net.cpp:380] label_mnist_1_split -> label_mnist_1_split_1
I0122 09:47:54.879874  8162 net.cpp:122] Setting up label_mnist_1_split
I0122 09:47:54.879931  8162 net.cpp:129] Top shape: 100 (100)
I0122 09:47:54.879945  8162 net.cpp:129] Top shape: 100 (100)
I0122 09:47:54.879953  8162 net.cpp:137] Memory required for data: 48001200
I0122 09:47:54.879966  8162 layer_factory.hpp:77] Creating layer conv1
I0122 09:47:54.880000  8162 net.cpp:84] Creating Layer conv1
I0122 09:47:54.880013  8162 net.cpp:406] conv1 <- data
I0122 09:47:54.880033  8162 net.cpp:380] conv1 -> conv1
I0122 09:47:54.885795  8162 net.cpp:122] Setting up conv1
I0122 09:47:54.885854  8162 net.cpp:129] Top shape: 100 20 196 196 (76832000)
I0122 09:47:54.885884  8162 net.cpp:137] Memory required for data: 355329200
I0122 09:47:54.885913  8162 layer_factory.hpp:77] Creating layer pool1
I0122 09:47:54.885932  8162 net.cpp:84] Creating Layer pool1
I0122 09:47:54.885942  8162 net.cpp:406] pool1 <- conv1
I0122 09:47:54.885957  8162 net.cpp:380] pool1 -> pool1
I0122 09:47:54.886051  8162 net.cpp:122] Setting up pool1
I0122 09:47:54.886068  8162 net.cpp:129] Top shape: 100 20 98 98 (19208000)
I0122 09:47:54.886076  8162 net.cpp:137] Memory required for data: 432161200
I0122 09:47:54.886085  8162 layer_factory.hpp:77] Creating layer conv2
I0122 09:47:54.886112  8162 net.cpp:84] Creating Layer conv2
I0122 09:47:54.886121  8162 net.cpp:406] conv2 <- pool1
I0122 09:47:54.886137  8162 net.cpp:380] conv2 -> conv2
I0122 09:47:54.889534  8162 net.cpp:122] Setting up conv2
I0122 09:47:54.889569  8162 net.cpp:129] Top shape: 100 50 94 94 (44180000)
I0122 09:47:54.889580  8162 net.cpp:137] Memory required for data: 608881200
I0122 09:47:54.889600  8162 layer_factory.hpp:77] Creating layer pool2
I0122 09:47:54.889619  8162 net.cpp:84] Creating Layer pool2
I0122 09:47:54.889631  8162 net.cpp:406] pool2 <- conv2
I0122 09:47:54.889645  8162 net.cpp:380] pool2 -> pool2
I0122 09:47:54.889734  8162 net.cpp:122] Setting up pool2
I0122 09:47:54.889750  8162 net.cpp:129] Top shape: 100 50 47 47 (11045000)
I0122 09:47:54.889758  8162 net.cpp:137] Memory required for data: 653061200
I0122 09:47:54.889767  8162 layer_factory.hpp:77] Creating layer ip1
I0122 09:47:54.889782  8162 net.cpp:84] Creating Layer ip1
I0122 09:47:54.889791  8162 net.cpp:406] ip1 <- pool2
I0122 09:47:54.889808  8162 net.cpp:380] ip1 -> ip1
I0122 09:47:55.365890  8162 net.cpp:122] Setting up ip1
I0122 09:47:55.365944  8162 net.cpp:129] Top shape: 100 500 (50000)
I0122 09:47:55.365950  8162 net.cpp:137] Memory required for data: 653261200
I0122 09:47:55.365977  8162 layer_factory.hpp:77] Creating layer relu1
I0122 09:47:55.365991  8162 net.cpp:84] Creating Layer relu1
I0122 09:47:55.365998  8162 net.cpp:406] relu1 <- ip1
I0122 09:47:55.366010  8162 net.cpp:367] relu1 -> ip1 (in-place)
I0122 09:47:55.367146  8162 net.cpp:122] Setting up relu1
I0122 09:47:55.367162  8162 net.cpp:129] Top shape: 100 500 (50000)
I0122 09:47:55.367167  8162 net.cpp:137] Memory required for data: 653461200
I0122 09:47:55.367172  8162 layer_factory.hpp:77] Creating layer ip2
I0122 09:47:55.367188  8162 net.cpp:84] Creating Layer ip2
I0122 09:47:55.367194  8162 net.cpp:406] ip2 <- ip1
I0122 09:47:55.367207  8162 net.cpp:380] ip2 -> ip2
I0122 09:47:55.367391  8162 net.cpp:122] Setting up ip2
I0122 09:47:55.367401  8162 net.cpp:129] Top shape: 100 7 (700)
I0122 09:47:55.367419  8162 net.cpp:137] Memory required for data: 653464000
I0122 09:47:55.367427  8162 layer_factory.hpp:77] Creating layer ip2_ip2_0_split
I0122 09:47:55.367437  8162 net.cpp:84] Creating Layer ip2_ip2_0_split
I0122 09:47:55.367444  8162 net.cpp:406] ip2_ip2_0_split <- ip2
I0122 09:47:55.367450  8162 net.cpp:380] ip2_ip2_0_split -> ip2_ip2_0_split_0
I0122 09:47:55.367458  8162 net.cpp:380] ip2_ip2_0_split -> ip2_ip2_0_split_1
I0122 09:47:55.367504  8162 net.cpp:122] Setting up ip2_ip2_0_split
I0122 09:47:55.367512  8162 net.cpp:129] Top shape: 100 7 (700)
I0122 09:47:55.367517  8162 net.cpp:129] Top shape: 100 7 (700)
I0122 09:47:55.367522  8162 net.cpp:137] Memory required for data: 653469600
I0122 09:47:55.367527  8162 layer_factory.hpp:77] Creating layer accuracy
I0122 09:47:55.367537  8162 net.cpp:84] Creating Layer accuracy
I0122 09:47:55.367542  8162 net.cpp:406] accuracy <- ip2_ip2_0_split_0
I0122 09:47:55.367547  8162 net.cpp:406] accuracy <- label_mnist_1_split_0
I0122 09:47:55.367555  8162 net.cpp:380] accuracy -> accuracy
…
