…
I0115 17:06:11.177659 19166 net.cpp:294] The NetState phase (0) differed from the phase (1) specified by a rule in layer data
I0115 17:06:11.177680 19166 net.cpp:294] The NetState phase (0) differed from the phase (1) specified by a rule in layer accuracy
I0115 17:06:11.177809 19166 net.cpp:51] Initializing net from parameters: 
name: "AlexNet"
state {
  phase: TRAIN
  level: 0
  stage: ""
}
layer {
  name: "data"
  type: "Data"
  top: "data"
  top: "label"
  include {
    phase: TRAIN
  }
  transform_param {
    scale: 0.00390625
  }
  data_param {
    source: "./data2/rail_train_lmdb"
    batch_size: 128
    backend: LMDB
  }
}
layer {
  name: "conv11"
  type: "Convolution"
  bottom: "data"
  top: "conv11"
  param {
    lr_mult: 1
    decay_mult: 1
  }
  param {
    lr_mult: 2
    decay_mult: 0
  }
  convolution_param {
    num_output: 96
    kernel_size: 11
    stride: 4
    weight_filler {
      type: "gaussian"
      std: 0.01
    }
    bias_filler {
      type: "constant"
      value: 0
    }
  }
}
layer {
  name: "relu1"
  type: "ReLU"
  bottom: "conv11"
  top: "conv11"
}
layer {
  name: "norm1"
  type: "LRN"
  bottom: "conv11"
  top: "norm1"
  lrn_param {
    local_size: 5
    alpha: 0.0001
    beta: 0.75
  }
}
layer {
  name: "pool1"
  type: "Pooling"
  bottom: "norm1"
  top: "pool1"
  pooling_param {
    pool: MAX
    kernel_size: 3
    stride: 2
  }
}
layer {
  name: "conv2"
  type: "Convolution"
  bottom: "pool1"
  top: "conv2"
  param {
    lr_mult: 1
    decay_mult: 1
  }
  param {
    lr_mult: 2
    decay_mult: 0
  }
  convolution_param {
    num_output: 256
    pad: 2
    kernel_size: 5
    group: 2
    weight_filler {
      type: "gaussian"
      std: 0.01
    }
    bias_filler {
      type: "constant"
      value: 0.1
    }
  }
}
layer {
  name: "relu2"
  type: "ReLU"
  bottom: "conv2"
  top: "conv2"
}
layer {
  name: "norm2"
  type: "LRN"
  bottom: "conv2"
  top: "norm2"
  lrn_param {
    local_size: 5
    alpha: 0.0001
    beta: 0.75
  }
}
layer {
  name: "pool2"
  type: "Pooling"
  bottom: "norm2"
  top: "pool2"
  pooling_param {
    pool: MAX
    kernel_size: 3
    stride: 2
  }
}
layer {
  name: "conv3"
  type: "Convolution"
  bottom: "pool2"
  top: "conv3"
  param {
    lr_mult: 1
    decay_mult: 1
  }
  param {
    lr_mult: 2
    decay_mult: 0
  }
  convolution_param {
    num_output: 384
    pad: 1
    kernel_size: 3
    weight_filler {
      type: "gaussian"
      std: 0.01
    }
    bias_filler {
      type: "constant"
      value: 0
    }
  }
}
layer {
  name: "relu3"
  type: "ReLU"
  bottom: "conv3"
  top: "conv3"
}
layer {
  name: "conv4"
  type: "Convolution"
  bottom: "conv3"
  top: "conv4"
  param {
    lr_mult: 1
    decay_mult: 1
  }
  param {
    lr_mult: 2
    decay_mult: 0
  }
  convolution_param {
    num_output: 384
    pad: 1
    kernel_size: 3
    group: 2
    weight_filler {
      type: "gaussian"
      std: 0.01
    }
    bias_filler {
      type: "constant"
      value: 0.1
    }
  }
}
layer {
  name: "relu4"
  type: "ReLU"
  bottom: "conv4"
  top: "conv4"
}
layer {
  name: "conv5"
  type: "Convolution"
  bottom: "conv4"
  top: "conv5"
  param {
    lr_mult: 1
    decay_mult: 1
  }
  param {
    lr_mult: 2
    decay_mult: 0
  }
  convolution_param {
    num_output: 256
    pad: 1
    kernel_size: 3
    group: 2
    weight_filler {
      type: "gaussian"
      std: 0.01
    }
    bias_filler {
      type: "constant"
      value: 0.1
    }
  }
}
layer {
  name: "relu5"
  type: "ReLU"
  bottom: "conv5"
  top: "conv5"
}
layer {
  name: "pool5"
  type: "Pooling"
  bottom: "conv5"
  top: "pool5"
  pooling_param {
    pool: MAX
    kernel_size: 3
    stride: 2
  }
}
layer {
  name: "fc6"
  type: "InnerProduct"
  bottom: "pool5"
  top: "fc6"
  param {
    lr_mult: 1
    decay_mult: 1
  }
  param {
    lr_mult: 2
    decay_mult: 0
  }
  inner_product_param {
    num_output: 4096
    weight_filler {
      type: "gaussian"
      std: 0.005
    }
    bias_filler {
      type: "constant"
      value: 0.1
    }
  }
}
layer {
  name: "relu6"
  type: "ReLU"
  bottom: "fc6"
  top: "fc6"
}
layer {
  name: "drop6"
  type: "Dropout"
  bottom: "fc6"
  top: "fc6"
  dropout_param {
    dropout_ratio: 0.5
  }
}
layer {
  name: "fc7"
  type: "InnerProduct"
  bottom: "fc6"
  top: "fc7"
  param {
    lr_mult: 1
    decay_mult: 1
  }
  param {
    lr_mult: 2
    decay_mult: 0
  }
  inner_product_param {
    num_output: 4096
    weight_filler {
      type: "gaussian"
      std: 0.005
    }
    bias_filler {
      type: "constant"
      value: 0.1
    }
  }
}
layer {
  name: "relu7"
  type: "ReLU"
  bottom: "fc7"
  top: "fc7"
}
layer {
  name: "drop7"
  type: "Dropout"
  bottom: "fc7"
  top: "fc7"
  dropout_param {
    dropout_ratio: 0.5
  }
}
layer {
  name: "fc8_flickr"
  type: "InnerProduct"
  bottom: "fc7"
  top: "fc8_flickr"
  param {
    lr_mult: 1
    decay_mult: 1
  }
  param {
    lr_mult: 2
    decay_mult: 0
  }
  inner_product_param {
    num_output: 7
    weight_filler {
      type: "gaussian"
      std: 0.01
    }
    bias_filler {
      type: "constant"
      value: 0
    }
  }
}
layer {
  name: "loss"
  type: "SoftmaxWithLoss"
  bottom: "fc8_flickr"
  bottom: "label"
  top: "loss"
}
I0115 17:06:11.177907 19166 layer_factory.hpp:77] Creating layer data
I0115 17:06:11.178074 19166 db_lmdb.cpp:35] Opened lmdb ./data2/rail_train_lmdb
I0115 17:06:11.178112 19166 net.cpp:84] Creating Layer data
I0115 17:06:11.178123 19166 net.cpp:380] data -> data
I0115 17:06:11.178148 19166 net.cpp:380] data -> label
I0115 17:06:11.179316 19166 data_layer.cpp:45] output data size: 128,3,200,200
I0115 17:06:11.330054 19166 net.cpp:122] Setting up data
I0115 17:06:11.330103 19166 net.cpp:129] Top shape: 128 3 200 200 (15360000)
I0115 17:06:11.330111 19166 net.cpp:129] Top shape: 128 (128)
I0115 17:06:11.330116 19166 net.cpp:137] Memory required for data: 61440512
I0115 17:06:11.330127 19166 layer_factory.hpp:77] Creating layer conv11
I0115 17:06:11.330168 19166 net.cpp:84] Creating Layer conv11
I0115 17:06:11.330178 19166 net.cpp:406] conv11 <- data
I0115 17:06:11.330196 19166 net.cpp:380] conv11 -> conv11
I0115 17:06:12.451427 19166 net.cpp:122] Setting up conv11
I0115 17:06:12.451483 19166 net.cpp:129] Top shape: 128 96 48 48 (28311552)
I0115 17:06:12.451493 19166 net.cpp:137] Memory required for data: 174686720
I0115 17:06:12.451525 19166 layer_factory.hpp:77] Creating layer relu1
I0115 17:06:12.451541 19166 net.cpp:84] Creating Layer relu1
I0115 17:06:12.451547 19166 net.cpp:406] relu1 <- conv11
I0115 17:06:12.451556 19166 net.cpp:367] relu1 -> conv11 (in-place)
I0115 17:06:12.451783 19166 net.cpp:122] Setting up relu1
I0115 17:06:12.451797 19166 net.cpp:129] Top shape: 128 96 48 48 (28311552)
I0115 17:06:12.451802 19166 net.cpp:137] Memory required for data: 287932928
I0115 17:06:12.451807 19166 layer_factory.hpp:77] Creating layer norm1
I0115 17:06:12.451820 19166 net.cpp:84] Creating Layer norm1
I0115 17:06:12.451824 19166 net.cpp:406] norm1 <- conv11
I0115 17:06:12.451834 19166 net.cpp:380] norm1 -> norm1
I0115 17:06:12.452755 19166 net.cpp:122] Setting up norm1
I0115 17:06:12.452774 19166 net.cpp:129] Top shape: 128 96 48 48 (28311552)
I0115 17:06:12.452778 19166 net.cpp:137] Memory required for data: 401179136
I0115 17:06:12.452783 19166 layer_factory.hpp:77] Creating layer pool1
I0115 17:06:12.452797 19166 net.cpp:84] Creating Layer pool1
I0115 17:06:12.452802 19166 net.cpp:406] pool1 <- norm1
I0115 17:06:12.452819 19166 net.cpp:380] pool1 -> pool1
I0115 17:06:12.452893 19166 net.cpp:122] Setting up pool1
I0115 17:06:12.452904 19166 net.cpp:129] Top shape: 128 96 24 24 (7077888)
I0115 17:06:12.452909 19166 net.cpp:137] Memory required for data: 429490688
I0115 17:06:12.452914 19166 layer_factory.hpp:77] Creating layer conv2
I0115 17:06:12.452929 19166 net.cpp:84] Creating Layer conv2
I0115 17:06:12.452935 19166 net.cpp:406] conv2 <- pool1
I0115 17:06:12.452945 19166 net.cpp:380] conv2 -> conv2
I0115 17:06:12.460836 19166 net.cpp:122] Setting up conv2
I0115 17:06:12.460857 19166 net.cpp:129] Top shape: 128 256 24 24 (18874368)
I0115 17:06:12.460865 19166 net.cpp:137] Memory required for data: 504988160
I0115 17:06:12.460877 19166 layer_factory.hpp:77] Creating layer relu2
I0115 17:06:12.460886 19166 net.cpp:84] Creating Layer relu2
I0115 17:06:12.460891 19166 net.cpp:406] relu2 <- conv2
I0115 17:06:12.460898 19166 net.cpp:367] relu2 -> conv2 (in-place)
I0115 17:06:12.461792 19166 net.cpp:122] Setting up relu2
I0115 17:06:12.461812 19166 net.cpp:129] Top shape: 128 256 24 24 (18874368)
I0115 17:06:12.461817 19166 net.cpp:137] Memory required for data: 580485632
I0115 17:06:12.461823 19166 layer_factory.hpp:77] Creating layer norm2
I0115 17:06:12.461832 19166 net.cpp:84] Creating Layer norm2
I0115 17:06:12.461836 19166 net.cpp:406] norm2 <- conv2
I0115 17:06:12.461845 19166 net.cpp:380] norm2 -> norm2
I0115 17:06:12.462069 19166 net.cpp:122] Setting up norm2
I0115 17:06:12.462082 19166 net.cpp:129] Top shape: 128 256 24 24 (18874368)
I0115 17:06:12.462086 19166 net.cpp:137] Memory required for data: 655983104
I0115 17:06:12.462091 19166 layer_factory.hpp:77] Creating layer pool2
I0115 17:06:12.462102 19166 net.cpp:84] Creating Layer pool2
I0115 17:06:12.462108 19166 net.cpp:406] pool2 <- norm2
I0115 17:06:12.462115 19166 net.cpp:380] pool2 -> pool2
I0115 17:06:12.462159 19166 net.cpp:122] Setting up pool2
I0115 17:06:12.462169 19166 net.cpp:129] Top shape: 128 256 12 12 (4718592)
I0115 17:06:12.462174 19166 net.cpp:137] Memory required for data: 674857472
I0115 17:06:12.462178 19166 layer_factory.hpp:77] Creating layer conv3
I0115 17:06:12.462190 19166 net.cpp:84] Creating Layer conv3
I0115 17:06:12.462196 19166 net.cpp:406] conv3 <- pool2
I0115 17:06:12.462205 19166 net.cpp:380] conv3 -> conv3
I0115 17:06:12.475853 19166 net.cpp:122] Setting up conv3
I0115 17:06:12.475878 19166 net.cpp:129] Top shape: 128 384 12 12 (7077888)
I0115 17:06:12.475884 19166 net.cpp:137] Memory required for data: 703169024
I0115 17:06:12.475896 19166 layer_factory.hpp:77] Creating layer relu3
I0115 17:06:12.475906 19166 net.cpp:84] Creating Layer relu3
I0115 17:06:12.475911 19166 net.cpp:406] relu3 <- conv3
I0115 17:06:12.475919 19166 net.cpp:367] relu3 -> conv3 (in-place)
I0115 17:06:12.476125 19166 net.cpp:122] Setting up relu3
I0115 17:06:12.476138 19166 net.cpp:129] Top shape: 128 384 12 12 (7077888)
I0115 17:06:12.476142 19166 net.cpp:137] Memory required for data: 731480576
I0115 17:06:12.476148 19166 layer_factory.hpp:77] Creating layer conv4
I0115 17:06:12.476163 19166 net.cpp:84] Creating Layer conv4
I0115 17:06:12.476168 19166 net.cpp:406] conv4 <- conv3
I0115 17:06:12.476176 19166 net.cpp:380] conv4 -> conv4
I0115 17:06:12.488229 19166 net.cpp:122] Setting up conv4
I0115 17:06:12.488250 19166 net.cpp:129] Top shape: 128 384 12 12 (7077888)
I0115 17:06:12.488256 19166 net.cpp:137] Memory required for data: 759792128
I0115 17:06:12.488265 19166 layer_factory.hpp:77] Creating layer relu4
I0115 17:06:12.488276 19166 net.cpp:84] Creating Layer relu4
I0115 17:06:12.488281 19166 net.cpp:406] relu4 <- conv4
I0115 17:06:12.488288 19166 net.cpp:367] relu4 -> conv4 (in-place)
I0115 17:06:12.488493 19166 net.cpp:122] Setting up relu4
I0115 17:06:12.488508 19166 net.cpp:129] Top shape: 128 384 12 12 (7077888)
I0115 17:06:12.488513 19166 net.cpp:137] Memory required for data: 788103680
I0115 17:06:12.488517 19166 layer_factory.hpp:77] Creating layer conv5
I0115 17:06:12.488530 19166 net.cpp:84] Creating Layer conv5
I0115 17:06:12.488535 19166 net.cpp:406] conv5 <- conv4
I0115 17:06:12.488553 19166 net.cpp:380] conv5 -> conv5
I0115 17:06:12.498030 19166 net.cpp:122] Setting up conv5
I0115 17:06:12.498054 19166 net.cpp:129] Top shape: 128 256 12 12 (4718592)
I0115 17:06:12.498059 19166 net.cpp:137] Memory required for data: 806978048
I0115 17:06:12.498071 19166 layer_factory.hpp:77] Creating layer relu5
I0115 17:06:12.498080 19166 net.cpp:84] Creating Layer relu5
I0115 17:06:12.498085 19166 net.cpp:406] relu5 <- conv5
I0115 17:06:12.498095 19166 net.cpp:367] relu5 -> conv5 (in-place)
I0115 17:06:12.498299 19166 net.cpp:122] Setting up relu5
I0115 17:06:12.498312 19166 net.cpp:129] Top shape: 128 256 12 12 (4718592)
I0115 17:06:12.498317 19166 net.cpp:137] Memory required for data: 825852416
I0115 17:06:12.498322 19166 layer_factory.hpp:77] Creating layer pool5
I0115 17:06:12.498333 19166 net.cpp:84] Creating Layer pool5
I0115 17:06:12.498337 19166 net.cpp:406] pool5 <- conv5
I0115 17:06:12.498344 19166 net.cpp:380] pool5 -> pool5
I0115 17:06:12.498399 19166 net.cpp:122] Setting up pool5
I0115 17:06:12.498407 19166 net.cpp:129] Top shape: 128 256 6 6 (1179648)
I0115 17:06:12.498412 19166 net.cpp:137] Memory required for data: 830571008
I0115 17:06:12.498416 19166 layer_factory.hpp:77] Creating layer fc6
I0115 17:06:12.498431 19166 net.cpp:84] Creating Layer fc6
I0115 17:06:12.498436 19166 net.cpp:406] fc6 <- pool5
I0115 17:06:12.498445 19166 net.cpp:380] fc6 -> fc6
I0115 17:06:12.955497 19166 net.cpp:122] Setting up fc6
I0115 17:06:12.955549 19166 net.cpp:129] Top shape: 128 4096 (524288)
I0115 17:06:12.955554 19166 net.cpp:137] Memory required for data: 832668160
I0115 17:06:12.955567 19166 layer_factory.hpp:77] Creating layer relu6
I0115 17:06:12.955579 19166 net.cpp:84] Creating Layer relu6
I0115 17:06:12.955585 19166 net.cpp:406] relu6 <- fc6
I0115 17:06:12.955596 19166 net.cpp:367] relu6 -> fc6 (in-place)
I0115 17:06:12.956576 19166 net.cpp:122] Setting up relu6
I0115 17:06:12.956596 19166 net.cpp:129] Top shape: 128 4096 (524288)
I0115 17:06:12.956603 19166 net.cpp:137] Memory required for data: 834765312
I0115 17:06:12.956607 19166 layer_factory.hpp:77] Creating layer drop6
I0115 17:06:12.956615 19166 net.cpp:84] Creating Layer drop6
I0115 17:06:12.956619 19166 net.cpp:406] drop6 <- fc6
I0115 17:06:12.956627 19166 net.cpp:367] drop6 -> fc6 (in-place)
I0115 17:06:12.956656 19166 net.cpp:122] Setting up drop6
I0115 17:06:12.956665 19166 net.cpp:129] Top shape: 128 4096 (524288)
I0115 17:06:12.956668 19166 net.cpp:137] Memory required for data: 836862464
I0115 17:06:12.956672 19166 layer_factory.hpp:77] Creating layer fc7
I0115 17:06:12.956684 19166 net.cpp:84] Creating Layer fc7
I0115 17:06:12.956689 19166 net.cpp:406] fc7 <- fc6
I0115 17:06:12.956696 19166 net.cpp:380] fc7 -> fc7
I0115 17:06:13.140318 19166 net.cpp:122] Setting up fc7
I0115 17:06:13.140369 19166 net.cpp:129] Top shape: 128 4096 (524288)
I0115 17:06:13.140375 19166 net.cpp:137] Memory required for data: 838959616
I0115 17:06:13.140388 19166 layer_factory.hpp:77] Creating layer relu7
I0115 17:06:13.140401 19166 net.cpp:84] Creating Layer relu7
I0115 17:06:13.140406 19166 net.cpp:406] relu7 <- fc7
I0115 17:06:13.140414 19166 net.cpp:367] relu7 -> fc7 (in-place)
I0115 17:06:13.140662 19166 net.cpp:122] Setting up relu7
I0115 17:06:13.140674 19166 net.cpp:129] Top shape: 128 4096 (524288)
I0115 17:06:13.140677 19166 net.cpp:137] Memory required for data: 841056768
I0115 17:06:13.140681 19166 layer_factory.hpp:77] Creating layer drop7
I0115 17:06:13.140689 19166 net.cpp:84] Creating Layer drop7
I0115 17:06:13.140694 19166 net.cpp:406] drop7 <- fc7
I0115 17:06:13.140702 19166 net.cpp:367] drop7 -> fc7 (in-place)
I0115 17:06:13.140725 19166 net.cpp:122] Setting up drop7
I0115 17:06:13.140733 19166 net.cpp:129] Top shape: 128 4096 (524288)
I0115 17:06:13.140736 19166 net.cpp:137] Memory required for data: 843153920
I0115 17:06:13.140739 19166 layer_factory.hpp:77] Creating layer fc8_flickr
I0115 17:06:13.140750 19166 net.cpp:84] Creating Layer fc8_flickr
I0115 17:06:13.140754 19166 net.cpp:406] fc8_flickr <- fc7
I0115 17:06:13.140769 19166 net.cpp:380] fc8_flickr -> fc8_flickr
I0115 17:06:13.141173 19166 net.cpp:122] Setting up fc8_flickr
I0115 17:06:13.141181 19166 net.cpp:129] Top shape: 128 7 (896)
I0115 17:06:13.141185 19166 net.cpp:137] Memory required for data: 843157504
I0115 17:06:13.141192 19166 layer_factory.hpp:77] Creating layer loss
I0115 17:06:13.141207 19166 net.cpp:84] Creating Layer loss
I0115 17:06:13.141212 19166 net.cpp:406] loss <- fc8_flickr
I0115 17:06:13.141216 19166 net.cpp:406] loss <- label
I0115 17:06:13.141225 19166 net.cpp:380] loss -> loss
I0115 17:06:13.141242 19166 layer_factory.hpp:77] Creating layer loss
…
I0115 17:06:13.141935 19166 solver.cpp:172] Creating test net (#0) specified by net file: ./alex_net.prototxt
I0115 17:06:13.141970 19166 net.cpp:294] The NetState phase (1) differed from the phase (0) specified by a rule in layer data
I0115 17:06:13.142124 19166 net.cpp:51] Initializing net from parameters: 
name: "AlexNet"
state {
  phase: TEST
}
layer {
  name: "data"
  type: "Data"
  top: "data"
  top: "label"
  include {
    phase: TEST
  }
  transform_param {
    scale: 0.00390625
  }
  data_param {
    source: "./data2/rail_val_lmdb"
    batch_size: 100
    backend: LMDB
  }
}
layer {
  name: "conv11"
  type: "Convolution"
  bottom: "data"
  top: "conv11"
  param {
    lr_mult: 1
    decay_mult: 1
  }
  param {
    lr_mult: 2
    decay_mult: 0
  }
  convolution_param {
    num_output: 96
    kernel_size: 11
    stride: 4
    weight_filler {
      type: "gaussian"
      std: 0.01
    }
    bias_filler {
      type: "constant"
      value: 0
    }
  }
}
layer {
  name: "relu1"
  type: "ReLU"
  bottom: "conv11"
  top: "conv11"
}
layer {
  name: "norm1"
  type: "LRN"
  bottom: "conv11"
  top: "norm1"
  lrn_param {
    local_size: 5
    alpha: 0.0001
    beta: 0.75
  }
}
layer {
  name: "pool1"
  type: "Pooling"
  bottom: "norm1"
  top: "pool1"
  pooling_param {
    pool: MAX
    kernel_size: 3
    stride: 2
  }
}
layer {
  name: "conv2"
  type: "Convolution"
  bottom: "pool1"
  top: "conv2"
  param {
    lr_mult: 1
    decay_mult: 1
  }
  param {
    lr_mult: 2
    decay_mult: 0
  }
  convolution_param {
    num_output: 256
    pad: 2
    kernel_size: 5
    group: 2
    weight_filler {
      type: "gaussian"
      std: 0.01
    }
    bias_filler {
      type: "constant"
      value: 0.1
    }
  }
}
layer {
  name: "relu2"
  type: "ReLU"
  bottom: "conv2"
  top: "conv2"
}
layer {
  name: "norm2"
  type: "LRN"
  bottom: "conv2"
  top: "norm2"
  lrn_param {
    local_size: 5
    alpha: 0.0001
    beta: 0.75
  }
}
layer {
  name: "pool2"
  type: "Pooling"
  bottom: "norm2"
  top: "pool2"
  pooling_param {
    pool: MAX
    kernel_size: 3
    stride: 2
  }
}
layer {
  name: "conv3"
  type: "Convolution"
  bottom: "pool2"
  top: "conv3"
  param {
    lr_mult: 1
    decay_mult: 1
  }
  param {
    lr_mult: 2
    decay_mult: 0
  }
  convolution_param {
    num_output: 384
    pad: 1
    kernel_size: 3
    weight_filler {
      type: "gaussian"
      std: 0.01
    }
    bias_filler {
      type: "constant"
      value: 0
    }
  }
}
layer {
  name: "relu3"
  type: "ReLU"
  bottom: "conv3"
  top: "conv3"
}
layer {
  name: "conv4"
  type: "Convolution"
  bottom: "conv3"
  top: "conv4"
  param {
    lr_mult: 1
    decay_mult: 1
  }
  param {
    lr_mult: 2
    decay_mult: 0
  }
  convolution_param {
    num_output: 384
    pad: 1
    kernel_size: 3
    group: 2
    weight_filler {
      type: "gaussian"
      std: 0.01
    }
    bias_filler {
      type: "constant"
      value: 0.1
    }
  }
}
layer {
  name: "relu4"
  type: "ReLU"
  bottom: "conv4"
  top: "conv4"
}
layer {
  name: "conv5"
  type: "Convolution"
  bottom: "conv4"
  top: "conv5"
  param {
    lr_mult: 1
    decay_mult: 1
  }
  param {
    lr_mult: 2
    decay_mult: 0
  }
  convolution_param {
    num_output: 256
    pad: 1
    kernel_size: 3
    group: 2
    weight_filler {
      type: "gaussian"
      std: 0.01
    }
    bias_filler {
      type: "constant"
      value: 0.1
    }
  }
}
layer {
  name: "relu5"
  type: "ReLU"
  bottom: "conv5"
  top: "conv5"
}
layer {
  name: "pool5"
  type: "Pooling"
  bottom: "conv5"
  top: "pool5"
  pooling_param {
    pool: MAX
    kernel_size: 3
    stride: 2
  }
}
layer {
  name: "fc6"
  type: "InnerProduct"
  bottom: "pool5"
  top: "fc6"
  param {
    lr_mult: 1
    decay_mult: 1
  }
  param {
    lr_mult: 2
    decay_mult: 0
  }
  inner_product_param {
    num_output: 4096
    weight_filler {
      type: "gaussian"
      std: 0.005
    }
    bias_filler {
      type: "constant"
      value: 0.1
    }
  }
}
layer {
  name: "relu6"
  type: "ReLU"
  bottom: "fc6"
  top: "fc6"
}
layer {
  name: "drop6"
  type: "Dropout"
  bottom: "fc6"
  top: "fc6"
  dropout_param {
    dropout_ratio: 0.5
  }
}
layer {
  name: "fc7"
  type: "InnerProduct"
  bottom: "fc6"
  top: "fc7"
  param {
    lr_mult: 1
    decay_mult: 1
  }
  param {
    lr_mult: 2
    decay_mult: 0
  }
  inner_product_param {
    num_output: 4096
    weight_filler {
      type: "gaussian"
      std: 0.005
    }
    bias_filler {
      type: "constant"
      value: 0.1
    }
  }
}
layer {
  name: "relu7"
  type: "ReLU"
  bottom: "fc7"
  top: "fc7"
}
layer {
  name: "drop7"
  type: "Dropout"
  bottom: "fc7"
  top: "fc7"
  dropout_param {
    dropout_ratio: 0.5
  }
}
layer {
  name: "fc8_flickr"
  type: "InnerProduct"
  bottom: "fc7"
  top: "fc8_flickr"
  param {
    lr_mult: 1
    decay_mult: 1
  }
  param {
    lr_mult: 2
    decay_mult: 0
  }
  inner_product_param {
    num_output: 7
    weight_filler {
      type: "gaussian"
      std: 0.01
    }
    bias_filler {
      type: "constant"
      value: 0
    }
  }
}
layer {
  name: "accuracy"
  type: "Accuracy"
  bottom: "fc8_flickr"
  bottom: "label"
  top: "accuracy"
  include {
    phase: TEST
  }
}
layer {
  name: "loss"
  type: "SoftmaxWithLoss"
  bottom: "fc8_flickr"
  bottom: "label"
  top: "loss"
}
I0115 17:06:13.142233 19166 layer_factory.hpp:77] Creating layer data
I0115 17:06:13.142308 19166 db_lmdb.cpp:35] Opened lmdb ./data2/rail_val_lmdb
I0115 17:06:13.142340 19166 net.cpp:84] Creating Layer data
I0115 17:06:13.142347 19166 net.cpp:380] data -> data
I0115 17:06:13.142359 19166 net.cpp:380] data -> label
I0115 17:06:13.142586 19166 data_layer.cpp:45] output data size: 100,3,200,200
I0115 17:06:13.262331 19166 net.cpp:122] Setting up data
I0115 17:06:13.262379 19166 net.cpp:129] Top shape: 100 3 200 200 (12000000)
I0115 17:06:13.262387 19166 net.cpp:129] Top shape: 100 (100)
I0115 17:06:13.262390 19166 net.cpp:137] Memory required for data: 48000400
I0115 17:06:13.262399 19166 layer_factory.hpp:77] Creating layer label_data_1_split
I0115 17:06:13.262415 19166 net.cpp:84] Creating Layer label_data_1_split
I0115 17:06:13.262421 19166 net.cpp:406] label_data_1_split <- label
I0115 17:06:13.262432 19166 net.cpp:380] label_data_1_split -> label_data_1_split_0
I0115 17:06:13.262445 19166 net.cpp:380] label_data_1_split -> label_data_1_split_1
I0115 17:06:13.262737 19166 net.cpp:122] Setting up label_data_1_split
I0115 17:06:13.262800 19166 net.cpp:129] Top shape: 100 (100)
I0115 17:06:13.262814 19166 net.cpp:129] Top shape: 100 (100)
I0115 17:06:13.262821 19166 net.cpp:137] Memory required for data: 48001200
I0115 17:06:13.262832 19166 layer_factory.hpp:77] Creating layer conv11
I0115 17:06:13.262866 19166 net.cpp:84] Creating Layer conv11
I0115 17:06:13.262878 19166 net.cpp:406] conv11 <- data
I0115 17:06:13.262898 19166 net.cpp:380] conv11 -> conv11
I0115 17:06:13.270472 19166 net.cpp:122] Setting up conv11
I0115 17:06:13.270506 19166 net.cpp:129] Top shape: 100 96 48 48 (22118400)
I0115 17:06:13.270517 19166 net.cpp:137] Memory required for data: 136474800
I0115 17:06:13.270539 19166 layer_factory.hpp:77] Creating layer relu1
I0115 17:06:13.270553 19166 net.cpp:84] Creating Layer relu1
I0115 17:06:13.270561 19166 net.cpp:406] relu1 <- conv11
I0115 17:06:13.270578 19166 net.cpp:367] relu1 -> conv11 (in-place)
I0115 17:06:13.270900 19166 net.cpp:122] Setting up relu1
I0115 17:06:13.270920 19166 net.cpp:129] Top shape: 100 96 48 48 (22118400)
I0115 17:06:13.270927 19166 net.cpp:137] Memory required for data: 224948400
I0115 17:06:13.270936 19166 layer_factory.hpp:77] Creating layer norm1
I0115 17:06:13.270954 19166 net.cpp:84] Creating Layer norm1
I0115 17:06:13.270963 19166 net.cpp:406] norm1 <- conv11
I0115 17:06:13.270974 19166 net.cpp:380] norm1 -> norm1
I0115 17:06:13.272538 19166 net.cpp:122] Setting up norm1
I0115 17:06:13.272570 19166 net.cpp:129] Top shape: 100 96 48 48 (22118400)
I0115 17:06:13.272579 19166 net.cpp:137] Memory required for data: 313422000
I0115 17:06:13.272588 19166 layer_factory.hpp:77] Creating layer pool1
I0115 17:06:13.272603 19166 net.cpp:84] Creating Layer pool1
I0115 17:06:13.272610 19166 net.cpp:406] pool1 <- norm1
I0115 17:06:13.272621 19166 net.cpp:380] pool1 -> pool1
I0115 17:06:13.272697 19166 net.cpp:122] Setting up pool1
I0115 17:06:13.272713 19166 net.cpp:129] Top shape: 100 96 24 24 (5529600)
I0115 17:06:13.272722 19166 net.cpp:137] Memory required for data: 335540400
I0115 17:06:13.272728 19166 layer_factory.hpp:77] Creating layer conv2
I0115 17:06:13.272747 19166 net.cpp:84] Creating Layer conv2
I0115 17:06:13.272758 19166 net.cpp:406] conv2 <- pool1
I0115 17:06:13.272771 19166 net.cpp:380] conv2 -> conv2
I0115 17:06:13.283390 19166 net.cpp:122] Setting up conv2
I0115 17:06:13.283423 19166 net.cpp:129] Top shape: 100 256 24 24 (14745600)
I0115 17:06:13.283433 19166 net.cpp:137] Memory required for data: 394522800
I0115 17:06:13.283450 19166 layer_factory.hpp:77] Creating layer relu2
I0115 17:06:13.283463 19166 net.cpp:84] Creating Layer relu2
I0115 17:06:13.283470 19166 net.cpp:406] relu2 <- conv2
I0115 17:06:13.283484 19166 net.cpp:367] relu2 -> conv2 (in-place)
I0115 17:06:13.284864 19166 net.cpp:122] Setting up relu2
I0115 17:06:13.284888 19166 net.cpp:129] Top shape: 100 256 24 24 (14745600)
I0115 17:06:13.284896 19166 net.cpp:137] Memory required for data: 453505200
I0115 17:06:13.284905 19166 layer_factory.hpp:77] Creating layer norm2
I0115 17:06:13.284934 19166 net.cpp:84] Creating Layer norm2
I0115 17:06:13.284957 19166 net.cpp:406] norm2 <- conv2
I0115 17:06:13.284972 19166 net.cpp:380] norm2 -> norm2
I0115 17:06:13.285326 19166 net.cpp:122] Setting up norm2
I0115 17:06:13.285343 19166 net.cpp:129] Top shape: 100 256 24 24 (14745600)
I0115 17:06:13.285351 19166 net.cpp:137] Memory required for data: 512487600
I0115 17:06:13.285358 19166 layer_factory.hpp:77] Creating layer pool2
I0115 17:06:13.285370 19166 net.cpp:84] Creating Layer pool2
I0115 17:06:13.285377 19166 net.cpp:406] pool2 <- norm2
I0115 17:06:13.285390 19166 net.cpp:380] pool2 -> pool2
I0115 17:06:13.285455 19166 net.cpp:122] Setting up pool2
I0115 17:06:13.285476 19166 net.cpp:129] Top shape: 100 256 12 12 (3686400)
I0115 17:06:13.285485 19166 net.cpp:137] Memory required for data: 527233200
I0115 17:06:13.285490 19166 layer_factory.hpp:77] Creating layer conv3
I0115 17:06:13.285508 19166 net.cpp:84] Creating Layer conv3
I0115 17:06:13.285517 19166 net.cpp:406] conv3 <- pool2
I0115 17:06:13.285528 19166 net.cpp:380] conv3 -> conv3
I0115 17:06:13.306002 19166 net.cpp:122] Setting up conv3
I0115 17:06:13.306051 19166 net.cpp:129] Top shape: 100 384 12 12 (5529600)
I0115 17:06:13.306061 19166 net.cpp:137] Memory required for data: 549351600
I0115 17:06:13.306082 19166 layer_factory.hpp:77] Creating layer relu3
I0115 17:06:13.306099 19166 net.cpp:84] Creating Layer relu3
I0115 17:06:13.306107 19166 net.cpp:406] relu3 <- conv3
I0115 17:06:13.306120 19166 net.cpp:367] relu3 -> conv3 (in-place)
I0115 17:06:13.306414 19166 net.cpp:122] Setting up relu3
I0115 17:06:13.306429 19166 net.cpp:129] Top shape: 100 384 12 12 (5529600)
I0115 17:06:13.306437 19166 net.cpp:137] Memory required for data: 571470000
I0115 17:06:13.306443 19166 layer_factory.hpp:77] Creating layer conv4
I0115 17:06:13.306464 19166 net.cpp:84] Creating Layer conv4
I0115 17:06:13.306473 19166 net.cpp:406] conv4 <- conv3
I0115 17:06:13.306483 19166 net.cpp:380] conv4 -> conv4
I0115 17:06:13.322849 19166 net.cpp:122] Setting up conv4
I0115 17:06:13.322890 19166 net.cpp:129] Top shape: 100 384 12 12 (5529600)
I0115 17:06:13.322897 19166 net.cpp:137] Memory required for data: 593588400
I0115 17:06:13.322909 19166 layer_factory.hpp:77] Creating layer relu4
I0115 17:06:13.322924 19166 net.cpp:84] Creating Layer relu4
I0115 17:06:13.322932 19166 net.cpp:406] relu4 <- conv4
I0115 17:06:13.322940 19166 net.cpp:367] relu4 -> conv4 (in-place)
I0115 17:06:13.323249 19166 net.cpp:122] Setting up relu4
I0115 17:06:13.323267 19166 net.cpp:129] Top shape: 100 384 12 12 (5529600)
I0115 17:06:13.323273 19166 net.cpp:137] Memory required for data: 615706800
I0115 17:06:13.323279 19166 layer_factory.hpp:77] Creating layer conv5
I0115 17:06:13.323297 19166 net.cpp:84] Creating Layer conv5
I0115 17:06:13.323304 19166 net.cpp:406] conv5 <- conv4
I0115 17:06:13.323315 19166 net.cpp:380] conv5 -> conv5
I0115 17:06:13.340128 19166 net.cpp:122] Setting up conv5
I0115 17:06:13.340173 19166 net.cpp:129] Top shape: 100 256 12 12 (3686400)
I0115 17:06:13.340181 19166 net.cpp:137] Memory required for data: 630452400
I0115 17:06:13.340200 19166 layer_factory.hpp:77] Creating layer relu5
I0115 17:06:13.340215 19166 net.cpp:84] Creating Layer relu5
I0115 17:06:13.340222 19166 net.cpp:406] relu5 <- conv5
I0115 17:06:13.340236 19166 net.cpp:367] relu5 -> conv5 (in-place)
I0115 17:06:13.340492 19166 net.cpp:122] Setting up relu5
I0115 17:06:13.340507 19166 net.cpp:129] Top shape: 100 256 12 12 (3686400)
I0115 17:06:13.340512 19166 net.cpp:137] Memory required for data: 645198000
I0115 17:06:13.340519 19166 layer_factory.hpp:77] Creating layer pool5
I0115 17:06:13.340536 19166 net.cpp:84] Creating Layer pool5
I0115 17:06:13.340543 19166 net.cpp:406] pool5 <- conv5
I0115 17:06:13.340551 19166 net.cpp:380] pool5 -> pool5
I0115 17:06:13.340618 19166 net.cpp:122] Setting up pool5
I0115 17:06:13.340629 19166 net.cpp:129] Top shape: 100 256 6 6 (921600)
I0115 17:06:13.340636 19166 net.cpp:137] Memory required for data: 648884400
I0115 17:06:13.340651 19166 layer_factory.hpp:77] Creating layer fc6
I0115 17:06:13.340679 19166 net.cpp:84] Creating Layer fc6
I0115 17:06:13.340685 19166 net.cpp:406] fc6 <- pool5
I0115 17:06:13.340694 19166 net.cpp:380] fc6 -> fc6
I0115 17:06:13.853225 19166 net.cpp:122] Setting up fc6
I0115 17:06:13.853286 19166 net.cpp:129] Top shape: 100 4096 (409600)
I0115 17:06:13.853294 19166 net.cpp:137] Memory required for data: 650522800
I0115 17:06:13.853310 19166 layer_factory.hpp:77] Creating layer relu6
I0115 17:06:13.853324 19166 net.cpp:84] Creating Layer relu6
I0115 17:06:13.853332 19166 net.cpp:406] relu6 <- fc6
I0115 17:06:13.853344 19166 net.cpp:367] relu6 -> fc6 (in-place)
I0115 17:06:13.853672 19166 net.cpp:122] Setting up relu6
I0115 17:06:13.853688 19166 net.cpp:129] Top shape: 100 4096 (409600)
I0115 17:06:13.853694 19166 net.cpp:137] Memory required for data: 652161200
I0115 17:06:13.853699 19166 layer_factory.hpp:77] Creating layer drop6
I0115 17:06:13.853708 19166 net.cpp:84] Creating Layer drop6
I0115 17:06:13.853718 19166 net.cpp:406] drop6 <- fc6
I0115 17:06:13.853725 19166 net.cpp:367] drop6 -> fc6 (in-place)
I0115 17:06:13.853765 19166 net.cpp:122] Setting up drop6
I0115 17:06:13.853772 19166 net.cpp:129] Top shape: 100 4096 (409600)
I0115 17:06:13.853777 19166 net.cpp:137] Memory required for data: 653799600
I0115 17:06:13.853782 19166 layer_factory.hpp:77] Creating layer fc7
I0115 17:06:13.853796 19166 net.cpp:84] Creating Layer fc7
I0115 17:06:13.853801 19166 net.cpp:406] fc7 <- fc6
I0115 17:06:13.853809 19166 net.cpp:380] fc7 -> fc7
I0115 17:06:14.074295 19166 net.cpp:122] Setting up fc7
I0115 17:06:14.074352 19166 net.cpp:129] Top shape: 100 4096 (409600)
I0115 17:06:14.074359 19166 net.cpp:137] Memory required for data: 655438000
I0115 17:06:14.074374 19166 layer_factory.hpp:77] Creating layer relu7
I0115 17:06:14.074388 19166 net.cpp:84] Creating Layer relu7
I0115 17:06:14.074396 19166 net.cpp:406] relu7 <- fc7
I0115 17:06:14.074409 19166 net.cpp:367] relu7 -> fc7 (in-place)
I0115 17:06:14.075592 19166 net.cpp:122] Setting up relu7
I0115 17:06:14.075611 19166 net.cpp:129] Top shape: 100 4096 (409600)
I0115 17:06:14.075616 19166 net.cpp:137] Memory required for data: 657076400
I0115 17:06:14.075621 19166 layer_factory.hpp:77] Creating layer drop7
I0115 17:06:14.075631 19166 net.cpp:84] Creating Layer drop7
I0115 17:06:14.075637 19166 net.cpp:406] drop7 <- fc7
I0115 17:06:14.075646 19166 net.cpp:367] drop7 -> fc7 (in-place)
I0115 17:06:14.075685 19166 net.cpp:122] Setting up drop7
I0115 17:06:14.075693 19166 net.cpp:129] Top shape: 100 4096 (409600)
I0115 17:06:14.075716 19166 net.cpp:137] Memory required for data: 658714800
I0115 17:06:14.075719 19166 layer_factory.hpp:77] Creating layer fc8_flickr
I0115 17:06:14.075731 19166 net.cpp:84] Creating Layer fc8_flickr
I0115 17:06:14.075736 19166 net.cpp:406] fc8_flickr <- fc7
I0115 17:06:14.075747 19166 net.cpp:380] fc8_flickr -> fc8_flickr
I0115 17:06:14.076239 19166 net.cpp:122] Setting up fc8_flickr
I0115 17:06:14.076251 19166 net.cpp:129] Top shape: 100 7 (700)
I0115 17:06:14.076256 19166 net.cpp:137] Memory required for data: 658717600
I0115 17:06:14.076264 19166 layer_factory.hpp:77] Creating layer fc8_flickr_fc8_flickr_0_split
I0115 17:06:14.076273 19166 net.cpp:84] Creating Layer fc8_flickr_fc8_flickr_0_split
I0115 17:06:14.076278 19166 net.cpp:406] fc8_flickr_fc8_flickr_0_split <- fc8_flickr
I0115 17:06:14.076287 19166 net.cpp:380] fc8_flickr_fc8_flickr_0_split -> fc8_flickr_fc8_flickr_0_split_0
I0115 17:06:14.076297 19166 net.cpp:380] fc8_flickr_fc8_flickr_0_split -> fc8_flickr_fc8_flickr_0_split_1
I0115 17:06:14.076344 19166 net.cpp:122] Setting up fc8_flickr_fc8_flickr_0_split
I0115 17:06:14.076352 19166 net.cpp:129] Top shape: 100 7 (700)
I0115 17:06:14.076359 19166 net.cpp:129] Top shape: 100 7 (700)
I0115 17:06:14.076364 19166 net.cpp:137] Memory required for data: 658723200
I0115 17:06:14.076367 19166 layer_factory.hpp:77] Creating layer accuracy
I0115 17:06:14.076376 19166 net.cpp:84] Creating Layer accuracy
I0115 17:06:14.076381 19166 net.cpp:406] accuracy <- fc8_flickr_fc8_flickr_0_split_0
I0115 17:06:14.076409 19166 net.cpp:406] accuracy <- label_data_1_split_0
I0115 17:06:14.076416 19166 net.cpp:380] accuracy -> accuracy
…
