…
I0115 09:59:26.712641  9473 net.cpp:294] The NetState phase (0) differed from the phase (1) specified by a rule in layer data
I0115 09:59:26.712671  9473 net.cpp:294] The NetState phase (0) differed from the phase (1) specified by a rule in layer accuracy
I0115 09:59:26.712860  9473 net.cpp:51] Initializing net from parameters: 
name: "AlexNet"
state {
  phase: TRAIN
  level: 0
  stage: ""
}
layer {
  name: "data"
  type: "Data"
  top: "data"
  top: "label"
  include {
    phase: TRAIN
  }
  transform_param {
    scale: 0.00390625
  }
  data_param {
    source: "./data2/rail_train_lmdb"
    batch_size: 128
    backend: LMDB
  }
}
layer {
  name: "conv1"
  type: "Convolution"
  bottom: "data"
  top: "conv1"
  param {
    lr_mult: 1
    decay_mult: 1
  }
  param {
    lr_mult: 2
    decay_mult: 0
  }
  convolution_param {
    num_output: 96
    kernel_size: 11
    stride: 4
    weight_filler {
      type: "gaussian"
      std: 0.01
    }
    bias_filler {
      type: "constant"
      value: 0
    }
  }
}
layer {
  name: "relu1"
  type: "ReLU"
  bottom: "conv1"
  top: "conv1"
}
layer {
  name: "norm1"
  type: "LRN"
  bottom: "conv1"
  top: "norm1"
  lrn_param {
    local_size: 5
    alpha: 0.0001
    beta: 0.75
  }
}
layer {
  name: "pool1"
  type: "Pooling"
  bottom: "norm1"
  top: "pool1"
  pooling_param {
    pool: MAX
    kernel_size: 3
    stride: 2
  }
}
layer {
  name: "conv2"
  type: "Convolution"
  bottom: "pool1"
  top: "conv2"
  param {
    lr_mult: 1
    decay_mult: 1
  }
  param {
    lr_mult: 2
    decay_mult: 0
  }
  convolution_param {
    num_output: 256
    pad: 2
    kernel_size: 5
    group: 2
    weight_filler {
      type: "gaussian"
      std: 0.01
    }
    bias_filler {
      type: "constant"
      value: 0.1
    }
  }
}
layer {
  name: "relu2"
  type: "ReLU"
  bottom: "conv2"
  top: "conv2"
}
layer {
  name: "norm2"
  type: "LRN"
  bottom: "conv2"
  top: "norm2"
  lrn_param {
    local_size: 5
    alpha: 0.0001
    beta: 0.75
  }
}
layer {
  name: "pool2"
  type: "Pooling"
  bottom: "norm2"
  top: "pool2"
  pooling_param {
    pool: MAX
    kernel_size: 3
    stride: 2
  }
}
layer {
  name: "conv3"
  type: "Convolution"
  bottom: "pool2"
  top: "conv3"
  param {
    lr_mult: 1
    decay_mult: 1
  }
  param {
    lr_mult: 2
    decay_mult: 0
  }
  convolution_param {
    num_output: 384
    pad: 1
    kernel_size: 3
    weight_filler {
      type: "gaussian"
      std: 0.01
    }
    bias_filler {
      type: "constant"
      value: 0
    }
  }
}
layer {
  name: "relu3"
  type: "ReLU"
  bottom: "conv3"
  top: "conv3"
}
layer {
  name: "conv4"
  type: "Convolution"
  bottom: "conv3"
  top: "conv4"
  param {
    lr_mult: 1
    decay_mult: 1
  }
  param {
    lr_mult: 2
    decay_mult: 0
  }
  convolution_param {
    num_output: 384
    pad: 1
    kernel_size: 3
    group: 2
    weight_filler {
      type: "gaussian"
      std: 0.01
    }
    bias_filler {
      type: "constant"
      value: 0.1
    }
  }
}
layer {
  name: "relu4"
  type: "ReLU"
  bottom: "conv4"
  top: "conv4"
}
layer {
  name: "conv5"
  type: "Convolution"
  bottom: "conv4"
  top: "conv5"
  param {
    lr_mult: 1
    decay_mult: 1
  }
  param {
    lr_mult: 2
    decay_mult: 0
  }
  convolution_param {
    num_output: 256
    pad: 1
    kernel_size: 3
    group: 2
    weight_filler {
      type: "gaussian"
      std: 0.01
    }
    bias_filler {
      type: "constant"
      value: 0.1
    }
  }
}
layer {
  name: "relu5"
  type: "ReLU"
  bottom: "conv5"
  top: "conv5"
}
layer {
  name: "pool5"
  type: "Pooling"
  bottom: "conv5"
  top: "pool5"
  pooling_param {
    pool: MAX
    kernel_size: 3
    stride: 2
  }
}
layer {
  name: "fc6"
  type: "InnerProduct"
  bottom: "pool5"
  top: "fc6"
  param {
    lr_mult: 1
    decay_mult: 1
  }
  param {
    lr_mult: 2
    decay_mult: 0
  }
  inner_product_param {
    num_output: 4096
    weight_filler {
      type: "gaussian"
      std: 0.005
    }
    bias_filler {
      type: "constant"
      value: 0.1
    }
  }
}
layer {
  name: "relu6"
  type: "ReLU"
  bottom: "fc6"
  top: "fc6"
}
layer {
  name: "drop6"
  type: "Dropout"
  bottom: "fc6"
  top: "fc6"
  dropout_param {
    dropout_ratio: 0.5
  }
}
layer {
  name: "fc7"
  type: "InnerProduct"
  bottom: "fc6"
  top: "fc7"
  param {
    lr_mult: 1
    decay_mult: 1
  }
  param {
    lr_mult: 2
    decay_mult: 0
  }
  inner_product_param {
    num_output: 4096
    weight_filler {
      type: "gaussian"
      std: 0.005
    }
    bias_filler {
      type: "constant"
      value: 0.1
    }
  }
}
layer {
  name: "relu7"
  type: "ReLU"
  bottom: "fc7"
  top: "fc7"
}
layer {
  name: "drop7"
  type: "Dropout"
  bottom: "fc7"
  top: "fc7"
  dropout_param {
    dropout_ratio: 0.5
  }
}
layer {
  name: "fc8_flickr"
  type: "InnerProduct"
  bottom: "fc7"
  top: "fc8_flickr"
  param {
    lr_mult: 10
    decay_mult: 1
  }
  param {
    lr_mult: 20
    decay_mult: 0
  }
  inner_product_param {
    num_output: 7
    weight_filler {
      type: "gaussian"
      std: 0.01
    }
    bias_filler {
      type: "constant"
      value: 0
    }
  }
}
layer {
  name: "loss"
  type: "SoftmaxWithLoss"
  bottom: "fc8_flickr"
  bottom: "label"
  top: "loss"
}
I0115 09:59:26.712988  9473 layer_factory.hpp:77] Creating layer data
I0115 09:59:26.713182  9473 db_lmdb.cpp:35] Opened lmdb ./data2/rail_train_lmdb
I0115 09:59:26.713227  9473 net.cpp:84] Creating Layer data
I0115 09:59:26.713239  9473 net.cpp:380] data -> data
I0115 09:59:26.713265  9473 net.cpp:380] data -> label
I0115 09:59:26.714741  9473 data_layer.cpp:45] output data size: 128,3,200,200
I0115 09:59:26.888635  9473 net.cpp:122] Setting up data
I0115 09:59:26.888692  9473 net.cpp:129] Top shape: 128 3 200 200 (15360000)
I0115 09:59:26.888701  9473 net.cpp:129] Top shape: 128 (128)
I0115 09:59:26.888706  9473 net.cpp:137] Memory required for data: 61440512
I0115 09:59:26.888720  9473 layer_factory.hpp:77] Creating layer conv1
I0115 09:59:26.888763  9473 net.cpp:84] Creating Layer conv1
I0115 09:59:26.888773  9473 net.cpp:406] conv1 <- data
I0115 09:59:26.888792  9473 net.cpp:380] conv1 -> conv1
I0115 09:59:27.921250  9473 net.cpp:122] Setting up conv1
I0115 09:59:27.921313  9473 net.cpp:129] Top shape: 128 96 48 48 (28311552)
I0115 09:59:27.921319  9473 net.cpp:137] Memory required for data: 174686720
I0115 09:59:27.921347  9473 layer_factory.hpp:77] Creating layer relu1
I0115 09:59:27.921362  9473 net.cpp:84] Creating Layer relu1
I0115 09:59:27.921367  9473 net.cpp:406] relu1 <- conv1
I0115 09:59:27.921375  9473 net.cpp:367] relu1 -> conv1 (in-place)
I0115 09:59:27.921543  9473 net.cpp:122] Setting up relu1
I0115 09:59:27.921556  9473 net.cpp:129] Top shape: 128 96 48 48 (28311552)
I0115 09:59:27.921561  9473 net.cpp:137] Memory required for data: 287932928
I0115 09:59:27.921566  9473 layer_factory.hpp:77] Creating layer norm1
I0115 09:59:27.921577  9473 net.cpp:84] Creating Layer norm1
I0115 09:59:27.921581  9473 net.cpp:406] norm1 <- conv1
I0115 09:59:27.921587  9473 net.cpp:380] norm1 -> norm1
I0115 09:59:27.922341  9473 net.cpp:122] Setting up norm1
I0115 09:59:27.922355  9473 net.cpp:129] Top shape: 128 96 48 48 (28311552)
I0115 09:59:27.922360  9473 net.cpp:137] Memory required for data: 401179136
I0115 09:59:27.922364  9473 layer_factory.hpp:77] Creating layer pool1
I0115 09:59:27.922374  9473 net.cpp:84] Creating Layer pool1
I0115 09:59:27.922379  9473 net.cpp:406] pool1 <- norm1
I0115 09:59:27.922394  9473 net.cpp:380] pool1 -> pool1
I0115 09:59:27.922441  9473 net.cpp:122] Setting up pool1
I0115 09:59:27.922459  9473 net.cpp:129] Top shape: 128 96 24 24 (7077888)
I0115 09:59:27.922463  9473 net.cpp:137] Memory required for data: 429490688
I0115 09:59:27.922467  9473 layer_factory.hpp:77] Creating layer conv2
I0115 09:59:27.922479  9473 net.cpp:84] Creating Layer conv2
I0115 09:59:27.922484  9473 net.cpp:406] conv2 <- pool1
I0115 09:59:27.922490  9473 net.cpp:380] conv2 -> conv2
I0115 09:59:27.928830  9473 net.cpp:122] Setting up conv2
I0115 09:59:27.928848  9473 net.cpp:129] Top shape: 128 256 24 24 (18874368)
I0115 09:59:27.928853  9473 net.cpp:137] Memory required for data: 504988160
I0115 09:59:27.928863  9473 layer_factory.hpp:77] Creating layer relu2
I0115 09:59:27.928869  9473 net.cpp:84] Creating Layer relu2
I0115 09:59:27.928874  9473 net.cpp:406] relu2 <- conv2
I0115 09:59:27.928879  9473 net.cpp:367] relu2 -> conv2 (in-place)
I0115 09:59:27.929591  9473 net.cpp:122] Setting up relu2
I0115 09:59:27.929606  9473 net.cpp:129] Top shape: 128 256 24 24 (18874368)
I0115 09:59:27.929610  9473 net.cpp:137] Memory required for data: 580485632
I0115 09:59:27.929615  9473 layer_factory.hpp:77] Creating layer norm2
I0115 09:59:27.929621  9473 net.cpp:84] Creating Layer norm2
I0115 09:59:27.929625  9473 net.cpp:406] norm2 <- conv2
I0115 09:59:27.929631  9473 net.cpp:380] norm2 -> norm2
I0115 09:59:27.929793  9473 net.cpp:122] Setting up norm2
I0115 09:59:27.929803  9473 net.cpp:129] Top shape: 128 256 24 24 (18874368)
I0115 09:59:27.929807  9473 net.cpp:137] Memory required for data: 655983104
I0115 09:59:27.929811  9473 layer_factory.hpp:77] Creating layer pool2
I0115 09:59:27.929818  9473 net.cpp:84] Creating Layer pool2
I0115 09:59:27.929822  9473 net.cpp:406] pool2 <- norm2
I0115 09:59:27.929828  9473 net.cpp:380] pool2 -> pool2
I0115 09:59:27.929860  9473 net.cpp:122] Setting up pool2
I0115 09:59:27.929868  9473 net.cpp:129] Top shape: 128 256 12 12 (4718592)
I0115 09:59:27.929872  9473 net.cpp:137] Memory required for data: 674857472
I0115 09:59:27.929875  9473 layer_factory.hpp:77] Creating layer conv3
I0115 09:59:27.929884  9473 net.cpp:84] Creating Layer conv3
I0115 09:59:27.929888  9473 net.cpp:406] conv3 <- pool2
I0115 09:59:27.929894  9473 net.cpp:380] conv3 -> conv3
I0115 09:59:27.941006  9473 net.cpp:122] Setting up conv3
I0115 09:59:27.941025  9473 net.cpp:129] Top shape: 128 384 12 12 (7077888)
I0115 09:59:27.941030  9473 net.cpp:137] Memory required for data: 703169024
I0115 09:59:27.941040  9473 layer_factory.hpp:77] Creating layer relu3
I0115 09:59:27.941046  9473 net.cpp:84] Creating Layer relu3
I0115 09:59:27.941051  9473 net.cpp:406] relu3 <- conv3
I0115 09:59:27.941058  9473 net.cpp:367] relu3 -> conv3 (in-place)
I0115 09:59:27.941222  9473 net.cpp:122] Setting up relu3
I0115 09:59:27.941233  9473 net.cpp:129] Top shape: 128 384 12 12 (7077888)
I0115 09:59:27.941236  9473 net.cpp:137] Memory required for data: 731480576
I0115 09:59:27.941241  9473 layer_factory.hpp:77] Creating layer conv4
I0115 09:59:27.941251  9473 net.cpp:84] Creating Layer conv4
I0115 09:59:27.941256  9473 net.cpp:406] conv4 <- conv3
I0115 09:59:27.941263  9473 net.cpp:380] conv4 -> conv4
I0115 09:59:27.951148  9473 net.cpp:122] Setting up conv4
I0115 09:59:27.951166  9473 net.cpp:129] Top shape: 128 384 12 12 (7077888)
I0115 09:59:27.951171  9473 net.cpp:137] Memory required for data: 759792128
I0115 09:59:27.951179  9473 layer_factory.hpp:77] Creating layer relu4
I0115 09:59:27.951189  9473 net.cpp:84] Creating Layer relu4
I0115 09:59:27.951192  9473 net.cpp:406] relu4 <- conv4
I0115 09:59:27.951200  9473 net.cpp:367] relu4 -> conv4 (in-place)
I0115 09:59:27.951381  9473 net.cpp:122] Setting up relu4
I0115 09:59:27.951393  9473 net.cpp:129] Top shape: 128 384 12 12 (7077888)
I0115 09:59:27.951396  9473 net.cpp:137] Memory required for data: 788103680
I0115 09:59:27.951400  9473 layer_factory.hpp:77] Creating layer conv5
I0115 09:59:27.951411  9473 net.cpp:84] Creating Layer conv5
I0115 09:59:27.951416  9473 net.cpp:406] conv5 <- conv4
I0115 09:59:27.951428  9473 net.cpp:380] conv5 -> conv5
I0115 09:59:27.959250  9473 net.cpp:122] Setting up conv5
I0115 09:59:27.959267  9473 net.cpp:129] Top shape: 128 256 12 12 (4718592)
I0115 09:59:27.959272  9473 net.cpp:137] Memory required for data: 806978048
I0115 09:59:27.959282  9473 layer_factory.hpp:77] Creating layer relu5
I0115 09:59:27.959293  9473 net.cpp:84] Creating Layer relu5
I0115 09:59:27.959298  9473 net.cpp:406] relu5 <- conv5
I0115 09:59:27.959305  9473 net.cpp:367] relu5 -> conv5 (in-place)
I0115 09:59:27.959483  9473 net.cpp:122] Setting up relu5
I0115 09:59:27.959494  9473 net.cpp:129] Top shape: 128 256 12 12 (4718592)
I0115 09:59:27.959498  9473 net.cpp:137] Memory required for data: 825852416
I0115 09:59:27.959502  9473 layer_factory.hpp:77] Creating layer pool5
I0115 09:59:27.959508  9473 net.cpp:84] Creating Layer pool5
I0115 09:59:27.959512  9473 net.cpp:406] pool5 <- conv5
I0115 09:59:27.959519  9473 net.cpp:380] pool5 -> pool5
I0115 09:59:27.959560  9473 net.cpp:122] Setting up pool5
I0115 09:59:27.959568  9473 net.cpp:129] Top shape: 128 256 6 6 (1179648)
I0115 09:59:27.959571  9473 net.cpp:137] Memory required for data: 830571008
I0115 09:59:27.959575  9473 layer_factory.hpp:77] Creating layer fc6
I0115 09:59:27.959590  9473 net.cpp:84] Creating Layer fc6
I0115 09:59:27.959594  9473 net.cpp:406] fc6 <- pool5
I0115 09:59:27.959600  9473 net.cpp:380] fc6 -> fc6
I0115 09:59:28.366250  9473 net.cpp:122] Setting up fc6
I0115 09:59:28.366303  9473 net.cpp:129] Top shape: 128 4096 (524288)
I0115 09:59:28.366309  9473 net.cpp:137] Memory required for data: 832668160
I0115 09:59:28.366322  9473 layer_factory.hpp:77] Creating layer relu6
I0115 09:59:28.366335  9473 net.cpp:84] Creating Layer relu6
I0115 09:59:28.366341  9473 net.cpp:406] relu6 <- fc6
I0115 09:59:28.366349  9473 net.cpp:367] relu6 -> fc6 (in-place)
I0115 09:59:28.367334  9473 net.cpp:122] Setting up relu6
I0115 09:59:28.367352  9473 net.cpp:129] Top shape: 128 4096 (524288)
I0115 09:59:28.367357  9473 net.cpp:137] Memory required for data: 834765312
I0115 09:59:28.367360  9473 layer_factory.hpp:77] Creating layer drop6
I0115 09:59:28.367372  9473 net.cpp:84] Creating Layer drop6
I0115 09:59:28.367377  9473 net.cpp:406] drop6 <- fc6
I0115 09:59:28.367383  9473 net.cpp:367] drop6 -> fc6 (in-place)
I0115 09:59:28.367411  9473 net.cpp:122] Setting up drop6
I0115 09:59:28.367420  9473 net.cpp:129] Top shape: 128 4096 (524288)
I0115 09:59:28.367424  9473 net.cpp:137] Memory required for data: 836862464
I0115 09:59:28.367429  9473 layer_factory.hpp:77] Creating layer fc7
I0115 09:59:28.367439  9473 net.cpp:84] Creating Layer fc7
I0115 09:59:28.367442  9473 net.cpp:406] fc7 <- fc6
I0115 09:59:28.367450  9473 net.cpp:380] fc7 -> fc7
I0115 09:59:28.548771  9473 net.cpp:122] Setting up fc7
I0115 09:59:28.548835  9473 net.cpp:129] Top shape: 128 4096 (524288)
I0115 09:59:28.548840  9473 net.cpp:137] Memory required for data: 838959616
I0115 09:59:28.548852  9473 layer_factory.hpp:77] Creating layer relu7
I0115 09:59:28.548866  9473 net.cpp:84] Creating Layer relu7
I0115 09:59:28.548872  9473 net.cpp:406] relu7 <- fc7
I0115 09:59:28.548880  9473 net.cpp:367] relu7 -> fc7 (in-place)
I0115 09:59:28.549141  9473 net.cpp:122] Setting up relu7
I0115 09:59:28.549152  9473 net.cpp:129] Top shape: 128 4096 (524288)
I0115 09:59:28.549155  9473 net.cpp:137] Memory required for data: 841056768
I0115 09:59:28.549160  9473 layer_factory.hpp:77] Creating layer drop7
I0115 09:59:28.549170  9473 net.cpp:84] Creating Layer drop7
I0115 09:59:28.549175  9473 net.cpp:406] drop7 <- fc7
I0115 09:59:28.549180  9473 net.cpp:367] drop7 -> fc7 (in-place)
I0115 09:59:28.549201  9473 net.cpp:122] Setting up drop7
I0115 09:59:28.549207  9473 net.cpp:129] Top shape: 128 4096 (524288)
I0115 09:59:28.549211  9473 net.cpp:137] Memory required for data: 843153920
I0115 09:59:28.549216  9473 layer_factory.hpp:77] Creating layer fc8_flickr
I0115 09:59:28.549226  9473 net.cpp:84] Creating Layer fc8_flickr
I0115 09:59:28.549230  9473 net.cpp:406] fc8_flickr <- fc7
I0115 09:59:28.549247  9473 net.cpp:380] fc8_flickr -> fc8_flickr
I0115 09:59:28.549657  9473 net.cpp:122] Setting up fc8_flickr
I0115 09:59:28.549666  9473 net.cpp:129] Top shape: 128 7 (896)
I0115 09:59:28.549670  9473 net.cpp:137] Memory required for data: 843157504
I0115 09:59:28.549676  9473 layer_factory.hpp:77] Creating layer loss
I0115 09:59:28.549684  9473 net.cpp:84] Creating Layer loss
I0115 09:59:28.549687  9473 net.cpp:406] loss <- fc8_flickr
I0115 09:59:28.549691  9473 net.cpp:406] loss <- label
I0115 09:59:28.549700  9473 net.cpp:380] loss -> loss
I0115 09:59:28.549715  9473 layer_factory.hpp:77] Creating layer loss
…
I0115 09:59:28.550386  9473 solver.cpp:172] Creating test net (#0) specified by net file: ./train_val.prototxt
I0115 09:59:28.550420  9473 net.cpp:294] The NetState phase (1) differed from the phase (0) specified by a rule in layer data
I0115 09:59:28.550570  9473 net.cpp:51] Initializing net from parameters: 
name: "AlexNet"
state {
  phase: TEST
}
layer {
  name: "data"
  type: "Data"
  top: "data"
  top: "label"
  include {
    phase: TEST
  }
  transform_param {
    scale: 0.00390625
  }
  data_param {
    source: "./data2/rail_val_lmdb"
    batch_size: 100
    backend: LMDB
  }
}
layer {
  name: "conv1"
  type: "Convolution"
  bottom: "data"
  top: "conv1"
  param {
    lr_mult: 1
    decay_mult: 1
  }
  param {
    lr_mult: 2
    decay_mult: 0
  }
  convolution_param {
    num_output: 96
    kernel_size: 11
    stride: 4
    weight_filler {
      type: "gaussian"
      std: 0.01
    }
    bias_filler {
      type: "constant"
      value: 0
    }
  }
}
layer {
  name: "relu1"
  type: "ReLU"
  bottom: "conv1"
  top: "conv1"
}
layer {
  name: "norm1"
  type: "LRN"
  bottom: "conv1"
  top: "norm1"
  lrn_param {
    local_size: 5
    alpha: 0.0001
    beta: 0.75
  }
}
layer {
  name: "pool1"
  type: "Pooling"
  bottom: "norm1"
  top: "pool1"
  pooling_param {
    pool: MAX
    kernel_size: 3
    stride: 2
  }
}
layer {
  name: "conv2"
  type: "Convolution"
  bottom: "pool1"
  top: "conv2"
  param {
    lr_mult: 1
    decay_mult: 1
  }
  param {
    lr_mult: 2
    decay_mult: 0
  }
  convolution_param {
    num_output: 256
    pad: 2
    kernel_size: 5
    group: 2
    weight_filler {
      type: "gaussian"
      std: 0.01
    }
    bias_filler {
      type: "constant"
      value: 0.1
    }
  }
}
layer {
  name: "relu2"
  type: "ReLU"
  bottom: "conv2"
  top: "conv2"
}
layer {
  name: "norm2"
  type: "LRN"
  bottom: "conv2"
  top: "norm2"
  lrn_param {
    local_size: 5
    alpha: 0.0001
    beta: 0.75
  }
}
layer {
  name: "pool2"
  type: "Pooling"
  bottom: "norm2"
  top: "pool2"
  pooling_param {
    pool: MAX
    kernel_size: 3
    stride: 2
  }
}
layer {
  name: "conv3"
  type: "Convolution"
  bottom: "pool2"
  top: "conv3"
  param {
    lr_mult: 1
    decay_mult: 1
  }
  param {
    lr_mult: 2
    decay_mult: 0
  }
  convolution_param {
    num_output: 384
    pad: 1
    kernel_size: 3
    weight_filler {
      type: "gaussian"
      std: 0.01
    }
    bias_filler {
      type: "constant"
      value: 0
    }
  }
}
layer {
  name: "relu3"
  type: "ReLU"
  bottom: "conv3"
  top: "conv3"
}
layer {
  name: "conv4"
  type: "Convolution"
  bottom: "conv3"
  top: "conv4"
  param {
    lr_mult: 1
    decay_mult: 1
  }
  param {
    lr_mult: 2
    decay_mult: 0
  }
  convolution_param {
    num_output: 384
    pad: 1
    kernel_size: 3
    group: 2
    weight_filler {
      type: "gaussian"
      std: 0.01
    }
    bias_filler {
      type: "constant"
      value: 0.1
    }
  }
}
layer {
  name: "relu4"
  type: "ReLU"
  bottom: "conv4"
  top: "conv4"
}
layer {
  name: "conv5"
  type: "Convolution"
  bottom: "conv4"
  top: "conv5"
  param {
    lr_mult: 1
    decay_mult: 1
  }
  param {
    lr_mult: 2
    decay_mult: 0
  }
  convolution_param {
    num_output: 256
    pad: 1
    kernel_size: 3
    group: 2
    weight_filler {
      type: "gaussian"
      std: 0.01
    }
    bias_filler {
      type: "constant"
      value: 0.1
    }
  }
}
layer {
  name: "relu5"
  type: "ReLU"
  bottom: "conv5"
  top: "conv5"
}
layer {
  name: "pool5"
  type: "Pooling"
  bottom: "conv5"
  top: "pool5"
  pooling_param {
    pool: MAX
    kernel_size: 3
    stride: 2
  }
}
layer {
  name: "fc6"
  type: "InnerProduct"
  bottom: "pool5"
  top: "fc6"
  param {
    lr_mult: 1
    decay_mult: 1
  }
  param {
    lr_mult: 2
    decay_mult: 0
  }
  inner_product_param {
    num_output: 4096
    weight_filler {
      type: "gaussian"
      std: 0.005
    }
    bias_filler {
      type: "constant"
      value: 0.1
    }
  }
}
layer {
  name: "relu6"
  type: "ReLU"
  bottom: "fc6"
  top: "fc6"
}
layer {
  name: "drop6"
  type: "Dropout"
  bottom: "fc6"
  top: "fc6"
  dropout_param {
    dropout_ratio: 0.5
  }
}
layer {
  name: "fc7"
  type: "InnerProduct"
  bottom: "fc6"
  top: "fc7"
  param {
    lr_mult: 1
    decay_mult: 1
  }
  param {
    lr_mult: 2
    decay_mult: 0
  }
  inner_product_param {
    num_output: 4096
    weight_filler {
      type: "gaussian"
      std: 0.005
    }
    bias_filler {
      type: "constant"
      value: 0.1
    }
  }
}
layer {
  name: "relu7"
  type: "ReLU"
  bottom: "fc7"
  top: "fc7"
}
layer {
  name: "drop7"
  type: "Dropout"
  bottom: "fc7"
  top: "fc7"
  dropout_param {
    dropout_ratio: 0.5
  }
}
layer {
  name: "fc8_flickr"
  type: "InnerProduct"
  bottom: "fc7"
  top: "fc8_flickr"
  param {
    lr_mult: 10
    decay_mult: 1
  }
  param {
    lr_mult: 20
    decay_mult: 0
  }
  inner_product_param {
    num_output: 7
    weight_filler {
      type: "gaussian"
      std: 0.01
    }
    bias_filler {
      type: "constant"
      value: 0
    }
  }
}
layer {
  name: "accuracy"
  type: "Accuracy"
  bottom: "fc8_flickr"
  bottom: "label"
  top: "accuracy"
  include {
    phase: TEST
  }
}
layer {
  name: "loss"
  type: "SoftmaxWithLoss"
  bottom: "fc8_flickr"
  bottom: "label"
  top: "loss"
}
I0115 09:59:28.550673  9473 layer_factory.hpp:77] Creating layer data
I0115 09:59:28.550747  9473 db_lmdb.cpp:35] Opened lmdb ./data2/rail_val_lmdb
I0115 09:59:28.550779  9473 net.cpp:84] Creating Layer data
I0115 09:59:28.550788  9473 net.cpp:380] data -> data
I0115 09:59:28.550797  9473 net.cpp:380] data -> label
I0115 09:59:28.551013  9473 data_layer.cpp:45] output data size: 100,3,200,200
I0115 09:59:28.666817  9473 net.cpp:122] Setting up data
I0115 09:59:28.666877  9473 net.cpp:129] Top shape: 100 3 200 200 (12000000)
I0115 09:59:28.666882  9473 net.cpp:129] Top shape: 100 (100)
I0115 09:59:28.666887  9473 net.cpp:137] Memory required for data: 48000400
I0115 09:59:28.666895  9473 layer_factory.hpp:77] Creating layer label_data_1_split
I0115 09:59:28.666913  9473 net.cpp:84] Creating Layer label_data_1_split
I0115 09:59:28.666918  9473 net.cpp:406] label_data_1_split <- label
I0115 09:59:28.666929  9473 net.cpp:380] label_data_1_split -> label_data_1_split_0
I0115 09:59:28.666941  9473 net.cpp:380] label_data_1_split -> label_data_1_split_1
I0115 09:59:28.667279  9473 net.cpp:122] Setting up label_data_1_split
I0115 09:59:28.667347  9473 net.cpp:129] Top shape: 100 (100)
I0115 09:59:28.667361  9473 net.cpp:129] Top shape: 100 (100)
I0115 09:59:28.667367  9473 net.cpp:137] Memory required for data: 48001200
I0115 09:59:28.667390  9473 layer_factory.hpp:77] Creating layer conv1
I0115 09:59:28.667423  9473 net.cpp:84] Creating Layer conv1
I0115 09:59:28.667435  9473 net.cpp:406] conv1 <- data
I0115 09:59:28.667454  9473 net.cpp:380] conv1 -> conv1
I0115 09:59:28.674952  9473 net.cpp:122] Setting up conv1
I0115 09:59:28.674983  9473 net.cpp:129] Top shape: 100 96 48 48 (22118400)
I0115 09:59:28.674993  9473 net.cpp:137] Memory required for data: 136474800
I0115 09:59:28.675014  9473 layer_factory.hpp:77] Creating layer relu1
I0115 09:59:28.675030  9473 net.cpp:84] Creating Layer relu1
I0115 09:59:28.675038  9473 net.cpp:406] relu1 <- conv1
I0115 09:59:28.675060  9473 net.cpp:367] relu1 -> conv1 (in-place)
I0115 09:59:28.675390  9473 net.cpp:122] Setting up relu1
I0115 09:59:28.675413  9473 net.cpp:129] Top shape: 100 96 48 48 (22118400)
I0115 09:59:28.675421  9473 net.cpp:137] Memory required for data: 224948400
I0115 09:59:28.675431  9473 layer_factory.hpp:77] Creating layer norm1
I0115 09:59:28.675446  9473 net.cpp:84] Creating Layer norm1
I0115 09:59:28.675454  9473 net.cpp:406] norm1 <- conv1
I0115 09:59:28.675469  9473 net.cpp:380] norm1 -> norm1
I0115 09:59:28.677006  9473 net.cpp:122] Setting up norm1
I0115 09:59:28.677033  9473 net.cpp:129] Top shape: 100 96 48 48 (22118400)
I0115 09:59:28.677042  9473 net.cpp:137] Memory required for data: 313422000
I0115 09:59:28.677049  9473 layer_factory.hpp:77] Creating layer pool1
I0115 09:59:28.677064  9473 net.cpp:84] Creating Layer pool1
I0115 09:59:28.677076  9473 net.cpp:406] pool1 <- norm1
I0115 09:59:28.677088  9473 net.cpp:380] pool1 -> pool1
I0115 09:59:28.677161  9473 net.cpp:122] Setting up pool1
I0115 09:59:28.677179  9473 net.cpp:129] Top shape: 100 96 24 24 (5529600)
I0115 09:59:28.677187  9473 net.cpp:137] Memory required for data: 335540400
I0115 09:59:28.677194  9473 layer_factory.hpp:77] Creating layer conv2
I0115 09:59:28.677214  9473 net.cpp:84] Creating Layer conv2
I0115 09:59:28.677223  9473 net.cpp:406] conv2 <- pool1
I0115 09:59:28.677235  9473 net.cpp:380] conv2 -> conv2
I0115 09:59:28.688030  9473 net.cpp:122] Setting up conv2
I0115 09:59:28.688061  9473 net.cpp:129] Top shape: 100 256 24 24 (14745600)
I0115 09:59:28.688071  9473 net.cpp:137] Memory required for data: 394522800
I0115 09:59:28.688088  9473 layer_factory.hpp:77] Creating layer relu2
I0115 09:59:28.688104  9473 net.cpp:84] Creating Layer relu2
I0115 09:59:28.688112  9473 net.cpp:406] relu2 <- conv2
I0115 09:59:28.688124  9473 net.cpp:367] relu2 -> conv2 (in-place)
I0115 09:59:28.689488  9473 net.cpp:122] Setting up relu2
I0115 09:59:28.689517  9473 net.cpp:129] Top shape: 100 256 24 24 (14745600)
I0115 09:59:28.689524  9473 net.cpp:137] Memory required for data: 453505200
I0115 09:59:28.689532  9473 layer_factory.hpp:77] Creating layer norm2
I0115 09:59:28.689563  9473 net.cpp:84] Creating Layer norm2
I0115 09:59:28.689586  9473 net.cpp:406] norm2 <- conv2
I0115 09:59:28.689599  9473 net.cpp:380] norm2 -> norm2
I0115 09:59:28.689946  9473 net.cpp:122] Setting up norm2
I0115 09:59:28.689965  9473 net.cpp:129] Top shape: 100 256 24 24 (14745600)
I0115 09:59:28.689973  9473 net.cpp:137] Memory required for data: 512487600
I0115 09:59:28.689980  9473 layer_factory.hpp:77] Creating layer pool2
I0115 09:59:28.689998  9473 net.cpp:84] Creating Layer pool2
I0115 09:59:28.690007  9473 net.cpp:406] pool2 <- norm2
I0115 09:59:28.690017  9473 net.cpp:380] pool2 -> pool2
I0115 09:59:28.690089  9473 net.cpp:122] Setting up pool2
I0115 09:59:28.690104  9473 net.cpp:129] Top shape: 100 256 12 12 (3686400)
I0115 09:59:28.690111  9473 net.cpp:137] Memory required for data: 527233200
I0115 09:59:28.690119  9473 layer_factory.hpp:77] Creating layer conv3
I0115 09:59:28.690136  9473 net.cpp:84] Creating Layer conv3
I0115 09:59:28.690145  9473 net.cpp:406] conv3 <- pool2
I0115 09:59:28.690158  9473 net.cpp:380] conv3 -> conv3
I0115 09:59:28.710569  9473 net.cpp:122] Setting up conv3
I0115 09:59:28.710604  9473 net.cpp:129] Top shape: 100 384 12 12 (5529600)
I0115 09:59:28.710614  9473 net.cpp:137] Memory required for data: 549351600
I0115 09:59:28.710631  9473 layer_factory.hpp:77] Creating layer relu3
I0115 09:59:28.710644  9473 net.cpp:84] Creating Layer relu3
I0115 09:59:28.710651  9473 net.cpp:406] relu3 <- conv3
I0115 09:59:28.710664  9473 net.cpp:367] relu3 -> conv3 (in-place)
I0115 09:59:28.710966  9473 net.cpp:122] Setting up relu3
I0115 09:59:28.710984  9473 net.cpp:129] Top shape: 100 384 12 12 (5529600)
I0115 09:59:28.710991  9473 net.cpp:137] Memory required for data: 571470000
I0115 09:59:28.710999  9473 layer_factory.hpp:77] Creating layer conv4
I0115 09:59:28.711017  9473 net.cpp:84] Creating Layer conv4
I0115 09:59:28.711024  9473 net.cpp:406] conv4 <- conv3
I0115 09:59:28.711038  9473 net.cpp:380] conv4 -> conv4
I0115 09:59:28.727598  9473 net.cpp:122] Setting up conv4
I0115 09:59:28.727627  9473 net.cpp:129] Top shape: 100 384 12 12 (5529600)
I0115 09:59:28.727634  9473 net.cpp:137] Memory required for data: 593588400
I0115 09:59:28.727646  9473 layer_factory.hpp:77] Creating layer relu4
I0115 09:59:28.727658  9473 net.cpp:84] Creating Layer relu4
I0115 09:59:28.727664  9473 net.cpp:406] relu4 <- conv4
I0115 09:59:28.727674  9473 net.cpp:367] relu4 -> conv4 (in-place)
I0115 09:59:28.727972  9473 net.cpp:122] Setting up relu4
I0115 09:59:28.727989  9473 net.cpp:129] Top shape: 100 384 12 12 (5529600)
I0115 09:59:28.727996  9473 net.cpp:137] Memory required for data: 615706800
I0115 09:59:28.728003  9473 layer_factory.hpp:77] Creating layer conv5
I0115 09:59:28.728016  9473 net.cpp:84] Creating Layer conv5
I0115 09:59:28.728024  9473 net.cpp:406] conv5 <- conv4
I0115 09:59:28.728037  9473 net.cpp:380] conv5 -> conv5
I0115 09:59:28.742960  9473 net.cpp:122] Setting up conv5
I0115 09:59:28.742985  9473 net.cpp:129] Top shape: 100 256 12 12 (3686400)
I0115 09:59:28.742992  9473 net.cpp:137] Memory required for data: 630452400
I0115 09:59:28.743010  9473 layer_factory.hpp:77] Creating layer relu5
I0115 09:59:28.743021  9473 net.cpp:84] Creating Layer relu5
I0115 09:59:28.743026  9473 net.cpp:406] relu5 <- conv5
I0115 09:59:28.743036  9473 net.cpp:367] relu5 -> conv5 (in-place)
I0115 09:59:28.743309  9473 net.cpp:122] Setting up relu5
I0115 09:59:28.743325  9473 net.cpp:129] Top shape: 100 256 12 12 (3686400)
I0115 09:59:28.743331  9473 net.cpp:137] Memory required for data: 645198000
I0115 09:59:28.743338  9473 layer_factory.hpp:77] Creating layer pool5
I0115 09:59:28.743355  9473 net.cpp:84] Creating Layer pool5
I0115 09:59:28.743361  9473 net.cpp:406] pool5 <- conv5
I0115 09:59:28.743371  9473 net.cpp:380] pool5 -> pool5
I0115 09:59:28.743440  9473 net.cpp:122] Setting up pool5
I0115 09:59:28.743453  9473 net.cpp:129] Top shape: 100 256 6 6 (921600)
I0115 09:59:28.743458  9473 net.cpp:137] Memory required for data: 648884400
I0115 09:59:28.743463  9473 layer_factory.hpp:77] Creating layer fc6
I0115 09:59:28.743504  9473 net.cpp:84] Creating Layer fc6
I0115 09:59:28.743510  9473 net.cpp:406] fc6 <- pool5
I0115 09:59:28.743522  9473 net.cpp:380] fc6 -> fc6
I0115 09:59:29.241287  9473 net.cpp:122] Setting up fc6
I0115 09:59:29.241345  9473 net.cpp:129] Top shape: 100 4096 (409600)
I0115 09:59:29.241353  9473 net.cpp:137] Memory required for data: 650522800
I0115 09:59:29.241367  9473 layer_factory.hpp:77] Creating layer relu6
I0115 09:59:29.241385  9473 net.cpp:84] Creating Layer relu6
I0115 09:59:29.241400  9473 net.cpp:406] relu6 <- fc6
I0115 09:59:29.241410  9473 net.cpp:367] relu6 -> fc6 (in-place)
I0115 09:59:29.241714  9473 net.cpp:122] Setting up relu6
I0115 09:59:29.241729  9473 net.cpp:129] Top shape: 100 4096 (409600)
I0115 09:59:29.241734  9473 net.cpp:137] Memory required for data: 652161200
I0115 09:59:29.241739  9473 layer_factory.hpp:77] Creating layer drop6
I0115 09:59:29.241751  9473 net.cpp:84] Creating Layer drop6
I0115 09:59:29.241757  9473 net.cpp:406] drop6 <- fc6
I0115 09:59:29.241763  9473 net.cpp:367] drop6 -> fc6 (in-place)
I0115 09:59:29.241804  9473 net.cpp:122] Setting up drop6
I0115 09:59:29.241814  9473 net.cpp:129] Top shape: 100 4096 (409600)
I0115 09:59:29.241819  9473 net.cpp:137] Memory required for data: 653799600
I0115 09:59:29.241823  9473 layer_factory.hpp:77] Creating layer fc7
I0115 09:59:29.241835  9473 net.cpp:84] Creating Layer fc7
I0115 09:59:29.241842  9473 net.cpp:406] fc7 <- fc6
I0115 09:59:29.241848  9473 net.cpp:380] fc7 -> fc7
I0115 09:59:29.439307  9473 net.cpp:122] Setting up fc7
I0115 09:59:29.439364  9473 net.cpp:129] Top shape: 100 4096 (409600)
I0115 09:59:29.439369  9473 net.cpp:137] Memory required for data: 655438000
I0115 09:59:29.439380  9473 layer_factory.hpp:77] Creating layer relu7
I0115 09:59:29.439390  9473 net.cpp:84] Creating Layer relu7
I0115 09:59:29.439396  9473 net.cpp:406] relu7 <- fc7
I0115 09:59:29.439404  9473 net.cpp:367] relu7 -> fc7 (in-place)
I0115 09:59:29.440340  9473 net.cpp:122] Setting up relu7
I0115 09:59:29.440352  9473 net.cpp:129] Top shape: 100 4096 (409600)
I0115 09:59:29.440356  9473 net.cpp:137] Memory required for data: 657076400
I0115 09:59:29.440361  9473 layer_factory.hpp:77] Creating layer drop7
I0115 09:59:29.440372  9473 net.cpp:84] Creating Layer drop7
I0115 09:59:29.440377  9473 net.cpp:406] drop7 <- fc7
I0115 09:59:29.440382  9473 net.cpp:367] drop7 -> fc7 (in-place)
I0115 09:59:29.440416  9473 net.cpp:122] Setting up drop7
I0115 09:59:29.440423  9473 net.cpp:129] Top shape: 100 4096 (409600)
I0115 09:59:29.440426  9473 net.cpp:137] Memory required for data: 658714800
I0115 09:59:29.440430  9473 layer_factory.hpp:77] Creating layer fc8_flickr
I0115 09:59:29.440438  9473 net.cpp:84] Creating Layer fc8_flickr
I0115 09:59:29.440443  9473 net.cpp:406] fc8_flickr <- fc7
I0115 09:59:29.440449  9473 net.cpp:380] fc8_flickr -> fc8_flickr
I0115 09:59:29.440819  9473 net.cpp:122] Setting up fc8_flickr
I0115 09:59:29.440830  9473 net.cpp:129] Top shape: 100 7 (700)
I0115 09:59:29.440834  9473 net.cpp:137] Memory required for data: 658717600
I0115 09:59:29.440840  9473 layer_factory.hpp:77] Creating layer fc8_flickr_fc8_flickr_0_split
I0115 09:59:29.440846  9473 net.cpp:84] Creating Layer fc8_flickr_fc8_flickr_0_split
I0115 09:59:29.440851  9473 net.cpp:406] fc8_flickr_fc8_flickr_0_split <- fc8_flickr
I0115 09:59:29.440856  9473 net.cpp:380] fc8_flickr_fc8_flickr_0_split -> fc8_flickr_fc8_flickr_0_split_0
I0115 09:59:29.440865  9473 net.cpp:380] fc8_flickr_fc8_flickr_0_split -> fc8_flickr_fc8_flickr_0_split_1
I0115 09:59:29.440899  9473 net.cpp:122] Setting up fc8_flickr_fc8_flickr_0_split
I0115 09:59:29.440907  9473 net.cpp:129] Top shape: 100 7 (700)
I0115 09:59:29.440910  9473 net.cpp:129] Top shape: 100 7 (700)
I0115 09:59:29.440913  9473 net.cpp:137] Memory required for data: 658723200
I0115 09:59:29.440917  9473 layer_factory.hpp:77] Creating layer accuracy
I0115 09:59:29.440927  9473 net.cpp:84] Creating Layer accuracy
I0115 09:59:29.440930  9473 net.cpp:406] accuracy <- fc8_flickr_fc8_flickr_0_split_0
I0115 09:59:29.440944  9473 net.cpp:406] accuracy <- label_data_1_split_0
I0115 09:59:29.440960  9473 net.cpp:380] accuracy -> accuracy
…
