…
I0115 10:37:01.033226 11909 net.cpp:294] The NetState phase (0) differed from the phase (1) specified by a rule in layer mnist
I0115 10:37:01.033249 11909 net.cpp:294] The NetState phase (0) differed from the phase (1) specified by a rule in layer accuracy
I0115 10:37:01.033370 11909 net.cpp:51] Initializing net from parameters: 
name: "LeNet"
state {
  phase: TRAIN
  level: 0
  stage: ""
}
layer {
  name: "mnist"
  type: "Data"
  top: "data"
  top: "label"
  include {
    phase: TRAIN
  }
  transform_param {
    scale: 0.00390625
  }
  data_param {
    source: "./data2/rail_train_lmdb"
    batch_size: 128
    backend: LMDB
  }
}
layer {
  name: "conv1"
  type: "Convolution"
  bottom: "data"
  top: "conv1"
  param {
    lr_mult: 1
  }
  param {
    lr_mult: 2
  }
  convolution_param {
    num_output: 32
    kernel_size: 3
    stride: 1
    weight_filler {
      type: "xavier"
    }
    bias_filler {
      type: "constant"
    }
  }
}
layer {
  name: "relu1"
  type: "ReLU"
  bottom: "conv1"
  top: "conv1"
}
layer {
  name: "norm1"
  type: "LRN"
  bottom: "conv1"
  top: "norm1"
  lrn_param {
    local_size: 3
    alpha: 0.0001
    beta: 0.75
  }
}
layer {
  name: "pool1"
  type: "Pooling"
  bottom: "norm1"
  top: "pool1"
  pooling_param {
    pool: MAX
    kernel_size: 3
    stride: 2
  }
}
layer {
  name: "conv2"
  type: "Convolution"
  bottom: "pool1"
  top: "conv2"
  param {
    lr_mult: 1
  }
  param {
    lr_mult: 2
  }
  convolution_param {
    num_output: 64
    kernel_size: 3
    stride: 1
    weight_filler {
      type: "xavier"
    }
    bias_filler {
      type: "constant"
    }
  }
}
layer {
  name: "relu2"
  type: "ReLU"
  bottom: "conv2"
  top: "conv2"
}
layer {
  name: "norm2"
  type: "LRN"
  bottom: "conv2"
  top: "norm2"
  lrn_param {
    local_size: 5
    alpha: 0.0001
    beta: 0.75
  }
}
layer {
  name: "pool2"
  type: "Pooling"
  bottom: "norm2"
  top: "pool2"
  pooling_param {
    pool: MAX
    kernel_size: 3
    stride: 2
  }
}
layer {
  name: "conv3"
  type: "Convolution"
  bottom: "pool2"
  top: "conv3"
  param {
    lr_mult: 1
  }
  param {
    lr_mult: 2
  }
  convolution_param {
    num_output: 128
    kernel_size: 3
    stride: 1
    weight_filler {
      type: "xavier"
    }
    bias_filler {
      type: "constant"
    }
  }
}
layer {
  name: "relu3"
  type: "ReLU"
  bottom: "conv3"
  top: "conv3"
}
layer {
  name: "pool3"
  type: "Pooling"
  bottom: "conv3"
  top: "pool3"
  pooling_param {
    pool: MAX
    kernel_size: 3
    stride: 2
  }
}
layer {
  name: "conv4"
  type: "Convolution"
  bottom: "pool3"
  top: "conv4"
  param {
    lr_mult: 1
  }
  param {
    lr_mult: 2
  }
  convolution_param {
    num_output: 256
    kernel_size: 3
    stride: 1
    weight_filler {
      type: "xavier"
    }
    bias_filler {
      type: "constant"
    }
  }
}
layer {
  name: "relu4"
  type: "ReLU"
  bottom: "conv4"
  top: "conv4"
}
layer {
  name: "pool4"
  type: "Pooling"
  bottom: "conv4"
  top: "pool4"
  pooling_param {
    pool: MAX
    kernel_size: 3
    stride: 2
  }
}
layer {
  name: "ip1"
  type: "InnerProduct"
  bottom: "pool4"
  top: "ip1"
  param {
    lr_mult: 1
  }
  param {
    lr_mult: 2
  }
  inner_product_param {
    num_output: 1024
    weight_filler {
      type: "xavier"
    }
    bias_filler {
      type: "constant"
    }
  }
}
layer {
  name: "relu5"
  type: "ReLU"
  bottom: "ip1"
  top: "ip1"
}
layer {
  name: "drop5"
  type: "Dropout"
  bottom: "ip1"
  top: "ip1"
  dropout_param {
    dropout_ratio: 0.5
  }
}
layer {
  name: "ip2"
  type: "InnerProduct"
  bottom: "ip1"
  top: "ip2"
  param {
    lr_mult: 1
  }
  param {
    lr_mult: 2
  }
  inner_product_param {
    num_output: 128
    weight_filler {
      type: "xavier"
    }
    bias_filler {
      type: "constant"
    }
  }
}
layer {
  name: "relu6"
  type: "ReLU"
  bottom: "ip2"
  top: "ip2"
}
layer {
  name: "drop6"
  type: "Dropout"
  bottom: "ip2"
  top: "ip2"
  dropout_param {
    dropout_ratio: 0.5
  }
}
layer {
  name: "ip3"
  type: "InnerProduct"
  bottom: "ip2"
  top: "ip3"
  param {
    lr_mult: 1
  }
  param {
    lr_mult: 2
  }
  inner_product_param {
    num_output: 7
    weight_filler {
      type: "xavier"
    }
    bias_filler {
      type: "constant"
    }
  }
}
layer {
  name: "loss"
  type: "SoftmaxWithLoss"
  bottom: "ip3"
  bottom: "label"
  top: "loss"
}
I0115 10:37:01.033486 11909 layer_factory.hpp:77] Creating layer mnist
I0115 10:37:01.033655 11909 db_lmdb.cpp:35] Opened lmdb ./data2/rail_train_lmdb
I0115 10:37:01.033700 11909 net.cpp:84] Creating Layer mnist
I0115 10:37:01.033710 11909 net.cpp:380] mnist -> data
I0115 10:37:01.033737 11909 net.cpp:380] mnist -> label
I0115 10:37:01.035018 11909 data_layer.cpp:45] output data size: 128,3,200,200
I0115 10:37:01.235350 11909 net.cpp:122] Setting up mnist
I0115 10:37:01.235409 11909 net.cpp:129] Top shape: 128 3 200 200 (15360000)
I0115 10:37:01.235421 11909 net.cpp:129] Top shape: 128 (128)
I0115 10:37:01.235426 11909 net.cpp:137] Memory required for data: 61440512
I0115 10:37:01.235442 11909 layer_factory.hpp:77] Creating layer conv1
I0115 10:37:01.235482 11909 net.cpp:84] Creating Layer conv1
I0115 10:37:01.235493 11909 net.cpp:406] conv1 <- data
I0115 10:37:01.235514 11909 net.cpp:380] conv1 -> conv1
I0115 10:37:02.281445 11909 net.cpp:122] Setting up conv1
I0115 10:37:02.281489 11909 net.cpp:129] Top shape: 128 32 198 198 (160579584)
I0115 10:37:02.281497 11909 net.cpp:137] Memory required for data: 703758848
I0115 10:37:02.281522 11909 layer_factory.hpp:77] Creating layer relu1
I0115 10:37:02.281535 11909 net.cpp:84] Creating Layer relu1
I0115 10:37:02.281541 11909 net.cpp:406] relu1 <- conv1
I0115 10:37:02.281548 11909 net.cpp:367] relu1 -> conv1 (in-place)
I0115 10:37:02.281710 11909 net.cpp:122] Setting up relu1
I0115 10:37:02.281723 11909 net.cpp:129] Top shape: 128 32 198 198 (160579584)
I0115 10:37:02.281728 11909 net.cpp:137] Memory required for data: 1346077184
I0115 10:37:02.281731 11909 layer_factory.hpp:77] Creating layer norm1
I0115 10:37:02.281744 11909 net.cpp:84] Creating Layer norm1
I0115 10:37:02.281749 11909 net.cpp:406] norm1 <- conv1
I0115 10:37:02.281754 11909 net.cpp:380] norm1 -> norm1
I0115 10:37:02.282503 11909 net.cpp:122] Setting up norm1
I0115 10:37:02.282518 11909 net.cpp:129] Top shape: 128 32 198 198 (160579584)
I0115 10:37:02.282522 11909 net.cpp:137] Memory required for data: 1988395520
I0115 10:37:02.282526 11909 layer_factory.hpp:77] Creating layer pool1
I0115 10:37:02.282536 11909 net.cpp:84] Creating Layer pool1
I0115 10:37:02.282541 11909 net.cpp:406] pool1 <- norm1
I0115 10:37:02.282546 11909 net.cpp:380] pool1 -> pool1
I0115 10:37:02.282591 11909 net.cpp:122] Setting up pool1
I0115 10:37:02.282599 11909 net.cpp:129] Top shape: 128 32 99 99 (40144896)
I0115 10:37:02.282603 11909 net.cpp:137] Memory required for data: 2148975104
I0115 10:37:02.282606 11909 layer_factory.hpp:77] Creating layer conv2
I0115 10:37:02.282618 11909 net.cpp:84] Creating Layer conv2
I0115 10:37:02.282624 11909 net.cpp:406] conv2 <- pool1
I0115 10:37:02.282629 11909 net.cpp:380] conv2 -> conv2
I0115 10:37:02.285503 11909 net.cpp:122] Setting up conv2
I0115 10:37:02.285519 11909 net.cpp:129] Top shape: 128 64 97 97 (77078528)
I0115 10:37:02.285524 11909 net.cpp:137] Memory required for data: 2457289216
I0115 10:37:02.285534 11909 layer_factory.hpp:77] Creating layer relu2
I0115 10:37:02.285540 11909 net.cpp:84] Creating Layer relu2
I0115 10:37:02.285552 11909 net.cpp:406] relu2 <- conv2
I0115 10:37:02.285568 11909 net.cpp:367] relu2 -> conv2 (in-place)
I0115 10:37:02.285723 11909 net.cpp:122] Setting up relu2
I0115 10:37:02.285732 11909 net.cpp:129] Top shape: 128 64 97 97 (77078528)
I0115 10:37:02.285737 11909 net.cpp:137] Memory required for data: 2765603328
I0115 10:37:02.285740 11909 layer_factory.hpp:77] Creating layer norm2
I0115 10:37:02.285748 11909 net.cpp:84] Creating Layer norm2
I0115 10:37:02.285751 11909 net.cpp:406] norm2 <- conv2
I0115 10:37:02.285758 11909 net.cpp:380] norm2 -> norm2
I0115 10:37:02.285924 11909 net.cpp:122] Setting up norm2
I0115 10:37:02.285933 11909 net.cpp:129] Top shape: 128 64 97 97 (77078528)
I0115 10:37:02.285938 11909 net.cpp:137] Memory required for data: 3073917440
I0115 10:37:02.285941 11909 layer_factory.hpp:77] Creating layer pool2
I0115 10:37:02.285948 11909 net.cpp:84] Creating Layer pool2
I0115 10:37:02.285953 11909 net.cpp:406] pool2 <- norm2
I0115 10:37:02.285959 11909 net.cpp:380] pool2 -> pool2
I0115 10:37:02.285989 11909 net.cpp:122] Setting up pool2
I0115 10:37:02.285996 11909 net.cpp:129] Top shape: 128 64 48 48 (18874368)
I0115 10:37:02.286000 11909 net.cpp:137] Memory required for data: 3149414912
I0115 10:37:02.286003 11909 layer_factory.hpp:77] Creating layer conv3
I0115 10:37:02.286011 11909 net.cpp:84] Creating Layer conv3
I0115 10:37:02.286016 11909 net.cpp:406] conv3 <- pool2
I0115 10:37:02.286021 11909 net.cpp:380] conv3 -> conv3
I0115 10:37:02.289621 11909 net.cpp:122] Setting up conv3
I0115 10:37:02.289638 11909 net.cpp:129] Top shape: 128 128 46 46 (34668544)
I0115 10:37:02.289644 11909 net.cpp:137] Memory required for data: 3288089088
I0115 10:37:02.289652 11909 layer_factory.hpp:77] Creating layer relu3
I0115 10:37:02.289659 11909 net.cpp:84] Creating Layer relu3
I0115 10:37:02.289664 11909 net.cpp:406] relu3 <- conv3
I0115 10:37:02.289669 11909 net.cpp:367] relu3 -> conv3 (in-place)
I0115 10:37:02.289825 11909 net.cpp:122] Setting up relu3
I0115 10:37:02.289835 11909 net.cpp:129] Top shape: 128 128 46 46 (34668544)
I0115 10:37:02.289839 11909 net.cpp:137] Memory required for data: 3426763264
I0115 10:37:02.289844 11909 layer_factory.hpp:77] Creating layer pool3
I0115 10:37:02.289849 11909 net.cpp:84] Creating Layer pool3
I0115 10:37:02.289854 11909 net.cpp:406] pool3 <- conv3
I0115 10:37:02.289858 11909 net.cpp:380] pool3 -> pool3
I0115 10:37:02.289896 11909 net.cpp:122] Setting up pool3
I0115 10:37:02.289902 11909 net.cpp:129] Top shape: 128 128 23 23 (8667136)
I0115 10:37:02.289906 11909 net.cpp:137] Memory required for data: 3461431808
I0115 10:37:02.289909 11909 layer_factory.hpp:77] Creating layer conv4
I0115 10:37:02.289918 11909 net.cpp:84] Creating Layer conv4
I0115 10:37:02.289922 11909 net.cpp:406] conv4 <- pool3
I0115 10:37:02.289928 11909 net.cpp:380] conv4 -> conv4
I0115 10:37:02.293190 11909 net.cpp:122] Setting up conv4
I0115 10:37:02.293206 11909 net.cpp:129] Top shape: 128 256 21 21 (14450688)
I0115 10:37:02.293211 11909 net.cpp:137] Memory required for data: 3519234560
I0115 10:37:02.293218 11909 layer_factory.hpp:77] Creating layer relu4
I0115 10:37:02.293225 11909 net.cpp:84] Creating Layer relu4
I0115 10:37:02.293229 11909 net.cpp:406] relu4 <- conv4
I0115 10:37:02.293236 11909 net.cpp:367] relu4 -> conv4 (in-place)
I0115 10:37:02.293387 11909 net.cpp:122] Setting up relu4
I0115 10:37:02.293397 11909 net.cpp:129] Top shape: 128 256 21 21 (14450688)
I0115 10:37:02.293401 11909 net.cpp:137] Memory required for data: 3577037312
I0115 10:37:02.293404 11909 layer_factory.hpp:77] Creating layer pool4
I0115 10:37:02.293411 11909 net.cpp:84] Creating Layer pool4
I0115 10:37:02.293414 11909 net.cpp:406] pool4 <- conv4
I0115 10:37:02.293421 11909 net.cpp:380] pool4 -> pool4
I0115 10:37:02.293459 11909 net.cpp:122] Setting up pool4
I0115 10:37:02.293465 11909 net.cpp:129] Top shape: 128 256 10 10 (3276800)
I0115 10:37:02.293469 11909 net.cpp:137] Memory required for data: 3590144512
I0115 10:37:02.293473 11909 layer_factory.hpp:77] Creating layer ip1
I0115 10:37:02.293488 11909 net.cpp:84] Creating Layer ip1
I0115 10:37:02.293491 11909 net.cpp:406] ip1 <- pool4
I0115 10:37:02.293503 11909 net.cpp:380] ip1 -> ip1
I0115 10:37:02.475262 11909 net.cpp:122] Setting up ip1
I0115 10:37:02.475309 11909 net.cpp:129] Top shape: 128 1024 (131072)
I0115 10:37:02.475314 11909 net.cpp:137] Memory required for data: 3590668800
I0115 10:37:02.475332 11909 layer_factory.hpp:77] Creating layer relu5
I0115 10:37:02.475347 11909 net.cpp:84] Creating Layer relu5
I0115 10:37:02.475353 11909 net.cpp:406] relu5 <- ip1
I0115 10:37:02.475361 11909 net.cpp:367] relu5 -> ip1 (in-place)
I0115 10:37:02.476320 11909 net.cpp:122] Setting up relu5
I0115 10:37:02.476336 11909 net.cpp:129] Top shape: 128 1024 (131072)
I0115 10:37:02.476339 11909 net.cpp:137] Memory required for data: 3591193088
I0115 10:37:02.476343 11909 layer_factory.hpp:77] Creating layer drop5
I0115 10:37:02.476352 11909 net.cpp:84] Creating Layer drop5
I0115 10:37:02.476356 11909 net.cpp:406] drop5 <- ip1
I0115 10:37:02.476363 11909 net.cpp:367] drop5 -> ip1 (in-place)
I0115 10:37:02.476392 11909 net.cpp:122] Setting up drop5
I0115 10:37:02.476399 11909 net.cpp:129] Top shape: 128 1024 (131072)
I0115 10:37:02.476403 11909 net.cpp:137] Memory required for data: 3591717376
I0115 10:37:02.476406 11909 layer_factory.hpp:77] Creating layer ip2
I0115 10:37:02.476414 11909 net.cpp:84] Creating Layer ip2
I0115 10:37:02.476418 11909 net.cpp:406] ip2 <- ip1
I0115 10:37:02.476424 11909 net.cpp:380] ip2 -> ip2
I0115 10:37:02.477241 11909 net.cpp:122] Setting up ip2
I0115 10:37:02.477249 11909 net.cpp:129] Top shape: 128 128 (16384)
I0115 10:37:02.477253 11909 net.cpp:137] Memory required for data: 3591782912
I0115 10:37:02.477259 11909 layer_factory.hpp:77] Creating layer relu6
I0115 10:37:02.477265 11909 net.cpp:84] Creating Layer relu6
I0115 10:37:02.477269 11909 net.cpp:406] relu6 <- ip2
I0115 10:37:02.477275 11909 net.cpp:367] relu6 -> ip2 (in-place)
I0115 10:37:02.477435 11909 net.cpp:122] Setting up relu6
I0115 10:37:02.477444 11909 net.cpp:129] Top shape: 128 128 (16384)
I0115 10:37:02.477448 11909 net.cpp:137] Memory required for data: 3591848448
I0115 10:37:02.477452 11909 layer_factory.hpp:77] Creating layer drop6
I0115 10:37:02.477458 11909 net.cpp:84] Creating Layer drop6
I0115 10:37:02.477461 11909 net.cpp:406] drop6 <- ip2
I0115 10:37:02.477468 11909 net.cpp:367] drop6 -> ip2 (in-place)
I0115 10:37:02.477488 11909 net.cpp:122] Setting up drop6
I0115 10:37:02.477494 11909 net.cpp:129] Top shape: 128 128 (16384)
I0115 10:37:02.477497 11909 net.cpp:137] Memory required for data: 3591913984
I0115 10:37:02.477500 11909 layer_factory.hpp:77] Creating layer ip3
I0115 10:37:02.477509 11909 net.cpp:84] Creating Layer ip3
I0115 10:37:02.477512 11909 net.cpp:406] ip3 <- ip2
I0115 10:37:02.477519 11909 net.cpp:380] ip3 -> ip3
I0115 10:37:02.477614 11909 net.cpp:122] Setting up ip3
I0115 10:37:02.477620 11909 net.cpp:129] Top shape: 128 7 (896)
I0115 10:37:02.477624 11909 net.cpp:137] Memory required for data: 3591917568
I0115 10:37:02.477630 11909 layer_factory.hpp:77] Creating layer loss
I0115 10:37:02.477636 11909 net.cpp:84] Creating Layer loss
I0115 10:37:02.477640 11909 net.cpp:406] loss <- ip3
I0115 10:37:02.477645 11909 net.cpp:406] loss <- label
I0115 10:37:02.477653 11909 net.cpp:380] loss -> loss
I0115 10:37:02.477669 11909 layer_factory.hpp:77] Creating layer loss
…
I0115 10:37:02.478314 11909 solver.cpp:172] Creating test net (#0) specified by net file: ./lenet_mine.prototxt
I0115 10:37:02.478348 11909 net.cpp:294] The NetState phase (1) differed from the phase (0) specified by a rule in layer mnist
I0115 10:37:02.478474 11909 net.cpp:51] Initializing net from parameters: 
name: "LeNet"
state {
  phase: TEST
}
layer {
  name: "mnist"
  type: "Data"
  top: "data"
  top: "label"
  include {
    phase: TEST
  }
  transform_param {
    scale: 0.00390625
  }
  data_param {
    source: "./data2/rail_val_lmdb"
    batch_size: 100
    backend: LMDB
  }
}
layer {
  name: "conv1"
  type: "Convolution"
  bottom: "data"
  top: "conv1"
  param {
    lr_mult: 1
  }
  param {
    lr_mult: 2
  }
  convolution_param {
    num_output: 32
    kernel_size: 3
    stride: 1
    weight_filler {
      type: "xavier"
    }
    bias_filler {
      type: "constant"
    }
  }
}
layer {
  name: "relu1"
  type: "ReLU"
  bottom: "conv1"
  top: "conv1"
}
layer {
  name: "norm1"
  type: "LRN"
  bottom: "conv1"
  top: "norm1"
  lrn_param {
    local_size: 3
    alpha: 0.0001
    beta: 0.75
  }
}
layer {
  name: "pool1"
  type: "Pooling"
  bottom: "norm1"
  top: "pool1"
  pooling_param {
    pool: MAX
    kernel_size: 3
    stride: 2
  }
}
layer {
  name: "conv2"
  type: "Convolution"
  bottom: "pool1"
  top: "conv2"
  param {
    lr_mult: 1
  }
  param {
    lr_mult: 2
  }
  convolution_param {
    num_output: 64
    kernel_size: 3
    stride: 1
    weight_filler {
      type: "xavier"
    }
    bias_filler {
      type: "constant"
    }
  }
}
layer {
  name: "relu2"
  type: "ReLU"
  bottom: "conv2"
  top: "conv2"
}
layer {
  name: "norm2"
  type: "LRN"
  bottom: "conv2"
  top: "norm2"
  lrn_param {
    local_size: 5
    alpha: 0.0001
    beta: 0.75
  }
}
layer {
  name: "pool2"
  type: "Pooling"
  bottom: "norm2"
  top: "pool2"
  pooling_param {
    pool: MAX
    kernel_size: 3
    stride: 2
  }
}
layer {
  name: "conv3"
  type: "Convolution"
  bottom: "pool2"
  top: "conv3"
  param {
    lr_mult: 1
  }
  param {
    lr_mult: 2
  }
  convolution_param {
    num_output: 128
    kernel_size: 3
    stride: 1
    weight_filler {
      type: "xavier"
    }
    bias_filler {
      type: "constant"
    }
  }
}
layer {
  name: "relu3"
  type: "ReLU"
  bottom: "conv3"
  top: "conv3"
}
layer {
  name: "pool3"
  type: "Pooling"
  bottom: "conv3"
  top: "pool3"
  pooling_param {
    pool: MAX
    kernel_size: 3
    stride: 2
  }
}
layer {
  name: "conv4"
  type: "Convolution"
  bottom: "pool3"
  top: "conv4"
  param {
    lr_mult: 1
  }
  param {
    lr_mult: 2
  }
  convolution_param {
    num_output: 256
    kernel_size: 3
    stride: 1
    weight_filler {
      type: "xavier"
    }
    bias_filler {
      type: "constant"
    }
  }
}
layer {
  name: "relu4"
  type: "ReLU"
  bottom: "conv4"
  top: "conv4"
}
layer {
  name: "pool4"
  type: "Pooling"
  bottom: "conv4"
  top: "pool4"
  pooling_param {
    pool: MAX
    kernel_size: 3
    stride: 2
  }
}
layer {
  name: "ip1"
  type: "InnerProduct"
  bottom: "pool4"
  top: "ip1"
  param {
    lr_mult: 1
  }
  param {
    lr_mult: 2
  }
  inner_product_param {
    num_output: 1024
    weight_filler {
      type: "xavier"
    }
    bias_filler {
      type: "constant"
    }
  }
}
layer {
  name: "relu5"
  type: "ReLU"
  bottom: "ip1"
  top: "ip1"
}
layer {
  name: "drop5"
  type: "Dropout"
  bottom: "ip1"
  top: "ip1"
  dropout_param {
    dropout_ratio: 0.5
  }
}
layer {
  name: "ip2"
  type: "InnerProduct"
  bottom: "ip1"
  top: "ip2"
  param {
    lr_mult: 1
  }
  param {
    lr_mult: 2
  }
  inner_product_param {
    num_output: 128
    weight_filler {
      type: "xavier"
    }
    bias_filler {
      type: "constant"
    }
  }
}
layer {
  name: "relu6"
  type: "ReLU"
  bottom: "ip2"
  top: "ip2"
}
layer {
  name: "drop6"
  type: "Dropout"
  bottom: "ip2"
  top: "ip2"
  dropout_param {
    dropout_ratio: 0.5
  }
}
layer {
  name: "ip3"
  type: "InnerProduct"
  bottom: "ip2"
  top: "ip3"
  param {
    lr_mult: 1
  }
  param {
    lr_mult: 2
  }
  inner_product_param {
    num_output: 7
    weight_filler {
      type: "xavier"
    }
    bias_filler {
      type: "constant"
    }
  }
}
layer {
  name: "accuracy"
  type: "Accuracy"
  bottom: "ip3"
  bottom: "label"
  top: "accuracy"
  include {
    phase: TEST
  }
}
layer {
  name: "loss"
  type: "SoftmaxWithLoss"
  bottom: "ip3"
  bottom: "label"
  top: "loss"
}
I0115 10:37:02.478577 11909 layer_factory.hpp:77] Creating layer mnist
I0115 10:37:02.478646 11909 db_lmdb.cpp:35] Opened lmdb ./data2/rail_val_lmdb
I0115 10:37:02.478672 11909 net.cpp:84] Creating Layer mnist
I0115 10:37:02.478679 11909 net.cpp:380] mnist -> data
I0115 10:37:02.478688 11909 net.cpp:380] mnist -> label
I0115 10:37:02.478909 11909 data_layer.cpp:45] output data size: 100,3,200,200
I0115 10:37:02.621184 11909 net.cpp:122] Setting up mnist
I0115 10:37:02.621250 11909 net.cpp:129] Top shape: 100 3 200 200 (12000000)
I0115 10:37:02.621260 11909 net.cpp:129] Top shape: 100 (100)
I0115 10:37:02.621266 11909 net.cpp:137] Memory required for data: 48000400
I0115 10:37:02.621278 11909 layer_factory.hpp:77] Creating layer label_mnist_1_split
I0115 10:37:02.621299 11909 net.cpp:84] Creating Layer label_mnist_1_split
I0115 10:37:02.621306 11909 net.cpp:406] label_mnist_1_split <- label
I0115 10:37:02.621320 11909 net.cpp:380] label_mnist_1_split -> label_mnist_1_split_0
I0115 10:37:02.621335 11909 net.cpp:380] label_mnist_1_split -> label_mnist_1_split_1
I0115 10:37:02.621456 11909 net.cpp:122] Setting up label_mnist_1_split
I0115 10:37:02.621476 11909 net.cpp:129] Top shape: 100 (100)
I0115 10:37:02.621484 11909 net.cpp:129] Top shape: 100 (100)
I0115 10:37:02.621487 11909 net.cpp:137] Memory required for data: 48001200
I0115 10:37:02.621493 11909 layer_factory.hpp:77] Creating layer conv1
I0115 10:37:02.621515 11909 net.cpp:84] Creating Layer conv1
I0115 10:37:02.621522 11909 net.cpp:406] conv1 <- data
I0115 10:37:02.621533 11909 net.cpp:380] conv1 -> conv1
I0115 10:37:02.623608 11909 net.cpp:122] Setting up conv1
I0115 10:37:02.623632 11909 net.cpp:129] Top shape: 100 32 198 198 (125452800)
I0115 10:37:02.623639 11909 net.cpp:137] Memory required for data: 549812400
I0115 10:37:02.623656 11909 layer_factory.hpp:77] Creating layer relu1
I0115 10:37:02.623670 11909 net.cpp:84] Creating Layer relu1
I0115 10:37:02.623677 11909 net.cpp:406] relu1 <- conv1
I0115 10:37:02.623687 11909 net.cpp:367] relu1 -> conv1 (in-place)
I0115 10:37:02.627662 11909 net.cpp:122] Setting up relu1
I0115 10:37:02.627688 11909 net.cpp:129] Top shape: 100 32 198 198 (125452800)
I0115 10:37:02.627694 11909 net.cpp:137] Memory required for data: 1051623600
I0115 10:37:02.627701 11909 layer_factory.hpp:77] Creating layer norm1
I0115 10:37:02.627727 11909 net.cpp:84] Creating Layer norm1
I0115 10:37:02.627746 11909 net.cpp:406] norm1 <- conv1
I0115 10:37:02.627755 11909 net.cpp:380] norm1 -> norm1
I0115 10:37:02.628861 11909 net.cpp:122] Setting up norm1
I0115 10:37:02.628881 11909 net.cpp:129] Top shape: 100 32 198 198 (125452800)
I0115 10:37:02.628886 11909 net.cpp:137] Memory required for data: 1553434800
I0115 10:37:02.628892 11909 layer_factory.hpp:77] Creating layer pool1
I0115 10:37:02.628902 11909 net.cpp:84] Creating Layer pool1
I0115 10:37:02.628908 11909 net.cpp:406] pool1 <- norm1
I0115 10:37:02.628918 11909 net.cpp:380] pool1 -> pool1
I0115 10:37:02.628970 11909 net.cpp:122] Setting up pool1
I0115 10:37:02.628981 11909 net.cpp:129] Top shape: 100 32 99 99 (31363200)
I0115 10:37:02.628985 11909 net.cpp:137] Memory required for data: 1678887600
I0115 10:37:02.628990 11909 layer_factory.hpp:77] Creating layer conv2
I0115 10:37:02.629005 11909 net.cpp:84] Creating Layer conv2
I0115 10:37:02.629012 11909 net.cpp:406] conv2 <- pool1
I0115 10:37:02.629020 11909 net.cpp:380] conv2 -> conv2
I0115 10:37:02.630965 11909 net.cpp:122] Setting up conv2
I0115 10:37:02.630985 11909 net.cpp:129] Top shape: 100 64 97 97 (60217600)
I0115 10:37:02.630991 11909 net.cpp:137] Memory required for data: 1919758000
I0115 10:37:02.631006 11909 layer_factory.hpp:77] Creating layer relu2
I0115 10:37:02.631016 11909 net.cpp:84] Creating Layer relu2
I0115 10:37:02.631021 11909 net.cpp:406] relu2 <- conv2
I0115 10:37:02.631029 11909 net.cpp:367] relu2 -> conv2 (in-place)
I0115 10:37:02.631266 11909 net.cpp:122] Setting up relu2
I0115 10:37:02.631283 11909 net.cpp:129] Top shape: 100 64 97 97 (60217600)
I0115 10:37:02.631286 11909 net.cpp:137] Memory required for data: 2160628400
I0115 10:37:02.631292 11909 layer_factory.hpp:77] Creating layer norm2
I0115 10:37:02.631305 11909 net.cpp:84] Creating Layer norm2
I0115 10:37:02.631310 11909 net.cpp:406] norm2 <- conv2
I0115 10:37:02.631320 11909 net.cpp:380] norm2 -> norm2
I0115 10:37:02.631572 11909 net.cpp:122] Setting up norm2
I0115 10:37:02.631584 11909 net.cpp:129] Top shape: 100 64 97 97 (60217600)
I0115 10:37:02.631589 11909 net.cpp:137] Memory required for data: 2401498800
I0115 10:37:02.631594 11909 layer_factory.hpp:77] Creating layer pool2
I0115 10:37:02.631603 11909 net.cpp:84] Creating Layer pool2
I0115 10:37:02.631608 11909 net.cpp:406] pool2 <- norm2
I0115 10:37:02.631616 11909 net.cpp:380] pool2 -> pool2
I0115 10:37:02.631665 11909 net.cpp:122] Setting up pool2
I0115 10:37:02.631675 11909 net.cpp:129] Top shape: 100 64 48 48 (14745600)
I0115 10:37:02.631680 11909 net.cpp:137] Memory required for data: 2460481200
I0115 10:37:02.631685 11909 layer_factory.hpp:77] Creating layer conv3
I0115 10:37:02.631697 11909 net.cpp:84] Creating Layer conv3
I0115 10:37:02.631703 11909 net.cpp:406] conv3 <- pool2
I0115 10:37:02.631713 11909 net.cpp:380] conv3 -> conv3
I0115 10:37:02.635231 11909 net.cpp:122] Setting up conv3
I0115 10:37:02.635251 11909 net.cpp:129] Top shape: 100 128 46 46 (27084800)
I0115 10:37:02.635257 11909 net.cpp:137] Memory required for data: 2568820400
I0115 10:37:02.635269 11909 layer_factory.hpp:77] Creating layer relu3
I0115 10:37:02.635278 11909 net.cpp:84] Creating Layer relu3
I0115 10:37:02.635283 11909 net.cpp:406] relu3 <- conv3
I0115 10:37:02.635294 11909 net.cpp:367] relu3 -> conv3 (in-place)
I0115 10:37:02.635507 11909 net.cpp:122] Setting up relu3
I0115 10:37:02.635520 11909 net.cpp:129] Top shape: 100 128 46 46 (27084800)
I0115 10:37:02.635524 11909 net.cpp:137] Memory required for data: 2677159600
I0115 10:37:02.635530 11909 layer_factory.hpp:77] Creating layer pool3
I0115 10:37:02.635540 11909 net.cpp:84] Creating Layer pool3
I0115 10:37:02.635545 11909 net.cpp:406] pool3 <- conv3
I0115 10:37:02.635552 11909 net.cpp:380] pool3 -> pool3
I0115 10:37:02.635607 11909 net.cpp:122] Setting up pool3
I0115 10:37:02.635617 11909 net.cpp:129] Top shape: 100 128 23 23 (6771200)
I0115 10:37:02.635622 11909 net.cpp:137] Memory required for data: 2704244400
I0115 10:37:02.635630 11909 layer_factory.hpp:77] Creating layer conv4
I0115 10:37:02.635663 11909 net.cpp:84] Creating Layer conv4
I0115 10:37:02.635668 11909 net.cpp:406] conv4 <- pool3
I0115 10:37:02.635679 11909 net.cpp:380] conv4 -> conv4
I0115 10:37:02.639340 11909 net.cpp:122] Setting up conv4
I0115 10:37:02.639361 11909 net.cpp:129] Top shape: 100 256 21 21 (11289600)
I0115 10:37:02.639366 11909 net.cpp:137] Memory required for data: 2749402800
I0115 10:37:02.639375 11909 layer_factory.hpp:77] Creating layer relu4
I0115 10:37:02.639386 11909 net.cpp:84] Creating Layer relu4
I0115 10:37:02.639394 11909 net.cpp:406] relu4 <- conv4
I0115 10:37:02.639400 11909 net.cpp:367] relu4 -> conv4 (in-place)
I0115 10:37:02.639609 11909 net.cpp:122] Setting up relu4
I0115 10:37:02.639622 11909 net.cpp:129] Top shape: 100 256 21 21 (11289600)
I0115 10:37:02.639628 11909 net.cpp:137] Memory required for data: 2794561200
I0115 10:37:02.639633 11909 layer_factory.hpp:77] Creating layer pool4
I0115 10:37:02.639642 11909 net.cpp:84] Creating Layer pool4
I0115 10:37:02.639648 11909 net.cpp:406] pool4 <- conv4
I0115 10:37:02.639655 11909 net.cpp:380] pool4 -> pool4
I0115 10:37:02.639713 11909 net.cpp:122] Setting up pool4
I0115 10:37:02.639721 11909 net.cpp:129] Top shape: 100 256 10 10 (2560000)
I0115 10:37:02.639726 11909 net.cpp:137] Memory required for data: 2804801200
I0115 10:37:02.639731 11909 layer_factory.hpp:77] Creating layer ip1
I0115 10:37:02.639745 11909 net.cpp:84] Creating Layer ip1
I0115 10:37:02.639751 11909 net.cpp:406] ip1 <- pool4
I0115 10:37:02.639761 11909 net.cpp:380] ip1 -> ip1
I0115 10:37:02.857780 11909 net.cpp:122] Setting up ip1
I0115 10:37:02.857836 11909 net.cpp:129] Top shape: 100 1024 (102400)
I0115 10:37:02.857842 11909 net.cpp:137] Memory required for data: 2805210800
I0115 10:37:02.857863 11909 layer_factory.hpp:77] Creating layer relu5
I0115 10:37:02.857877 11909 net.cpp:84] Creating Layer relu5
I0115 10:37:02.857884 11909 net.cpp:406] relu5 <- ip1
I0115 10:37:02.857894 11909 net.cpp:367] relu5 -> ip1 (in-place)
I0115 10:37:02.859102 11909 net.cpp:122] Setting up relu5
I0115 10:37:02.859122 11909 net.cpp:129] Top shape: 100 1024 (102400)
I0115 10:37:02.859128 11909 net.cpp:137] Memory required for data: 2805620400
I0115 10:37:02.859133 11909 layer_factory.hpp:77] Creating layer drop5
I0115 10:37:02.859143 11909 net.cpp:84] Creating Layer drop5
I0115 10:37:02.859149 11909 net.cpp:406] drop5 <- ip1
I0115 10:37:02.859156 11909 net.cpp:367] drop5 -> ip1 (in-place)
I0115 10:37:02.859199 11909 net.cpp:122] Setting up drop5
I0115 10:37:02.859207 11909 net.cpp:129] Top shape: 100 1024 (102400)
I0115 10:37:02.859212 11909 net.cpp:137] Memory required for data: 2806030000
I0115 10:37:02.859216 11909 layer_factory.hpp:77] Creating layer ip2
I0115 10:37:02.859228 11909 net.cpp:84] Creating Layer ip2
I0115 10:37:02.859233 11909 net.cpp:406] ip2 <- ip1
I0115 10:37:02.859241 11909 net.cpp:380] ip2 -> ip2
I0115 10:37:02.860226 11909 net.cpp:122] Setting up ip2
I0115 10:37:02.860237 11909 net.cpp:129] Top shape: 100 128 (12800)
I0115 10:37:02.860241 11909 net.cpp:137] Memory required for data: 2806081200
I0115 10:37:02.860249 11909 layer_factory.hpp:77] Creating layer relu6
I0115 10:37:02.860256 11909 net.cpp:84] Creating Layer relu6
I0115 10:37:02.860261 11909 net.cpp:406] relu6 <- ip2
I0115 10:37:02.860267 11909 net.cpp:367] relu6 -> ip2 (in-place)
I0115 10:37:02.860468 11909 net.cpp:122] Setting up relu6
I0115 10:37:02.860481 11909 net.cpp:129] Top shape: 100 128 (12800)
I0115 10:37:02.860486 11909 net.cpp:137] Memory required for data: 2806132400
I0115 10:37:02.860489 11909 layer_factory.hpp:77] Creating layer drop6
I0115 10:37:02.860497 11909 net.cpp:84] Creating Layer drop6
I0115 10:37:02.860502 11909 net.cpp:406] drop6 <- ip2
I0115 10:37:02.860508 11909 net.cpp:367] drop6 -> ip2 (in-place)
I0115 10:37:02.860540 11909 net.cpp:122] Setting up drop6
I0115 10:37:02.860549 11909 net.cpp:129] Top shape: 100 128 (12800)
I0115 10:37:02.860553 11909 net.cpp:137] Memory required for data: 2806183600
I0115 10:37:02.860558 11909 layer_factory.hpp:77] Creating layer ip3
I0115 10:37:02.860577 11909 net.cpp:84] Creating Layer ip3
I0115 10:37:02.860594 11909 net.cpp:406] ip3 <- ip2
I0115 10:37:02.860600 11909 net.cpp:380] ip3 -> ip3
I0115 10:37:02.860734 11909 net.cpp:122] Setting up ip3
I0115 10:37:02.860744 11909 net.cpp:129] Top shape: 100 7 (700)
I0115 10:37:02.860749 11909 net.cpp:137] Memory required for data: 2806186400
I0115 10:37:02.860755 11909 layer_factory.hpp:77] Creating layer ip3_ip3_0_split
I0115 10:37:02.860771 11909 net.cpp:84] Creating Layer ip3_ip3_0_split
I0115 10:37:02.860776 11909 net.cpp:406] ip3_ip3_0_split <- ip3
I0115 10:37:02.860783 11909 net.cpp:380] ip3_ip3_0_split -> ip3_ip3_0_split_0
I0115 10:37:02.860793 11909 net.cpp:380] ip3_ip3_0_split -> ip3_ip3_0_split_1
I0115 10:37:02.860837 11909 net.cpp:122] Setting up ip3_ip3_0_split
I0115 10:37:02.860846 11909 net.cpp:129] Top shape: 100 7 (700)
I0115 10:37:02.860852 11909 net.cpp:129] Top shape: 100 7 (700)
I0115 10:37:02.860854 11909 net.cpp:137] Memory required for data: 2806192000
I0115 10:37:02.860858 11909 layer_factory.hpp:77] Creating layer accuracy
I0115 10:37:02.860869 11909 net.cpp:84] Creating Layer accuracy
I0115 10:37:02.860874 11909 net.cpp:406] accuracy <- ip3_ip3_0_split_0
I0115 10:37:02.860880 11909 net.cpp:406] accuracy <- label_mnist_1_split_0
I0115 10:37:02.860888 11909 net.cpp:380] accuracy -> accuracy
…
