…
I0115 11:31:05.714303 13000 net.cpp:294] The NetState phase (0) differed from the phase (1) specified by a rule in layer mnist
I0115 11:31:05.714351 13000 net.cpp:294] The NetState phase (0) differed from the phase (1) specified by a rule in layer accuracy
I0115 11:31:05.714464 13000 net.cpp:51] Initializing net from parameters: 
name: "LeNet"
state {
  phase: TRAIN
  level: 0
  stage: ""
}
layer {
  name: "mnist"
  type: "Data"
  top: "data"
  top: "label"
  include {
    phase: TRAIN
  }
  transform_param {
    scale: 0.00390625
  }
  data_param {
    source: "./data2/rail_train_lmdb"
    batch_size: 64
    backend: LMDB
  }
}
layer {
  name: "conv1"
  type: "Convolution"
  bottom: "data"
  top: "conv1"
  param {
    lr_mult: 1
  }
  param {
    lr_mult: 2
  }
  convolution_param {
    num_output: 32
    kernel_size: 3
    stride: 1
    weight_filler {
      type: "xavier"
    }
    bias_filler {
      type: "constant"
    }
  }
}
layer {
  name: "relu1"
  type: "ReLU"
  bottom: "conv1"
  top: "conv1"
}
layer {
  name: "norm1"
  type: "LRN"
  bottom: "conv1"
  top: "norm1"
  lrn_param {
    local_size: 3
    alpha: 0.0001
    beta: 0.75
  }
}
layer {
  name: "pool1"
  type: "Pooling"
  bottom: "norm1"
  top: "pool1"
  pooling_param {
    pool: MAX
    kernel_size: 3
    stride: 2
  }
}
layer {
  name: "conv2"
  type: "Convolution"
  bottom: "pool1"
  top: "conv2"
  param {
    lr_mult: 1
  }
  param {
    lr_mult: 2
  }
  convolution_param {
    num_output: 64
    kernel_size: 3
    stride: 1
    weight_filler {
      type: "xavier"
    }
    bias_filler {
      type: "constant"
    }
  }
}
layer {
  name: "relu2"
  type: "ReLU"
  bottom: "conv2"
  top: "conv2"
}
layer {
  name: "norm2"
  type: "LRN"
  bottom: "conv2"
  top: "norm2"
  lrn_param {
    local_size: 5
    alpha: 0.0001
    beta: 0.75
  }
}
layer {
  name: "pool2"
  type: "Pooling"
  bottom: "norm2"
  top: "pool2"
  pooling_param {
    pool: MAX
    kernel_size: 3
    stride: 2
  }
}
layer {
  name: "conv3"
  type: "Convolution"
  bottom: "pool2"
  top: "conv3"
  param {
    lr_mult: 1
  }
  param {
    lr_mult: 2
  }
  convolution_param {
    num_output: 128
    kernel_size: 3
    stride: 1
    weight_filler {
      type: "xavier"
    }
    bias_filler {
      type: "constant"
    }
  }
}
layer {
  name: "relu3"
  type: "ReLU"
  bottom: "conv3"
  top: "conv3"
}
layer {
  name: "pool3"
  type: "Pooling"
  bottom: "conv3"
  top: "pool3"
  pooling_param {
    pool: MAX
    kernel_size: 3
    stride: 2
  }
}
layer {
  name: "conv4"
  type: "Convolution"
  bottom: "pool3"
  top: "conv4"
  param {
    lr_mult: 1
  }
  param {
    lr_mult: 2
  }
  convolution_param {
    num_output: 256
    kernel_size: 3
    stride: 1
    weight_filler {
      type: "xavier"
    }
    bias_filler {
      type: "constant"
    }
  }
}
layer {
  name: "relu4"
  type: "ReLU"
  bottom: "conv4"
  top: "conv4"
}
layer {
  name: "pool4"
  type: "Pooling"
  bottom: "conv4"
  top: "pool4"
  pooling_param {
    pool: MAX
    kernel_size: 3
    stride: 2
  }
}
layer {
  name: "ip1"
  type: "InnerProduct"
  bottom: "pool4"
  top: "ip1"
  param {
    lr_mult: 1
  }
  param {
    lr_mult: 2
  }
  inner_product_param {
    num_output: 1024
    weight_filler {
      type: "xavier"
    }
    bias_filler {
      type: "constant"
    }
  }
}
layer {
  name: "relu5"
  type: "ReLU"
  bottom: "ip1"
  top: "ip1"
}
layer {
  name: "drop5"
  type: "Dropout"
  bottom: "ip1"
  top: "ip1"
  dropout_param {
    dropout_ratio: 0.5
  }
}
layer {
  name: "ip2"
  type: "InnerProduct"
  bottom: "ip1"
  top: "ip2"
  param {
    lr_mult: 1
  }
  param {
    lr_mult: 2
  }
  inner_product_param {
    num_output: 128
    weight_filler {
      type: "xavier"
    }
    bias_filler {
      type: "constant"
    }
  }
}
layer {
  name: "relu6"
  type: "ReLU"
  bottom: "ip2"
  top: "ip2"
}
layer {
  name: "drop6"
  type: "Dropout"
  bottom: "ip2"
  top: "ip2"
  dropout_param {
    dropout_ratio: 0.5
  }
}
layer {
  name: "ip3"
  type: "InnerProduct"
  bottom: "ip2"
  top: "ip3"
  param {
    lr_mult: 1
  }
  param {
    lr_mult: 2
  }
  inner_product_param {
    num_output: 7
    weight_filler {
      type: "xavier"
    }
    bias_filler {
      type: "constant"
    }
  }
}
layer {
  name: "loss"
  type: "SoftmaxWithLoss"
  bottom: "ip3"
  bottom: "label"
  top: "loss"
}
I0115 11:31:05.714560 13000 layer_factory.hpp:77] Creating layer mnist
I0115 11:31:05.714691 13000 db_lmdb.cpp:35] Opened lmdb ./data2/rail_train_lmdb
I0115 11:31:05.714726 13000 net.cpp:84] Creating Layer mnist
I0115 11:31:05.714735 13000 net.cpp:380] mnist -> data
I0115 11:31:05.714756 13000 net.cpp:380] mnist -> label
I0115 11:31:05.715947 13000 data_layer.cpp:45] output data size: 64,3,200,200
I0115 11:31:05.781988 13000 net.cpp:122] Setting up mnist
I0115 11:31:05.782035 13000 net.cpp:129] Top shape: 64 3 200 200 (7680000)
I0115 11:31:05.782042 13000 net.cpp:129] Top shape: 64 (64)
I0115 11:31:05.782044 13000 net.cpp:137] Memory required for data: 30720256
I0115 11:31:05.782058 13000 layer_factory.hpp:77] Creating layer conv1
I0115 11:31:05.782086 13000 net.cpp:84] Creating Layer conv1
I0115 11:31:05.782095 13000 net.cpp:406] conv1 <- data
I0115 11:31:05.782112 13000 net.cpp:380] conv1 -> conv1
I0115 11:31:06.677263 13000 net.cpp:122] Setting up conv1
I0115 11:31:06.677319 13000 net.cpp:129] Top shape: 64 32 198 198 (80289792)
I0115 11:31:06.677327 13000 net.cpp:137] Memory required for data: 351879424
I0115 11:31:06.677357 13000 layer_factory.hpp:77] Creating layer relu1
I0115 11:31:06.677381 13000 net.cpp:84] Creating Layer relu1
I0115 11:31:06.677390 13000 net.cpp:406] relu1 <- conv1
I0115 11:31:06.677400 13000 net.cpp:367] relu1 -> conv1 (in-place)
I0115 11:31:06.677593 13000 net.cpp:122] Setting up relu1
I0115 11:31:06.677606 13000 net.cpp:129] Top shape: 64 32 198 198 (80289792)
I0115 11:31:06.677611 13000 net.cpp:137] Memory required for data: 673038592
I0115 11:31:06.677618 13000 layer_factory.hpp:77] Creating layer norm1
I0115 11:31:06.677630 13000 net.cpp:84] Creating Layer norm1
I0115 11:31:06.677635 13000 net.cpp:406] norm1 <- conv1
I0115 11:31:06.677644 13000 net.cpp:380] norm1 -> norm1
I0115 11:31:06.678531 13000 net.cpp:122] Setting up norm1
I0115 11:31:06.678550 13000 net.cpp:129] Top shape: 64 32 198 198 (80289792)
I0115 11:31:06.678555 13000 net.cpp:137] Memory required for data: 994197760
I0115 11:31:06.678560 13000 layer_factory.hpp:77] Creating layer pool1
I0115 11:31:06.678572 13000 net.cpp:84] Creating Layer pool1
I0115 11:31:06.678577 13000 net.cpp:406] pool1 <- norm1
I0115 11:31:06.678586 13000 net.cpp:380] pool1 -> pool1
I0115 11:31:06.678639 13000 net.cpp:122] Setting up pool1
I0115 11:31:06.678649 13000 net.cpp:129] Top shape: 64 32 99 99 (20072448)
I0115 11:31:06.678654 13000 net.cpp:137] Memory required for data: 1074487552
I0115 11:31:06.678659 13000 layer_factory.hpp:77] Creating layer conv2
I0115 11:31:06.678673 13000 net.cpp:84] Creating Layer conv2
I0115 11:31:06.678679 13000 net.cpp:406] conv2 <- pool1
I0115 11:31:06.678686 13000 net.cpp:380] conv2 -> conv2
I0115 11:31:06.682078 13000 net.cpp:122] Setting up conv2
I0115 11:31:06.682098 13000 net.cpp:129] Top shape: 64 64 97 97 (38539264)
I0115 11:31:06.682104 13000 net.cpp:137] Memory required for data: 1228644608
I0115 11:31:06.682116 13000 layer_factory.hpp:77] Creating layer relu2
I0115 11:31:06.682124 13000 net.cpp:84] Creating Layer relu2
I0115 11:31:06.682139 13000 net.cpp:406] relu2 <- conv2
I0115 11:31:06.682147 13000 net.cpp:367] relu2 -> conv2 (in-place)
I0115 11:31:06.682345 13000 net.cpp:122] Setting up relu2
I0115 11:31:06.682358 13000 net.cpp:129] Top shape: 64 64 97 97 (38539264)
I0115 11:31:06.682361 13000 net.cpp:137] Memory required for data: 1382801664
I0115 11:31:06.682368 13000 layer_factory.hpp:77] Creating layer norm2
I0115 11:31:06.682375 13000 net.cpp:84] Creating Layer norm2
I0115 11:31:06.682380 13000 net.cpp:406] norm2 <- conv2
I0115 11:31:06.682386 13000 net.cpp:380] norm2 -> norm2
I0115 11:31:06.682586 13000 net.cpp:122] Setting up norm2
I0115 11:31:06.682598 13000 net.cpp:129] Top shape: 64 64 97 97 (38539264)
I0115 11:31:06.682603 13000 net.cpp:137] Memory required for data: 1536958720
I0115 11:31:06.682607 13000 layer_factory.hpp:77] Creating layer pool2
I0115 11:31:06.682617 13000 net.cpp:84] Creating Layer pool2
I0115 11:31:06.682622 13000 net.cpp:406] pool2 <- norm2
I0115 11:31:06.682628 13000 net.cpp:380] pool2 -> pool2
I0115 11:31:06.682667 13000 net.cpp:122] Setting up pool2
I0115 11:31:06.682677 13000 net.cpp:129] Top shape: 64 64 48 48 (9437184)
I0115 11:31:06.682680 13000 net.cpp:137] Memory required for data: 1574707456
I0115 11:31:06.682684 13000 layer_factory.hpp:77] Creating layer conv3
I0115 11:31:06.682694 13000 net.cpp:84] Creating Layer conv3
I0115 11:31:06.682700 13000 net.cpp:406] conv3 <- pool2
I0115 11:31:06.682706 13000 net.cpp:380] conv3 -> conv3
I0115 11:31:06.686897 13000 net.cpp:122] Setting up conv3
I0115 11:31:06.686918 13000 net.cpp:129] Top shape: 64 128 46 46 (17334272)
I0115 11:31:06.686924 13000 net.cpp:137] Memory required for data: 1644044544
I0115 11:31:06.686935 13000 layer_factory.hpp:77] Creating layer relu3
I0115 11:31:06.686944 13000 net.cpp:84] Creating Layer relu3
I0115 11:31:06.686949 13000 net.cpp:406] relu3 <- conv3
I0115 11:31:06.686956 13000 net.cpp:367] relu3 -> conv3 (in-place)
I0115 11:31:06.687171 13000 net.cpp:122] Setting up relu3
I0115 11:31:06.687186 13000 net.cpp:129] Top shape: 64 128 46 46 (17334272)
I0115 11:31:06.687191 13000 net.cpp:137] Memory required for data: 1713381632
I0115 11:31:06.687196 13000 layer_factory.hpp:77] Creating layer pool3
I0115 11:31:06.687203 13000 net.cpp:84] Creating Layer pool3
I0115 11:31:06.687208 13000 net.cpp:406] pool3 <- conv3
I0115 11:31:06.687219 13000 net.cpp:380] pool3 -> pool3
I0115 11:31:06.687268 13000 net.cpp:122] Setting up pool3
I0115 11:31:06.687278 13000 net.cpp:129] Top shape: 64 128 23 23 (4333568)
I0115 11:31:06.687281 13000 net.cpp:137] Memory required for data: 1730715904
I0115 11:31:06.687286 13000 layer_factory.hpp:77] Creating layer conv4
I0115 11:31:06.687301 13000 net.cpp:84] Creating Layer conv4
I0115 11:31:06.687306 13000 net.cpp:406] conv4 <- pool3
I0115 11:31:06.687314 13000 net.cpp:380] conv4 -> conv4
I0115 11:31:06.691325 13000 net.cpp:122] Setting up conv4
I0115 11:31:06.691347 13000 net.cpp:129] Top shape: 64 256 21 21 (7225344)
I0115 11:31:06.691352 13000 net.cpp:137] Memory required for data: 1759617280
I0115 11:31:06.691360 13000 layer_factory.hpp:77] Creating layer relu4
I0115 11:31:06.691368 13000 net.cpp:84] Creating Layer relu4
I0115 11:31:06.691375 13000 net.cpp:406] relu4 <- conv4
I0115 11:31:06.691381 13000 net.cpp:367] relu4 -> conv4 (in-place)
I0115 11:31:06.691582 13000 net.cpp:122] Setting up relu4
I0115 11:31:06.691593 13000 net.cpp:129] Top shape: 64 256 21 21 (7225344)
I0115 11:31:06.691598 13000 net.cpp:137] Memory required for data: 1788518656
I0115 11:31:06.691603 13000 layer_factory.hpp:77] Creating layer pool4
I0115 11:31:06.691612 13000 net.cpp:84] Creating Layer pool4
I0115 11:31:06.691615 13000 net.cpp:406] pool4 <- conv4
I0115 11:31:06.691622 13000 net.cpp:380] pool4 -> pool4
I0115 11:31:06.691674 13000 net.cpp:122] Setting up pool4
I0115 11:31:06.691684 13000 net.cpp:129] Top shape: 64 256 10 10 (1638400)
I0115 11:31:06.691687 13000 net.cpp:137] Memory required for data: 1795072256
I0115 11:31:06.691692 13000 layer_factory.hpp:77] Creating layer ip1
I0115 11:31:06.691704 13000 net.cpp:84] Creating Layer ip1
I0115 11:31:06.691714 13000 net.cpp:406] ip1 <- pool4
I0115 11:31:06.691730 13000 net.cpp:380] ip1 -> ip1
I0115 11:31:06.908736 13000 net.cpp:122] Setting up ip1
I0115 11:31:06.908793 13000 net.cpp:129] Top shape: 64 1024 (65536)
I0115 11:31:06.908799 13000 net.cpp:137] Memory required for data: 1795334400
I0115 11:31:06.908823 13000 layer_factory.hpp:77] Creating layer relu5
I0115 11:31:06.908843 13000 net.cpp:84] Creating Layer relu5
I0115 11:31:06.908849 13000 net.cpp:406] relu5 <- ip1
I0115 11:31:06.908859 13000 net.cpp:367] relu5 -> ip1 (in-place)
I0115 11:31:06.909983 13000 net.cpp:122] Setting up relu5
I0115 11:31:06.910001 13000 net.cpp:129] Top shape: 64 1024 (65536)
I0115 11:31:06.910006 13000 net.cpp:137] Memory required for data: 1795596544
I0115 11:31:06.910010 13000 layer_factory.hpp:77] Creating layer drop5
I0115 11:31:06.910020 13000 net.cpp:84] Creating Layer drop5
I0115 11:31:06.910027 13000 net.cpp:406] drop5 <- ip1
I0115 11:31:06.910035 13000 net.cpp:367] drop5 -> ip1 (in-place)
I0115 11:31:06.910074 13000 net.cpp:122] Setting up drop5
I0115 11:31:06.910085 13000 net.cpp:129] Top shape: 64 1024 (65536)
I0115 11:31:06.910090 13000 net.cpp:137] Memory required for data: 1795858688
I0115 11:31:06.910094 13000 layer_factory.hpp:77] Creating layer ip2
I0115 11:31:06.910104 13000 net.cpp:84] Creating Layer ip2
I0115 11:31:06.910109 13000 net.cpp:406] ip2 <- ip1
I0115 11:31:06.910120 13000 net.cpp:380] ip2 -> ip2
I0115 11:31:06.911113 13000 net.cpp:122] Setting up ip2
I0115 11:31:06.911124 13000 net.cpp:129] Top shape: 64 128 (8192)
I0115 11:31:06.911129 13000 net.cpp:137] Memory required for data: 1795891456
I0115 11:31:06.911137 13000 layer_factory.hpp:77] Creating layer relu6
I0115 11:31:06.911145 13000 net.cpp:84] Creating Layer relu6
I0115 11:31:06.911149 13000 net.cpp:406] relu6 <- ip2
I0115 11:31:06.911159 13000 net.cpp:367] relu6 -> ip2 (in-place)
I0115 11:31:06.911350 13000 net.cpp:122] Setting up relu6
I0115 11:31:06.911361 13000 net.cpp:129] Top shape: 64 128 (8192)
I0115 11:31:06.911365 13000 net.cpp:137] Memory required for data: 1795924224
I0115 11:31:06.911370 13000 layer_factory.hpp:77] Creating layer drop6
I0115 11:31:06.911378 13000 net.cpp:84] Creating Layer drop6
I0115 11:31:06.911383 13000 net.cpp:406] drop6 <- ip2
I0115 11:31:06.911391 13000 net.cpp:367] drop6 -> ip2 (in-place)
I0115 11:31:06.911419 13000 net.cpp:122] Setting up drop6
I0115 11:31:06.911430 13000 net.cpp:129] Top shape: 64 128 (8192)
I0115 11:31:06.911434 13000 net.cpp:137] Memory required for data: 1795956992
I0115 11:31:06.911438 13000 layer_factory.hpp:77] Creating layer ip3
I0115 11:31:06.911447 13000 net.cpp:84] Creating Layer ip3
I0115 11:31:06.911451 13000 net.cpp:406] ip3 <- ip2
I0115 11:31:06.911459 13000 net.cpp:380] ip3 -> ip3
I0115 11:31:06.911578 13000 net.cpp:122] Setting up ip3
I0115 11:31:06.911587 13000 net.cpp:129] Top shape: 64 7 (448)
I0115 11:31:06.911592 13000 net.cpp:137] Memory required for data: 1795958784
I0115 11:31:06.911599 13000 layer_factory.hpp:77] Creating layer loss
I0115 11:31:06.911609 13000 net.cpp:84] Creating Layer loss
I0115 11:31:06.911614 13000 net.cpp:406] loss <- ip3
I0115 11:31:06.911620 13000 net.cpp:406] loss <- label
I0115 11:31:06.911628 13000 net.cpp:380] loss -> loss
I0115 11:31:06.911645 13000 layer_factory.hpp:77] Creating layer loss
…
I0115 11:31:06.912451 13000 solver.cpp:172] Creating test net (#0) specified by net file: ./lenet_mine.prototxt
I0115 11:31:06.912492 13000 net.cpp:294] The NetState phase (1) differed from the phase (0) specified by a rule in layer mnist
I0115 11:31:06.912647 13000 net.cpp:51] Initializing net from parameters: 
name: "LeNet"
state {
  phase: TEST
}
layer {
  name: "mnist"
  type: "Data"
  top: "data"
  top: "label"
  include {
    phase: TEST
  }
  transform_param {
    scale: 0.00390625
  }
  data_param {
    source: "./data2/rail_val_lmdb"
    batch_size: 100
    backend: LMDB
  }
}
layer {
  name: "conv1"
  type: "Convolution"
  bottom: "data"
  top: "conv1"
  param {
    lr_mult: 1
  }
  param {
    lr_mult: 2
  }
  convolution_param {
    num_output: 32
    kernel_size: 3
    stride: 1
    weight_filler {
      type: "xavier"
    }
    bias_filler {
      type: "constant"
    }
  }
}
layer {
  name: "relu1"
  type: "ReLU"
  bottom: "conv1"
  top: "conv1"
}
layer {
  name: "norm1"
  type: "LRN"
  bottom: "conv1"
  top: "norm1"
  lrn_param {
    local_size: 3
    alpha: 0.0001
    beta: 0.75
  }
}
layer {
  name: "pool1"
  type: "Pooling"
  bottom: "norm1"
  top: "pool1"
  pooling_param {
    pool: MAX
    kernel_size: 3
    stride: 2
  }
}
layer {
  name: "conv2"
  type: "Convolution"
  bottom: "pool1"
  top: "conv2"
  param {
    lr_mult: 1
  }
  param {
    lr_mult: 2
  }
  convolution_param {
    num_output: 64
    kernel_size: 3
    stride: 1
    weight_filler {
      type: "xavier"
    }
    bias_filler {
      type: "constant"
    }
  }
}
layer {
  name: "relu2"
  type: "ReLU"
  bottom: "conv2"
  top: "conv2"
}
layer {
  name: "norm2"
  type: "LRN"
  bottom: "conv2"
  top: "norm2"
  lrn_param {
    local_size: 5
    alpha: 0.0001
    beta: 0.75
  }
}
layer {
  name: "pool2"
  type: "Pooling"
  bottom: "norm2"
  top: "pool2"
  pooling_param {
    pool: MAX
    kernel_size: 3
    stride: 2
  }
}
layer {
  name: "conv3"
  type: "Convolution"
  bottom: "pool2"
  top: "conv3"
  param {
    lr_mult: 1
  }
  param {
    lr_mult: 2
  }
  convolution_param {
    num_output: 128
    kernel_size: 3
    stride: 1
    weight_filler {
      type: "xavier"
    }
    bias_filler {
      type: "constant"
    }
  }
}
layer {
  name: "relu3"
  type: "ReLU"
  bottom: "conv3"
  top: "conv3"
}
layer {
  name: "pool3"
  type: "Pooling"
  bottom: "conv3"
  top: "pool3"
  pooling_param {
    pool: MAX
    kernel_size: 3
    stride: 2
  }
}
layer {
  name: "conv4"
  type: "Convolution"
  bottom: "pool3"
  top: "conv4"
  param {
    lr_mult: 1
  }
  param {
    lr_mult: 2
  }
  convolution_param {
    num_output: 256
    kernel_size: 3
    stride: 1
    weight_filler {
      type: "xavier"
    }
    bias_filler {
      type: "constant"
    }
  }
}
layer {
  name: "relu4"
  type: "ReLU"
  bottom: "conv4"
  top: "conv4"
}
layer {
  name: "pool4"
  type: "Pooling"
  bottom: "conv4"
  top: "pool4"
  pooling_param {
    pool: MAX
    kernel_size: 3
    stride: 2
  }
}
layer {
  name: "ip1"
  type: "InnerProduct"
  bottom: "pool4"
  top: "ip1"
  param {
    lr_mult: 1
  }
  param {
    lr_mult: 2
  }
  inner_product_param {
    num_output: 1024
    weight_filler {
      type: "xavier"
    }
    bias_filler {
      type: "constant"
    }
  }
}
layer {
  name: "relu5"
  type: "ReLU"
  bottom: "ip1"
  top: "ip1"
}
layer {
  name: "drop5"
  type: "Dropout"
  bottom: "ip1"
  top: "ip1"
  dropout_param {
    dropout_ratio: 0.5
  }
}
layer {
  name: "ip2"
  type: "InnerProduct"
  bottom: "ip1"
  top: "ip2"
  param {
    lr_mult: 1
  }
  param {
    lr_mult: 2
  }
  inner_product_param {
    num_output: 128
    weight_filler {
      type: "xavier"
    }
    bias_filler {
      type: "constant"
    }
  }
}
layer {
  name: "relu6"
  type: "ReLU"
  bottom: "ip2"
  top: "ip2"
}
layer {
  name: "drop6"
  type: "Dropout"
  bottom: "ip2"
  top: "ip2"
  dropout_param {
    dropout_ratio: 0.5
  }
}
layer {
  name: "ip3"
  type: "InnerProduct"
  bottom: "ip2"
  top: "ip3"
  param {
    lr_mult: 1
  }
  param {
    lr_mult: 2
  }
  inner_product_param {
    num_output: 7
    weight_filler {
      type: "xavier"
    }
    bias_filler {
      type: "constant"
    }
  }
}
layer {
  name: "accuracy"
  type: "Accuracy"
  bottom: "ip3"
  bottom: "label"
  top: "accuracy"
  include {
    phase: TEST
  }
}
layer {
  name: "loss"
  type: "SoftmaxWithLoss"
  bottom: "ip3"
  bottom: "label"
  top: "loss"
}
I0115 11:31:06.912772 13000 layer_factory.hpp:77] Creating layer mnist
I0115 11:31:06.912848 13000 db_lmdb.cpp:35] Opened lmdb ./data2/rail_val_lmdb
I0115 11:31:06.912878 13000 net.cpp:84] Creating Layer mnist
I0115 11:31:06.912885 13000 net.cpp:380] mnist -> data
I0115 11:31:06.912897 13000 net.cpp:380] mnist -> label
I0115 11:31:06.913162 13000 data_layer.cpp:45] output data size: 100,3,200,200
I0115 11:31:07.046346 13000 net.cpp:122] Setting up mnist
I0115 11:31:07.046407 13000 net.cpp:129] Top shape: 100 3 200 200 (12000000)
I0115 11:31:07.046416 13000 net.cpp:129] Top shape: 100 (100)
I0115 11:31:07.046427 13000 net.cpp:137] Memory required for data: 48000400
I0115 11:31:07.046437 13000 layer_factory.hpp:77] Creating layer label_mnist_1_split
I0115 11:31:07.046458 13000 net.cpp:84] Creating Layer label_mnist_1_split
I0115 11:31:07.046465 13000 net.cpp:406] label_mnist_1_split <- label
I0115 11:31:07.046478 13000 net.cpp:380] label_mnist_1_split -> label_mnist_1_split_0
I0115 11:31:07.046494 13000 net.cpp:380] label_mnist_1_split -> label_mnist_1_split_1
I0115 11:31:07.046834 13000 net.cpp:122] Setting up label_mnist_1_split
I0115 11:31:07.046906 13000 net.cpp:129] Top shape: 100 (100)
I0115 11:31:07.046921 13000 net.cpp:129] Top shape: 100 (100)
I0115 11:31:07.046928 13000 net.cpp:137] Memory required for data: 48001200
I0115 11:31:07.046941 13000 layer_factory.hpp:77] Creating layer conv1
I0115 11:31:07.046978 13000 net.cpp:84] Creating Layer conv1
I0115 11:31:07.046993 13000 net.cpp:406] conv1 <- data
I0115 11:31:07.047013 13000 net.cpp:380] conv1 -> conv1
I0115 11:31:07.054133 13000 net.cpp:122] Setting up conv1
I0115 11:31:07.054172 13000 net.cpp:129] Top shape: 100 32 198 198 (125452800)
I0115 11:31:07.054183 13000 net.cpp:137] Memory required for data: 549812400
I0115 11:31:07.054208 13000 layer_factory.hpp:77] Creating layer relu1
I0115 11:31:07.054224 13000 net.cpp:84] Creating Layer relu1
I0115 11:31:07.054234 13000 net.cpp:406] relu1 <- conv1
I0115 11:31:07.054260 13000 net.cpp:367] relu1 -> conv1 (in-place)
I0115 11:31:07.054625 13000 net.cpp:122] Setting up relu1
I0115 11:31:07.054646 13000 net.cpp:129] Top shape: 100 32 198 198 (125452800)
I0115 11:31:07.054653 13000 net.cpp:137] Memory required for data: 1051623600
I0115 11:31:07.054664 13000 layer_factory.hpp:77] Creating layer norm1
I0115 11:31:07.054699 13000 net.cpp:84] Creating Layer norm1
I0115 11:31:07.054730 13000 net.cpp:406] norm1 <- conv1
I0115 11:31:07.054747 13000 net.cpp:380] norm1 -> norm1
I0115 11:31:07.056505 13000 net.cpp:122] Setting up norm1
I0115 11:31:07.056537 13000 net.cpp:129] Top shape: 100 32 198 198 (125452800)
I0115 11:31:07.056546 13000 net.cpp:137] Memory required for data: 1553434800
I0115 11:31:07.056555 13000 layer_factory.hpp:77] Creating layer pool1
I0115 11:31:07.056573 13000 net.cpp:84] Creating Layer pool1
I0115 11:31:07.056583 13000 net.cpp:406] pool1 <- norm1
I0115 11:31:07.056599 13000 net.cpp:380] pool1 -> pool1
I0115 11:31:07.056684 13000 net.cpp:122] Setting up pool1
I0115 11:31:07.056700 13000 net.cpp:129] Top shape: 100 32 99 99 (31363200)
I0115 11:31:07.056708 13000 net.cpp:137] Memory required for data: 1678887600
I0115 11:31:07.056716 13000 layer_factory.hpp:77] Creating layer conv2
I0115 11:31:07.056740 13000 net.cpp:84] Creating Layer conv2
I0115 11:31:07.056752 13000 net.cpp:406] conv2 <- pool1
I0115 11:31:07.056766 13000 net.cpp:380] conv2 -> conv2
I0115 11:31:07.060017 13000 net.cpp:122] Setting up conv2
I0115 11:31:07.060051 13000 net.cpp:129] Top shape: 100 64 97 97 (60217600)
I0115 11:31:07.060062 13000 net.cpp:137] Memory required for data: 1919758000
I0115 11:31:07.060083 13000 layer_factory.hpp:77] Creating layer relu2
I0115 11:31:07.060097 13000 net.cpp:84] Creating Layer relu2
I0115 11:31:07.060107 13000 net.cpp:406] relu2 <- conv2
I0115 11:31:07.060125 13000 net.cpp:367] relu2 -> conv2 (in-place)
I0115 11:31:07.060487 13000 net.cpp:122] Setting up relu2
I0115 11:31:07.060508 13000 net.cpp:129] Top shape: 100 64 97 97 (60217600)
I0115 11:31:07.060516 13000 net.cpp:137] Memory required for data: 2160628400
I0115 11:31:07.060528 13000 layer_factory.hpp:77] Creating layer norm2
I0115 11:31:07.060547 13000 net.cpp:84] Creating Layer norm2
I0115 11:31:07.060557 13000 net.cpp:406] norm2 <- conv2
I0115 11:31:07.060570 13000 net.cpp:380] norm2 -> norm2
I0115 11:31:07.060992 13000 net.cpp:122] Setting up norm2
I0115 11:31:07.061013 13000 net.cpp:129] Top shape: 100 64 97 97 (60217600)
I0115 11:31:07.061022 13000 net.cpp:137] Memory required for data: 2401498800
I0115 11:31:07.061031 13000 layer_factory.hpp:77] Creating layer pool2
I0115 11:31:07.061045 13000 net.cpp:84] Creating Layer pool2
I0115 11:31:07.061055 13000 net.cpp:406] pool2 <- norm2
I0115 11:31:07.061070 13000 net.cpp:380] pool2 -> pool2
I0115 11:31:07.061153 13000 net.cpp:122] Setting up pool2
I0115 11:31:07.061170 13000 net.cpp:129] Top shape: 100 64 48 48 (14745600)
I0115 11:31:07.061178 13000 net.cpp:137] Memory required for data: 2460481200
I0115 11:31:07.061187 13000 layer_factory.hpp:77] Creating layer conv3
I0115 11:31:07.061211 13000 net.cpp:84] Creating Layer conv3
I0115 11:31:07.061223 13000 net.cpp:406] conv3 <- pool2
I0115 11:31:07.061235 13000 net.cpp:380] conv3 -> conv3
I0115 11:31:07.066730 13000 net.cpp:122] Setting up conv3
I0115 11:31:07.066763 13000 net.cpp:129] Top shape: 100 128 46 46 (27084800)
I0115 11:31:07.066774 13000 net.cpp:137] Memory required for data: 2568820400
I0115 11:31:07.066793 13000 layer_factory.hpp:77] Creating layer relu3
I0115 11:31:07.066807 13000 net.cpp:84] Creating Layer relu3
I0115 11:31:07.066817 13000 net.cpp:406] relu3 <- conv3
I0115 11:31:07.066833 13000 net.cpp:367] relu3 -> conv3 (in-place)
I0115 11:31:07.067198 13000 net.cpp:122] Setting up relu3
I0115 11:31:07.067221 13000 net.cpp:129] Top shape: 100 128 46 46 (27084800)
I0115 11:31:07.067229 13000 net.cpp:137] Memory required for data: 2677159600
I0115 11:31:07.067239 13000 layer_factory.hpp:77] Creating layer pool3
I0115 11:31:07.067255 13000 net.cpp:84] Creating Layer pool3
I0115 11:31:07.067263 13000 net.cpp:406] pool3 <- conv3
I0115 11:31:07.067276 13000 net.cpp:380] pool3 -> pool3
I0115 11:31:07.067365 13000 net.cpp:122] Setting up pool3
I0115 11:31:07.067380 13000 net.cpp:129] Top shape: 100 128 23 23 (6771200)
I0115 11:31:07.067389 13000 net.cpp:137] Memory required for data: 2704244400
I0115 11:31:07.067395 13000 layer_factory.hpp:77] Creating layer conv4
I0115 11:31:07.067426 13000 net.cpp:84] Creating Layer conv4
I0115 11:31:07.067448 13000 net.cpp:406] conv4 <- pool3
I0115 11:31:07.067464 13000 net.cpp:380] conv4 -> conv4
I0115 11:31:07.073499 13000 net.cpp:122] Setting up conv4
I0115 11:31:07.073532 13000 net.cpp:129] Top shape: 100 256 21 21 (11289600)
I0115 11:31:07.073541 13000 net.cpp:137] Memory required for data: 2749402800
I0115 11:31:07.073556 13000 layer_factory.hpp:77] Creating layer relu4
I0115 11:31:07.073568 13000 net.cpp:84] Creating Layer relu4
I0115 11:31:07.073580 13000 net.cpp:406] relu4 <- conv4
I0115 11:31:07.073595 13000 net.cpp:367] relu4 -> conv4 (in-place)
I0115 11:31:07.073931 13000 net.cpp:122] Setting up relu4
I0115 11:31:07.073951 13000 net.cpp:129] Top shape: 100 256 21 21 (11289600)
I0115 11:31:07.073959 13000 net.cpp:137] Memory required for data: 2794561200
I0115 11:31:07.073967 13000 layer_factory.hpp:77] Creating layer pool4
I0115 11:31:07.073982 13000 net.cpp:84] Creating Layer pool4
I0115 11:31:07.073992 13000 net.cpp:406] pool4 <- conv4
I0115 11:31:07.074004 13000 net.cpp:380] pool4 -> pool4
I0115 11:31:07.074091 13000 net.cpp:122] Setting up pool4
I0115 11:31:07.074106 13000 net.cpp:129] Top shape: 100 256 10 10 (2560000)
I0115 11:31:07.074115 13000 net.cpp:137] Memory required for data: 2804801200
I0115 11:31:07.074123 13000 layer_factory.hpp:77] Creating layer ip1
I0115 11:31:07.074144 13000 net.cpp:84] Creating Layer ip1
I0115 11:31:07.074154 13000 net.cpp:406] ip1 <- pool4
I0115 11:31:07.074167 13000 net.cpp:380] ip1 -> ip1
I0115 11:31:07.310096 13000 net.cpp:122] Setting up ip1
I0115 11:31:07.310163 13000 net.cpp:129] Top shape: 100 1024 (102400)
I0115 11:31:07.310170 13000 net.cpp:137] Memory required for data: 2805210800
I0115 11:31:07.310189 13000 layer_factory.hpp:77] Creating layer relu5
I0115 11:31:07.310206 13000 net.cpp:84] Creating Layer relu5
I0115 11:31:07.310214 13000 net.cpp:406] relu5 <- ip1
I0115 11:31:07.310225 13000 net.cpp:367] relu5 -> ip1 (in-place)
I0115 11:31:07.311413 13000 net.cpp:122] Setting up relu5
I0115 11:31:07.311432 13000 net.cpp:129] Top shape: 100 1024 (102400)
I0115 11:31:07.311437 13000 net.cpp:137] Memory required for data: 2805620400
I0115 11:31:07.311442 13000 layer_factory.hpp:77] Creating layer drop5
I0115 11:31:07.311455 13000 net.cpp:84] Creating Layer drop5
I0115 11:31:07.311460 13000 net.cpp:406] drop5 <- ip1
I0115 11:31:07.311467 13000 net.cpp:367] drop5 -> ip1 (in-place)
I0115 11:31:07.311511 13000 net.cpp:122] Setting up drop5
I0115 11:31:07.311519 13000 net.cpp:129] Top shape: 100 1024 (102400)
I0115 11:31:07.311524 13000 net.cpp:137] Memory required for data: 2806030000
I0115 11:31:07.311528 13000 layer_factory.hpp:77] Creating layer ip2
I0115 11:31:07.311538 13000 net.cpp:84] Creating Layer ip2
I0115 11:31:07.311543 13000 net.cpp:406] ip2 <- ip1
I0115 11:31:07.311553 13000 net.cpp:380] ip2 -> ip2
I0115 11:31:07.312537 13000 net.cpp:122] Setting up ip2
I0115 11:31:07.312549 13000 net.cpp:129] Top shape: 100 128 (12800)
I0115 11:31:07.312554 13000 net.cpp:137] Memory required for data: 2806081200
I0115 11:31:07.312562 13000 layer_factory.hpp:77] Creating layer relu6
I0115 11:31:07.312569 13000 net.cpp:84] Creating Layer relu6
I0115 11:31:07.312574 13000 net.cpp:406] relu6 <- ip2
I0115 11:31:07.312580 13000 net.cpp:367] relu6 -> ip2 (in-place)
I0115 11:31:07.312778 13000 net.cpp:122] Setting up relu6
I0115 11:31:07.312791 13000 net.cpp:129] Top shape: 100 128 (12800)
I0115 11:31:07.312796 13000 net.cpp:137] Memory required for data: 2806132400
I0115 11:31:07.312800 13000 layer_factory.hpp:77] Creating layer drop6
I0115 11:31:07.312808 13000 net.cpp:84] Creating Layer drop6
I0115 11:31:07.312813 13000 net.cpp:406] drop6 <- ip2
I0115 11:31:07.312819 13000 net.cpp:367] drop6 -> ip2 (in-place)
I0115 11:31:07.312852 13000 net.cpp:122] Setting up drop6
I0115 11:31:07.312860 13000 net.cpp:129] Top shape: 100 128 (12800)
I0115 11:31:07.312865 13000 net.cpp:137] Memory required for data: 2806183600
I0115 11:31:07.312870 13000 layer_factory.hpp:77] Creating layer ip3
I0115 11:31:07.312891 13000 net.cpp:84] Creating Layer ip3
I0115 11:31:07.312907 13000 net.cpp:406] ip3 <- ip2
I0115 11:31:07.312914 13000 net.cpp:380] ip3 -> ip3
I0115 11:31:07.313047 13000 net.cpp:122] Setting up ip3
I0115 11:31:07.313057 13000 net.cpp:129] Top shape: 100 7 (700)
I0115 11:31:07.313061 13000 net.cpp:137] Memory required for data: 2806186400
I0115 11:31:07.313069 13000 layer_factory.hpp:77] Creating layer ip3_ip3_0_split
I0115 11:31:07.313087 13000 net.cpp:84] Creating Layer ip3_ip3_0_split
I0115 11:31:07.313092 13000 net.cpp:406] ip3_ip3_0_split <- ip3
I0115 11:31:07.313099 13000 net.cpp:380] ip3_ip3_0_split -> ip3_ip3_0_split_0
I0115 11:31:07.313108 13000 net.cpp:380] ip3_ip3_0_split -> ip3_ip3_0_split_1
I0115 11:31:07.313153 13000 net.cpp:122] Setting up ip3_ip3_0_split
I0115 11:31:07.313161 13000 net.cpp:129] Top shape: 100 7 (700)
I0115 11:31:07.313166 13000 net.cpp:129] Top shape: 100 7 (700)
I0115 11:31:07.313171 13000 net.cpp:137] Memory required for data: 2806192000
I0115 11:31:07.313175 13000 layer_factory.hpp:77] Creating layer accuracy
I0115 11:31:07.313184 13000 net.cpp:84] Creating Layer accuracy
I0115 11:31:07.313189 13000 net.cpp:406] accuracy <- ip3_ip3_0_split_0
I0115 11:31:07.313195 13000 net.cpp:406] accuracy <- label_mnist_1_split_0
I0115 11:31:07.313205 13000 net.cpp:380] accuracy -> accuracy
…
