…
I0115 16:10:25.760113 17375 net.cpp:294] The NetState phase (0) differed from the phase (1) specified by a rule in layer data
I0115 16:10:25.760133 17375 net.cpp:294] The NetState phase (0) differed from the phase (1) specified by a rule in layer accuracy
I0115 16:10:25.760267 17375 net.cpp:51] Initializing net from parameters: 
name: "Sketch-a-Net"
state {
  phase: TRAIN
  level: 0
  stage: ""
}
layer {
  name: "data"
  type: "Data"
  top: "data"
  top: "label"
  include {
    phase: TRAIN
  }
  transform_param {
    scale: 0.00390625
  }
  data_param {
    source: "./data2/rail_train_lmdb"
    batch_size: 128
    backend: LMDB
  }
}
layer {
  name: "conv1"
  type: "Convolution"
  bottom: "data"
  top: "conv1"
  param {
    lr_mult: 1
    decay_mult: 1
  }
  param {
    lr_mult: 2
    decay_mult: 0
  }
  convolution_param {
    num_output: 64
    kernel_size: 15
    stride: 3
    weight_filler {
      type: "xavier"
      std: 0.01
    }
    bias_filler {
      type: "constant"
      value: 0
    }
  }
}
layer {
  name: "relu1"
  type: "ReLU"
  bottom: "conv1"
  top: "conv1"
}
layer {
  name: "pool1"
  type: "Pooling"
  bottom: "conv1"
  top: "pool1"
  pooling_param {
    pool: MAX
    kernel_size: 3
    stride: 2
  }
}
layer {
  name: "conv2"
  type: "Convolution"
  bottom: "pool1"
  top: "conv2"
  param {
    lr_mult: 1
    decay_mult: 1
  }
  param {
    lr_mult: 2
    decay_mult: 0
  }
  convolution_param {
    num_output: 128
    pad: 0
    kernel_size: 5
    group: 1
    weight_filler {
      type: "xavier"
      std: 0.01
    }
    bias_filler {
      type: "constant"
      value: 0.1
    }
  }
}
layer {
  name: "relu2"
  type: "ReLU"
  bottom: "conv2"
  top: "conv2"
}
layer {
  name: "pool2"
  type: "Pooling"
  bottom: "conv2"
  top: "pool2"
  pooling_param {
    pool: MAX
    kernel_size: 3
    stride: 2
  }
}
layer {
  name: "conv3"
  type: "Convolution"
  bottom: "pool2"
  top: "conv3"
  param {
    lr_mult: 1
    decay_mult: 1
  }
  param {
    lr_mult: 2
    decay_mult: 0
  }
  convolution_param {
    num_output: 256
    pad: 1
    kernel_size: 3
    weight_filler {
      type: "xavier"
      std: 0.01
    }
    bias_filler {
      type: "constant"
      value: 0
    }
  }
}
layer {
  name: "relu3"
  type: "ReLU"
  bottom: "conv3"
  top: "conv3"
}
layer {
  name: "conv4"
  type: "Convolution"
  bottom: "conv3"
  top: "conv4"
  param {
    lr_mult: 1
    decay_mult: 1
  }
  param {
    lr_mult: 2
    decay_mult: 0
  }
  convolution_param {
    num_output: 256
    pad: 1
    kernel_size: 3
    group: 2
    weight_filler {
      type: "xavier"
      std: 0.01
    }
    bias_filler {
      type: "constant"
      value: 0.1
    }
  }
}
layer {
  name: "relu4"
  type: "ReLU"
  bottom: "conv4"
  top: "conv4"
}
layer {
  name: "conv5"
  type: "Convolution"
  bottom: "conv4"
  top: "conv5"
  param {
    lr_mult: 1
    decay_mult: 1
  }
  param {
    lr_mult: 2
    decay_mult: 0
  }
  convolution_param {
    num_output: 256
    pad: 1
    kernel_size: 3
    group: 2
    weight_filler {
      type: "xavier"
      std: 0.01
    }
    bias_filler {
      type: "constant"
      value: 0.1
    }
  }
}
layer {
  name: "relu5"
  type: "ReLU"
  bottom: "conv5"
  top: "conv5"
}
layer {
  name: "pool5"
  type: "Pooling"
  bottom: "conv5"
  top: "pool5"
  pooling_param {
    pool: MAX
    kernel_size: 3
    stride: 2
  }
}
layer {
  name: "fc6"
  type: "InnerProduct"
  bottom: "pool5"
  top: "fc6"
  param {
    lr_mult: 1
    decay_mult: 1
  }
  param {
    lr_mult: 2
    decay_mult: 0
  }
  inner_product_param {
    num_output: 512
    weight_filler {
      type: "xavier"
      std: 0.005
    }
    bias_filler {
      type: "constant"
      value: 0.1
    }
  }
}
layer {
  name: "relu6"
  type: "ReLU"
  bottom: "fc6"
  top: "fc6"
}
layer {
  name: "drop6"
  type: "Dropout"
  bottom: "fc6"
  top: "fc6"
  dropout_param {
    dropout_ratio: 0.5
  }
}
layer {
  name: "fc7"
  type: "InnerProduct"
  bottom: "fc6"
  top: "fc7"
  param {
    lr_mult: 1
    decay_mult: 1
  }
  param {
    lr_mult: 2
    decay_mult: 0
  }
  inner_product_param {
    num_output: 512
    weight_filler {
      type: "xavier"
      std: 0.005
    }
    bias_filler {
      type: "constant"
      value: 0.1
    }
  }
}
layer {
  name: "relu7"
  type: "ReLU"
  bottom: "fc7"
  top: "fc7"
}
layer {
  name: "drop7"
  type: "Dropout"
  bottom: "fc7"
  top: "fc7"
  dropout_param {
    dropout_ratio: 0.5
  }
}
layer {
  name: "fc8_flickr"
  type: "InnerProduct"
  bottom: "fc7"
  top: "fc8_flickr"
  param {
    lr_mult: 1
    decay_mult: 1
  }
  param {
    lr_mult: 2
    decay_mult: 0
  }
  inner_product_param {
    num_output: 7
    weight_filler {
      type: "xavier"
      std: 0.01
    }
    bias_filler {
      type: "constant"
      value: 0
    }
  }
}
layer {
  name: "loss"
  type: "SoftmaxWithLoss"
  bottom: "fc8_flickr"
  bottom: "label"
  top: "loss"
}
I0115 16:10:25.760366 17375 layer_factory.hpp:77] Creating layer data
I0115 16:10:25.760499 17375 db_lmdb.cpp:35] Opened lmdb ./data2/rail_train_lmdb
I0115 16:10:25.760536 17375 net.cpp:84] Creating Layer data
I0115 16:10:25.760545 17375 net.cpp:380] data -> data
I0115 16:10:25.760572 17375 net.cpp:380] data -> label
I0115 16:10:25.761790 17375 data_layer.cpp:45] output data size: 128,3,200,200
I0115 16:10:25.911082 17375 net.cpp:122] Setting up data
I0115 16:10:25.911129 17375 net.cpp:129] Top shape: 128 3 200 200 (15360000)
I0115 16:10:25.911136 17375 net.cpp:129] Top shape: 128 (128)
I0115 16:10:25.911139 17375 net.cpp:137] Memory required for data: 61440512
I0115 16:10:25.911151 17375 layer_factory.hpp:77] Creating layer conv1
I0115 16:10:25.911185 17375 net.cpp:84] Creating Layer conv1
I0115 16:10:25.911193 17375 net.cpp:406] conv1 <- data
I0115 16:10:25.911209 17375 net.cpp:380] conv1 -> conv1
I0115 16:10:27.005461 17375 net.cpp:122] Setting up conv1
I0115 16:10:27.005517 17375 net.cpp:129] Top shape: 128 64 62 62 (31490048)
I0115 16:10:27.005523 17375 net.cpp:137] Memory required for data: 187400704
I0115 16:10:27.005555 17375 layer_factory.hpp:77] Creating layer relu1
I0115 16:10:27.005573 17375 net.cpp:84] Creating Layer relu1
I0115 16:10:27.005578 17375 net.cpp:406] relu1 <- conv1
I0115 16:10:27.005587 17375 net.cpp:367] relu1 -> conv1 (in-place)
I0115 16:10:27.005795 17375 net.cpp:122] Setting up relu1
I0115 16:10:27.005810 17375 net.cpp:129] Top shape: 128 64 62 62 (31490048)
I0115 16:10:27.005815 17375 net.cpp:137] Memory required for data: 313360896
I0115 16:10:27.005820 17375 layer_factory.hpp:77] Creating layer pool1
I0115 16:10:27.005828 17375 net.cpp:84] Creating Layer pool1
I0115 16:10:27.005833 17375 net.cpp:406] pool1 <- conv1
I0115 16:10:27.005841 17375 net.cpp:380] pool1 -> pool1
I0115 16:10:27.005903 17375 net.cpp:122] Setting up pool1
I0115 16:10:27.005911 17375 net.cpp:129] Top shape: 128 64 31 31 (7872512)
I0115 16:10:27.005916 17375 net.cpp:137] Memory required for data: 344850944
I0115 16:10:27.005920 17375 layer_factory.hpp:77] Creating layer conv2
I0115 16:10:27.005936 17375 net.cpp:84] Creating Layer conv2
I0115 16:10:27.005941 17375 net.cpp:406] conv2 <- pool1
I0115 16:10:27.005949 17375 net.cpp:380] conv2 -> conv2
I0115 16:10:27.011078 17375 net.cpp:122] Setting up conv2
I0115 16:10:27.011101 17375 net.cpp:129] Top shape: 128 128 27 27 (11943936)
I0115 16:10:27.011106 17375 net.cpp:137] Memory required for data: 392626688
I0115 16:10:27.011117 17375 layer_factory.hpp:77] Creating layer relu2
I0115 16:10:27.011134 17375 net.cpp:84] Creating Layer relu2
I0115 16:10:27.011152 17375 net.cpp:406] relu2 <- conv2
I0115 16:10:27.011159 17375 net.cpp:367] relu2 -> conv2 (in-place)
I0115 16:10:27.012054 17375 net.cpp:122] Setting up relu2
I0115 16:10:27.012073 17375 net.cpp:129] Top shape: 128 128 27 27 (11943936)
I0115 16:10:27.012079 17375 net.cpp:137] Memory required for data: 440402432
I0115 16:10:27.012084 17375 layer_factory.hpp:77] Creating layer pool2
I0115 16:10:27.012091 17375 net.cpp:84] Creating Layer pool2
I0115 16:10:27.012096 17375 net.cpp:406] pool2 <- conv2
I0115 16:10:27.012105 17375 net.cpp:380] pool2 -> pool2
I0115 16:10:27.012154 17375 net.cpp:122] Setting up pool2
I0115 16:10:27.012163 17375 net.cpp:129] Top shape: 128 128 13 13 (2768896)
I0115 16:10:27.012167 17375 net.cpp:137] Memory required for data: 451478016
I0115 16:10:27.012172 17375 layer_factory.hpp:77] Creating layer conv3
I0115 16:10:27.012184 17375 net.cpp:84] Creating Layer conv3
I0115 16:10:27.012188 17375 net.cpp:406] conv3 <- pool2
I0115 16:10:27.012197 17375 net.cpp:380] conv3 -> conv3
I0115 16:10:27.015482 17375 net.cpp:122] Setting up conv3
I0115 16:10:27.015504 17375 net.cpp:129] Top shape: 128 256 13 13 (5537792)
I0115 16:10:27.015511 17375 net.cpp:137] Memory required for data: 473629184
I0115 16:10:27.015522 17375 layer_factory.hpp:77] Creating layer relu3
I0115 16:10:27.015533 17375 net.cpp:84] Creating Layer relu3
I0115 16:10:27.015538 17375 net.cpp:406] relu3 <- conv3
I0115 16:10:27.015547 17375 net.cpp:367] relu3 -> conv3 (in-place)
I0115 16:10:27.016420 17375 net.cpp:122] Setting up relu3
I0115 16:10:27.016438 17375 net.cpp:129] Top shape: 128 256 13 13 (5537792)
I0115 16:10:27.016443 17375 net.cpp:137] Memory required for data: 495780352
I0115 16:10:27.016448 17375 layer_factory.hpp:77] Creating layer conv4
I0115 16:10:27.016460 17375 net.cpp:84] Creating Layer conv4
I0115 16:10:27.016466 17375 net.cpp:406] conv4 <- conv3
I0115 16:10:27.016475 17375 net.cpp:380] conv4 -> conv4
I0115 16:10:27.022867 17375 net.cpp:122] Setting up conv4
I0115 16:10:27.022888 17375 net.cpp:129] Top shape: 128 256 13 13 (5537792)
I0115 16:10:27.022894 17375 net.cpp:137] Memory required for data: 517931520
I0115 16:10:27.022903 17375 layer_factory.hpp:77] Creating layer relu4
I0115 16:10:27.022912 17375 net.cpp:84] Creating Layer relu4
I0115 16:10:27.022917 17375 net.cpp:406] relu4 <- conv4
I0115 16:10:27.022925 17375 net.cpp:367] relu4 -> conv4 (in-place)
I0115 16:10:27.023128 17375 net.cpp:122] Setting up relu4
I0115 16:10:27.023141 17375 net.cpp:129] Top shape: 128 256 13 13 (5537792)
I0115 16:10:27.023146 17375 net.cpp:137] Memory required for data: 540082688
I0115 16:10:27.023151 17375 layer_factory.hpp:77] Creating layer conv5
I0115 16:10:27.023164 17375 net.cpp:84] Creating Layer conv5
I0115 16:10:27.023169 17375 net.cpp:406] conv5 <- conv4
I0115 16:10:27.023176 17375 net.cpp:380] conv5 -> conv5
I0115 16:10:27.029526 17375 net.cpp:122] Setting up conv5
I0115 16:10:27.029546 17375 net.cpp:129] Top shape: 128 256 13 13 (5537792)
I0115 16:10:27.029551 17375 net.cpp:137] Memory required for data: 562233856
I0115 16:10:27.029564 17375 layer_factory.hpp:77] Creating layer relu5
I0115 16:10:27.029574 17375 net.cpp:84] Creating Layer relu5
I0115 16:10:27.029578 17375 net.cpp:406] relu5 <- conv5
I0115 16:10:27.029587 17375 net.cpp:367] relu5 -> conv5 (in-place)
I0115 16:10:27.029772 17375 net.cpp:122] Setting up relu5
I0115 16:10:27.029785 17375 net.cpp:129] Top shape: 128 256 13 13 (5537792)
I0115 16:10:27.029790 17375 net.cpp:137] Memory required for data: 584385024
I0115 16:10:27.029794 17375 layer_factory.hpp:77] Creating layer pool5
I0115 16:10:27.029803 17375 net.cpp:84] Creating Layer pool5
I0115 16:10:27.029808 17375 net.cpp:406] pool5 <- conv5
I0115 16:10:27.029815 17375 net.cpp:380] pool5 -> pool5
I0115 16:10:27.029865 17375 net.cpp:122] Setting up pool5
I0115 16:10:27.029873 17375 net.cpp:129] Top shape: 128 256 6 6 (1179648)
I0115 16:10:27.029878 17375 net.cpp:137] Memory required for data: 589103616
I0115 16:10:27.029891 17375 layer_factory.hpp:77] Creating layer fc6
I0115 16:10:27.029911 17375 net.cpp:84] Creating Layer fc6
I0115 16:10:27.029917 17375 net.cpp:406] fc6 <- pool5
I0115 16:10:27.029924 17375 net.cpp:380] fc6 -> fc6
I0115 16:10:27.068028 17375 net.cpp:122] Setting up fc6
I0115 16:10:27.068078 17375 net.cpp:129] Top shape: 128 512 (65536)
I0115 16:10:27.068083 17375 net.cpp:137] Memory required for data: 589365760
I0115 16:10:27.068097 17375 layer_factory.hpp:77] Creating layer relu6
I0115 16:10:27.068110 17375 net.cpp:84] Creating Layer relu6
I0115 16:10:27.068116 17375 net.cpp:406] relu6 <- fc6
I0115 16:10:27.068127 17375 net.cpp:367] relu6 -> fc6 (in-place)
I0115 16:10:27.068409 17375 net.cpp:122] Setting up relu6
I0115 16:10:27.068420 17375 net.cpp:129] Top shape: 128 512 (65536)
I0115 16:10:27.068424 17375 net.cpp:137] Memory required for data: 589627904
I0115 16:10:27.068429 17375 layer_factory.hpp:77] Creating layer drop6
I0115 16:10:27.068444 17375 net.cpp:84] Creating Layer drop6
I0115 16:10:27.068449 17375 net.cpp:406] drop6 <- fc6
I0115 16:10:27.068455 17375 net.cpp:367] drop6 -> fc6 (in-place)
I0115 16:10:27.068486 17375 net.cpp:122] Setting up drop6
I0115 16:10:27.068495 17375 net.cpp:129] Top shape: 128 512 (65536)
I0115 16:10:27.068498 17375 net.cpp:137] Memory required for data: 589890048
I0115 16:10:27.068502 17375 layer_factory.hpp:77] Creating layer fc7
I0115 16:10:27.068513 17375 net.cpp:84] Creating Layer fc7
I0115 16:10:27.068519 17375 net.cpp:406] fc7 <- fc6
I0115 16:10:27.068527 17375 net.cpp:380] fc7 -> fc7
I0115 16:10:27.071583 17375 net.cpp:122] Setting up fc7
I0115 16:10:27.071601 17375 net.cpp:129] Top shape: 128 512 (65536)
I0115 16:10:27.071606 17375 net.cpp:137] Memory required for data: 590152192
I0115 16:10:27.071614 17375 layer_factory.hpp:77] Creating layer relu7
I0115 16:10:27.071622 17375 net.cpp:84] Creating Layer relu7
I0115 16:10:27.071627 17375 net.cpp:406] relu7 <- fc7
I0115 16:10:27.071635 17375 net.cpp:367] relu7 -> fc7 (in-place)
I0115 16:10:27.071825 17375 net.cpp:122] Setting up relu7
I0115 16:10:27.071835 17375 net.cpp:129] Top shape: 128 512 (65536)
I0115 16:10:27.071838 17375 net.cpp:137] Memory required for data: 590414336
I0115 16:10:27.071843 17375 layer_factory.hpp:77] Creating layer drop7
I0115 16:10:27.071851 17375 net.cpp:84] Creating Layer drop7
I0115 16:10:27.071856 17375 net.cpp:406] drop7 <- fc7
I0115 16:10:27.071862 17375 net.cpp:367] drop7 -> fc7 (in-place)
I0115 16:10:27.071887 17375 net.cpp:122] Setting up drop7
I0115 16:10:27.071893 17375 net.cpp:129] Top shape: 128 512 (65536)
I0115 16:10:27.071897 17375 net.cpp:137] Memory required for data: 590676480
I0115 16:10:27.071902 17375 layer_factory.hpp:77] Creating layer fc8_flickr
I0115 16:10:27.071910 17375 net.cpp:84] Creating Layer fc8_flickr
I0115 16:10:27.071915 17375 net.cpp:406] fc8_flickr <- fc7
I0115 16:10:27.071923 17375 net.cpp:380] fc8_flickr -> fc8_flickr
I0115 16:10:27.072069 17375 net.cpp:122] Setting up fc8_flickr
I0115 16:10:27.072079 17375 net.cpp:129] Top shape: 128 7 (896)
I0115 16:10:27.072082 17375 net.cpp:137] Memory required for data: 590680064
I0115 16:10:27.072090 17375 layer_factory.hpp:77] Creating layer loss
I0115 16:10:27.072098 17375 net.cpp:84] Creating Layer loss
I0115 16:10:27.072103 17375 net.cpp:406] loss <- fc8_flickr
I0115 16:10:27.072108 17375 net.cpp:406] loss <- label
I0115 16:10:27.072118 17375 net.cpp:380] loss -> loss
I0115 16:10:27.072134 17375 layer_factory.hpp:77] Creating layer loss
…
I0115 16:10:27.073652 17375 solver.cpp:172] Creating test net (#0) specified by net file: ./sketch-a-net.prototxt
I0115 16:10:27.073691 17375 net.cpp:294] The NetState phase (1) differed from the phase (0) specified by a rule in layer data
I0115 16:10:27.073864 17375 net.cpp:51] Initializing net from parameters: 
name: "Sketch-a-Net"
state {
  phase: TEST
}
layer {
  name: "data"
  type: "Data"
  top: "data"
  top: "label"
  include {
    phase: TEST
  }
  transform_param {
    scale: 0.00390625
  }
  data_param {
    source: "./data2/rail_val_lmdb"
    batch_size: 100
    backend: LMDB
  }
}
layer {
  name: "conv1"
  type: "Convolution"
  bottom: "data"
  top: "conv1"
  param {
    lr_mult: 1
    decay_mult: 1
  }
  param {
    lr_mult: 2
    decay_mult: 0
  }
  convolution_param {
    num_output: 64
    kernel_size: 15
    stride: 3
    weight_filler {
      type: "xavier"
      std: 0.01
    }
    bias_filler {
      type: "constant"
      value: 0
    }
  }
}
layer {
  name: "relu1"
  type: "ReLU"
  bottom: "conv1"
  top: "conv1"
}
layer {
  name: "pool1"
  type: "Pooling"
  bottom: "conv1"
  top: "pool1"
  pooling_param {
    pool: MAX
    kernel_size: 3
    stride: 2
  }
}
layer {
  name: "conv2"
  type: "Convolution"
  bottom: "pool1"
  top: "conv2"
  param {
    lr_mult: 1
    decay_mult: 1
  }
  param {
    lr_mult: 2
    decay_mult: 0
  }
  convolution_param {
    num_output: 128
    pad: 0
    kernel_size: 5
    group: 1
    weight_filler {
      type: "xavier"
      std: 0.01
    }
    bias_filler {
      type: "constant"
      value: 0.1
    }
  }
}
layer {
  name: "relu2"
  type: "ReLU"
  bottom: "conv2"
  top: "conv2"
}
layer {
  name: "pool2"
  type: "Pooling"
  bottom: "conv2"
  top: "pool2"
  pooling_param {
    pool: MAX
    kernel_size: 3
    stride: 2
  }
}
layer {
  name: "conv3"
  type: "Convolution"
  bottom: "pool2"
  top: "conv3"
  param {
    lr_mult: 1
    decay_mult: 1
  }
  param {
    lr_mult: 2
    decay_mult: 0
  }
  convolution_param {
    num_output: 256
    pad: 1
    kernel_size: 3
    weight_filler {
      type: "xavier"
      std: 0.01
    }
    bias_filler {
      type: "constant"
      value: 0
    }
  }
}
layer {
  name: "relu3"
  type: "ReLU"
  bottom: "conv3"
  top: "conv3"
}
layer {
  name: "conv4"
  type: "Convolution"
  bottom: "conv3"
  top: "conv4"
  param {
    lr_mult: 1
    decay_mult: 1
  }
  param {
    lr_mult: 2
    decay_mult: 0
  }
  convolution_param {
    num_output: 256
    pad: 1
    kernel_size: 3
    group: 2
    weight_filler {
      type: "xavier"
      std: 0.01
    }
    bias_filler {
      type: "constant"
      value: 0.1
    }
  }
}
layer {
  name: "relu4"
  type: "ReLU"
  bottom: "conv4"
  top: "conv4"
}
layer {
  name: "conv5"
  type: "Convolution"
  bottom: "conv4"
  top: "conv5"
  param {
    lr_mult: 1
    decay_mult: 1
  }
  param {
    lr_mult: 2
    decay_mult: 0
  }
  convolution_param {
    num_output: 256
    pad: 1
    kernel_size: 3
    group: 2
    weight_filler {
      type: "xavier"
      std: 0.01
    }
    bias_filler {
      type: "constant"
      value: 0.1
    }
  }
}
layer {
  name: "relu5"
  type: "ReLU"
  bottom: "conv5"
  top: "conv5"
}
layer {
  name: "pool5"
  type: "Pooling"
  bottom: "conv5"
  top: "pool5"
  pooling_param {
    pool: MAX
    kernel_size: 3
    stride: 2
  }
}
layer {
  name: "fc6"
  type: "InnerProduct"
  bottom: "pool5"
  top: "fc6"
  param {
    lr_mult: 1
    decay_mult: 1
  }
  param {
    lr_mult: 2
    decay_mult: 0
  }
  inner_product_param {
    num_output: 512
    weight_filler {
      type: "xavier"
      std: 0.005
    }
    bias_filler {
      type: "constant"
      value: 0.1
    }
  }
}
layer {
  name: "relu6"
  type: "ReLU"
  bottom: "fc6"
  top: "fc6"
}
layer {
  name: "drop6"
  type: "Dropout"
  bottom: "fc6"
  top: "fc6"
  dropout_param {
    dropout_ratio: 0.5
  }
}
layer {
  name: "fc7"
  type: "InnerProduct"
  bottom: "fc6"
  top: "fc7"
  param {
    lr_mult: 1
    decay_mult: 1
  }
  param {
    lr_mult: 2
    decay_mult: 0
  }
  inner_product_param {
    num_output: 512
    weight_filler {
      type: "xavier"
      std: 0.005
    }
    bias_filler {
      type: "constant"
      value: 0.1
    }
  }
}
layer {
  name: "relu7"
  type: "ReLU"
  bottom: "fc7"
  top: "fc7"
}
layer {
  name: "drop7"
  type: "Dropout"
  bottom: "fc7"
  top: "fc7"
  dropout_param {
    dropout_ratio: 0.5
  }
}
layer {
  name: "fc8_flickr"
  type: "InnerProduct"
  bottom: "fc7"
  top: "fc8_flickr"
  param {
    lr_mult: 1
    decay_mult: 1
  }
  param {
    lr_mult: 2
    decay_mult: 0
  }
  inner_product_param {
    num_output: 7
    weight_filler {
      type: "xavier"
      std: 0.01
    }
    bias_filler {
      type: "constant"
      value: 0
    }
  }
}
layer {
  name: "accuracy"
  type: "Accuracy"
  bottom: "fc8_flickr"
  bottom: "label"
  top: "accuracy"
  include {
    phase: TEST
  }
}
layer {
  name: "loss"
  type: "SoftmaxWithLoss"
  bottom: "fc8_flickr"
  bottom: "label"
  top: "loss"
}
I0115 16:10:27.073979 17375 layer_factory.hpp:77] Creating layer data
I0115 16:10:27.074057 17375 db_lmdb.cpp:35] Opened lmdb ./data2/rail_val_lmdb
I0115 16:10:27.074086 17375 net.cpp:84] Creating Layer data
I0115 16:10:27.074093 17375 net.cpp:380] data -> data
I0115 16:10:27.074105 17375 net.cpp:380] data -> label
I0115 16:10:27.074295 17375 data_layer.cpp:45] output data size: 100,3,200,200
I0115 16:10:27.214248 17375 net.cpp:122] Setting up data
I0115 16:10:27.214298 17375 net.cpp:129] Top shape: 100 3 200 200 (12000000)
I0115 16:10:27.214305 17375 net.cpp:129] Top shape: 100 (100)
I0115 16:10:27.214310 17375 net.cpp:137] Memory required for data: 48000400
I0115 16:10:27.214319 17375 layer_factory.hpp:77] Creating layer label_data_1_split
I0115 16:10:27.214339 17375 net.cpp:84] Creating Layer label_data_1_split
I0115 16:10:27.214345 17375 net.cpp:406] label_data_1_split <- label
I0115 16:10:27.214357 17375 net.cpp:380] label_data_1_split -> label_data_1_split_0
I0115 16:10:27.214372 17375 net.cpp:380] label_data_1_split -> label_data_1_split_1
I0115 16:10:27.214740 17375 net.cpp:122] Setting up label_data_1_split
I0115 16:10:27.214807 17375 net.cpp:129] Top shape: 100 (100)
I0115 16:10:27.214819 17375 net.cpp:129] Top shape: 100 (100)
I0115 16:10:27.214828 17375 net.cpp:137] Memory required for data: 48001200
I0115 16:10:27.214840 17375 layer_factory.hpp:77] Creating layer conv1
I0115 16:10:27.214879 17375 net.cpp:84] Creating Layer conv1
I0115 16:10:27.214891 17375 net.cpp:406] conv1 <- data
I0115 16:10:27.214910 17375 net.cpp:380] conv1 -> conv1
I0115 16:10:27.222648 17375 net.cpp:122] Setting up conv1
I0115 16:10:27.222688 17375 net.cpp:129] Top shape: 100 64 62 62 (24601600)
I0115 16:10:27.222714 17375 net.cpp:137] Memory required for data: 146407600
I0115 16:10:27.222759 17375 layer_factory.hpp:77] Creating layer relu1
I0115 16:10:27.222776 17375 net.cpp:84] Creating Layer relu1
I0115 16:10:27.222786 17375 net.cpp:406] relu1 <- conv1
I0115 16:10:27.222800 17375 net.cpp:367] relu1 -> conv1 (in-place)
I0115 16:10:27.223176 17375 net.cpp:122] Setting up relu1
I0115 16:10:27.223199 17375 net.cpp:129] Top shape: 100 64 62 62 (24601600)
I0115 16:10:27.223207 17375 net.cpp:137] Memory required for data: 244814000
I0115 16:10:27.223217 17375 layer_factory.hpp:77] Creating layer pool1
I0115 16:10:27.223235 17375 net.cpp:84] Creating Layer pool1
I0115 16:10:27.223244 17375 net.cpp:406] pool1 <- conv1
I0115 16:10:27.223258 17375 net.cpp:380] pool1 -> pool1
I0115 16:10:27.223348 17375 net.cpp:122] Setting up pool1
I0115 16:10:27.223363 17375 net.cpp:129] Top shape: 100 64 31 31 (6150400)
I0115 16:10:27.223371 17375 net.cpp:137] Memory required for data: 269415600
I0115 16:10:27.223379 17375 layer_factory.hpp:77] Creating layer conv2
I0115 16:10:27.223402 17375 net.cpp:84] Creating Layer conv2
I0115 16:10:27.223410 17375 net.cpp:406] conv2 <- pool1
I0115 16:10:27.223425 17375 net.cpp:380] conv2 -> conv2
I0115 16:10:27.228884 17375 net.cpp:122] Setting up conv2
I0115 16:10:27.228921 17375 net.cpp:129] Top shape: 100 128 27 27 (9331200)
I0115 16:10:27.228930 17375 net.cpp:137] Memory required for data: 306740400
I0115 16:10:27.228951 17375 layer_factory.hpp:77] Creating layer relu2
I0115 16:10:27.228966 17375 net.cpp:84] Creating Layer relu2
I0115 16:10:27.228976 17375 net.cpp:406] relu2 <- conv2
I0115 16:10:27.228991 17375 net.cpp:367] relu2 -> conv2 (in-place)
I0115 16:10:27.229344 17375 net.cpp:122] Setting up relu2
I0115 16:10:27.229364 17375 net.cpp:129] Top shape: 100 128 27 27 (9331200)
I0115 16:10:27.229373 17375 net.cpp:137] Memory required for data: 344065200
I0115 16:10:27.229382 17375 layer_factory.hpp:77] Creating layer pool2
I0115 16:10:27.229394 17375 net.cpp:84] Creating Layer pool2
I0115 16:10:27.229403 17375 net.cpp:406] pool2 <- conv2
I0115 16:10:27.229418 17375 net.cpp:380] pool2 -> pool2
I0115 16:10:27.229499 17375 net.cpp:122] Setting up pool2
I0115 16:10:27.229516 17375 net.cpp:129] Top shape: 100 128 13 13 (2163200)
I0115 16:10:27.229523 17375 net.cpp:137] Memory required for data: 352718000
I0115 16:10:27.229532 17375 layer_factory.hpp:77] Creating layer conv3
I0115 16:10:27.229555 17375 net.cpp:84] Creating Layer conv3
I0115 16:10:27.229564 17375 net.cpp:406] conv3 <- pool2
I0115 16:10:27.229578 17375 net.cpp:380] conv3 -> conv3
I0115 16:10:27.238688 17375 net.cpp:122] Setting up conv3
I0115 16:10:27.238723 17375 net.cpp:129] Top shape: 100 256 13 13 (4326400)
I0115 16:10:27.238732 17375 net.cpp:137] Memory required for data: 370023600
I0115 16:10:27.238752 17375 layer_factory.hpp:77] Creating layer relu3
I0115 16:10:27.238768 17375 net.cpp:84] Creating Layer relu3
I0115 16:10:27.238777 17375 net.cpp:406] relu3 <- conv3
I0115 16:10:27.238790 17375 net.cpp:367] relu3 -> conv3 (in-place)
I0115 16:10:27.239135 17375 net.cpp:122] Setting up relu3
I0115 16:10:27.239156 17375 net.cpp:129] Top shape: 100 256 13 13 (4326400)
I0115 16:10:27.239162 17375 net.cpp:137] Memory required for data: 387329200
I0115 16:10:27.239171 17375 layer_factory.hpp:77] Creating layer conv4
I0115 16:10:27.239192 17375 net.cpp:84] Creating Layer conv4
I0115 16:10:27.239202 17375 net.cpp:406] conv4 <- conv3
I0115 16:10:27.239215 17375 net.cpp:380] conv4 -> conv4
I0115 16:10:27.249856 17375 net.cpp:122] Setting up conv4
I0115 16:10:27.249891 17375 net.cpp:129] Top shape: 100 256 13 13 (4326400)
I0115 16:10:27.249899 17375 net.cpp:137] Memory required for data: 404634800
I0115 16:10:27.249914 17375 layer_factory.hpp:77] Creating layer relu4
I0115 16:10:27.249927 17375 net.cpp:84] Creating Layer relu4
I0115 16:10:27.249935 17375 net.cpp:406] relu4 <- conv4
I0115 16:10:27.249949 17375 net.cpp:367] relu4 -> conv4 (in-place)
I0115 16:10:27.250254 17375 net.cpp:122] Setting up relu4
I0115 16:10:27.250272 17375 net.cpp:129] Top shape: 100 256 13 13 (4326400)
I0115 16:10:27.250301 17375 net.cpp:137] Memory required for data: 421940400
I0115 16:10:27.250310 17375 layer_factory.hpp:77] Creating layer conv5
I0115 16:10:27.250329 17375 net.cpp:84] Creating Layer conv5
I0115 16:10:27.250337 17375 net.cpp:406] conv5 <- conv4
I0115 16:10:27.250350 17375 net.cpp:380] conv5 -> conv5
I0115 16:10:27.260422 17375 net.cpp:122] Setting up conv5
I0115 16:10:27.260454 17375 net.cpp:129] Top shape: 100 256 13 13 (4326400)
I0115 16:10:27.260462 17375 net.cpp:137] Memory required for data: 439246000
I0115 16:10:27.260481 17375 layer_factory.hpp:77] Creating layer relu5
I0115 16:10:27.260496 17375 net.cpp:84] Creating Layer relu5
I0115 16:10:27.260504 17375 net.cpp:406] relu5 <- conv5
I0115 16:10:27.260515 17375 net.cpp:367] relu5 -> conv5 (in-place)
I0115 16:10:27.260800 17375 net.cpp:122] Setting up relu5
I0115 16:10:27.260818 17375 net.cpp:129] Top shape: 100 256 13 13 (4326400)
I0115 16:10:27.260824 17375 net.cpp:137] Memory required for data: 456551600
I0115 16:10:27.260831 17375 layer_factory.hpp:77] Creating layer pool5
I0115 16:10:27.260843 17375 net.cpp:84] Creating Layer pool5
I0115 16:10:27.260851 17375 net.cpp:406] pool5 <- conv5
I0115 16:10:27.260864 17375 net.cpp:380] pool5 -> pool5
I0115 16:10:27.260941 17375 net.cpp:122] Setting up pool5
I0115 16:10:27.260954 17375 net.cpp:129] Top shape: 100 256 6 6 (921600)
I0115 16:10:27.260962 17375 net.cpp:137] Memory required for data: 460238000
I0115 16:10:27.260968 17375 layer_factory.hpp:77] Creating layer fc6
I0115 16:10:27.260983 17375 net.cpp:84] Creating Layer fc6
I0115 16:10:27.260992 17375 net.cpp:406] fc6 <- pool5
I0115 16:10:27.261003 17375 net.cpp:380] fc6 -> fc6
I0115 16:10:27.311688 17375 net.cpp:122] Setting up fc6
I0115 16:10:27.311748 17375 net.cpp:129] Top shape: 100 512 (51200)
I0115 16:10:27.311754 17375 net.cpp:137] Memory required for data: 460442800
I0115 16:10:27.311772 17375 layer_factory.hpp:77] Creating layer relu6
I0115 16:10:27.311794 17375 net.cpp:84] Creating Layer relu6
I0115 16:10:27.311801 17375 net.cpp:406] relu6 <- fc6
I0115 16:10:27.311813 17375 net.cpp:367] relu6 -> fc6 (in-place)
I0115 16:10:27.313226 17375 net.cpp:122] Setting up relu6
I0115 16:10:27.313247 17375 net.cpp:129] Top shape: 100 512 (51200)
I0115 16:10:27.313252 17375 net.cpp:137] Memory required for data: 460647600
I0115 16:10:27.313258 17375 layer_factory.hpp:77] Creating layer drop6
I0115 16:10:27.313272 17375 net.cpp:84] Creating Layer drop6
I0115 16:10:27.313278 17375 net.cpp:406] drop6 <- fc6
I0115 16:10:27.313288 17375 net.cpp:367] drop6 -> fc6 (in-place)
I0115 16:10:27.313336 17375 net.cpp:122] Setting up drop6
I0115 16:10:27.313346 17375 net.cpp:129] Top shape: 100 512 (51200)
I0115 16:10:27.313351 17375 net.cpp:137] Memory required for data: 460852400
I0115 16:10:27.313356 17375 layer_factory.hpp:77] Creating layer fc7
I0115 16:10:27.313369 17375 net.cpp:84] Creating Layer fc7
I0115 16:10:27.313375 17375 net.cpp:406] fc7 <- fc6
I0115 16:10:27.313385 17375 net.cpp:380] fc7 -> fc7
I0115 16:10:27.316941 17375 net.cpp:122] Setting up fc7
I0115 16:10:27.316970 17375 net.cpp:129] Top shape: 100 512 (51200)
I0115 16:10:27.316977 17375 net.cpp:137] Memory required for data: 461057200
I0115 16:10:27.316987 17375 layer_factory.hpp:77] Creating layer relu7
I0115 16:10:27.316998 17375 net.cpp:84] Creating Layer relu7
I0115 16:10:27.317003 17375 net.cpp:406] relu7 <- fc7
I0115 16:10:27.317029 17375 net.cpp:367] relu7 -> fc7 (in-place)
I0115 16:10:27.317266 17375 net.cpp:122] Setting up relu7
I0115 16:10:27.317279 17375 net.cpp:129] Top shape: 100 512 (51200)
I0115 16:10:27.317284 17375 net.cpp:137] Memory required for data: 461262000
I0115 16:10:27.317291 17375 layer_factory.hpp:77] Creating layer drop7
I0115 16:10:27.317299 17375 net.cpp:84] Creating Layer drop7
I0115 16:10:27.317306 17375 net.cpp:406] drop7 <- fc7
I0115 16:10:27.317313 17375 net.cpp:367] drop7 -> fc7 (in-place)
I0115 16:10:27.317351 17375 net.cpp:122] Setting up drop7
I0115 16:10:27.317360 17375 net.cpp:129] Top shape: 100 512 (51200)
I0115 16:10:27.317376 17375 net.cpp:137] Memory required for data: 461466800
I0115 16:10:27.317394 17375 layer_factory.hpp:77] Creating layer fc8_flickr
I0115 16:10:27.317406 17375 net.cpp:84] Creating Layer fc8_flickr
I0115 16:10:27.317411 17375 net.cpp:406] fc8_flickr <- fc7
I0115 16:10:27.317421 17375 net.cpp:380] fc8_flickr -> fc8_flickr
I0115 16:10:27.317615 17375 net.cpp:122] Setting up fc8_flickr
I0115 16:10:27.317642 17375 net.cpp:129] Top shape: 100 7 (700)
I0115 16:10:27.317647 17375 net.cpp:137] Memory required for data: 461469600
I0115 16:10:27.317656 17375 layer_factory.hpp:77] Creating layer fc8_flickr_fc8_flickr_0_split
I0115 16:10:27.317665 17375 net.cpp:84] Creating Layer fc8_flickr_fc8_flickr_0_split
I0115 16:10:27.317672 17375 net.cpp:406] fc8_flickr_fc8_flickr_0_split <- fc8_flickr
I0115 16:10:27.317682 17375 net.cpp:380] fc8_flickr_fc8_flickr_0_split -> fc8_flickr_fc8_flickr_0_split_0
I0115 16:10:27.317692 17375 net.cpp:380] fc8_flickr_fc8_flickr_0_split -> fc8_flickr_fc8_flickr_0_split_1
I0115 16:10:27.317746 17375 net.cpp:122] Setting up fc8_flickr_fc8_flickr_0_split
I0115 16:10:27.317756 17375 net.cpp:129] Top shape: 100 7 (700)
I0115 16:10:27.317762 17375 net.cpp:129] Top shape: 100 7 (700)
I0115 16:10:27.317767 17375 net.cpp:137] Memory required for data: 461475200
I0115 16:10:27.317771 17375 layer_factory.hpp:77] Creating layer accuracy
I0115 16:10:27.317785 17375 net.cpp:84] Creating Layer accuracy
I0115 16:10:27.317790 17375 net.cpp:406] accuracy <- fc8_flickr_fc8_flickr_0_split_0
I0115 16:10:27.317795 17375 net.cpp:406] accuracy <- label_data_1_split_0
I0115 16:10:27.317804 17375 net.cpp:380] accuracy -> accuracy
…
