…
I0115 16:28:00.707164 17681 net.cpp:294] The NetState phase (0) differed from the phase (1) specified by a rule in layer data
I0115 16:28:00.707188 17681 net.cpp:294] The NetState phase (0) differed from the phase (1) specified by a rule in layer accuracy
I0115 16:28:00.707317 17681 net.cpp:51] Initializing net from parameters: 
name: "Sketch-a-Net"
state {
  phase: TRAIN
  level: 0
  stage: ""
}
layer {
  name: "data"
  type: "Data"
  top: "data"
  top: "label"
  include {
    phase: TRAIN
  }
  transform_param {
    scale: 0.00390625
  }
  data_param {
    source: "./data2/rail_train_lmdb"
    batch_size: 128
    backend: LMDB
  }
}
layer {
  name: "conv1"
  type: "Convolution"
  bottom: "data"
  top: "conv1"
  param {
    lr_mult: 1
    decay_mult: 1
  }
  param {
    lr_mult: 2
    decay_mult: 0
  }
  convolution_param {
    num_output: 64
    kernel_size: 15
    stride: 3
    weight_filler {
      type: "xavier"
      std: 0.01
    }
    bias_filler {
      type: "constant"
      value: 0
    }
  }
}
layer {
  name: "relu1"
  type: "ReLU"
  bottom: "conv1"
  top: "conv1"
}
layer {
  name: "pool1"
  type: "Pooling"
  bottom: "conv1"
  top: "pool1"
  pooling_param {
    pool: MAX
    kernel_size: 3
    stride: 2
  }
}
layer {
  name: "conv2"
  type: "Convolution"
  bottom: "pool1"
  top: "conv2"
  param {
    lr_mult: 1
    decay_mult: 1
  }
  param {
    lr_mult: 2
    decay_mult: 0
  }
  convolution_param {
    num_output: 128
    pad: 0
    kernel_size: 5
    group: 1
    weight_filler {
      type: "xavier"
      std: 0.01
    }
    bias_filler {
      type: "constant"
      value: 0.1
    }
  }
}
layer {
  name: "relu2"
  type: "ReLU"
  bottom: "conv2"
  top: "conv2"
}
layer {
  name: "pool2"
  type: "Pooling"
  bottom: "conv2"
  top: "pool2"
  pooling_param {
    pool: MAX
    kernel_size: 3
    stride: 2
  }
}
layer {
  name: "conv3"
  type: "Convolution"
  bottom: "pool2"
  top: "conv3"
  param {
    lr_mult: 1
    decay_mult: 1
  }
  param {
    lr_mult: 2
    decay_mult: 0
  }
  convolution_param {
    num_output: 256
    pad: 1
    kernel_size: 3
    weight_filler {
      type: "xavier"
      std: 0.01
    }
    bias_filler {
      type: "constant"
      value: 0
    }
  }
}
layer {
  name: "relu3"
  type: "ReLU"
  bottom: "conv3"
  top: "conv3"
}
layer {
  name: "conv4"
  type: "Convolution"
  bottom: "conv3"
  top: "conv4"
  param {
    lr_mult: 1
    decay_mult: 1
  }
  param {
    lr_mult: 2
    decay_mult: 0
  }
  convolution_param {
    num_output: 256
    pad: 1
    kernel_size: 3
    weight_filler {
      type: "xavier"
      std: 0.01
    }
    bias_filler {
      type: "constant"
      value: 0.1
    }
  }
}
layer {
  name: "relu4"
  type: "ReLU"
  bottom: "conv4"
  top: "conv4"
}
layer {
  name: "conv5"
  type: "Convolution"
  bottom: "conv4"
  top: "conv5"
  param {
    lr_mult: 1
    decay_mult: 1
  }
  param {
    lr_mult: 2
    decay_mult: 0
  }
  convolution_param {
    num_output: 256
    pad: 1
    kernel_size: 3
    weight_filler {
      type: "xavier"
      std: 0.01
    }
    bias_filler {
      type: "constant"
      value: 0.1
    }
  }
}
layer {
  name: "relu5"
  type: "ReLU"
  bottom: "conv5"
  top: "conv5"
}
layer {
  name: "pool5"
  type: "Pooling"
  bottom: "conv5"
  top: "pool5"
  pooling_param {
    pool: MAX
    kernel_size: 3
    stride: 2
  }
}
layer {
  name: "fc6"
  type: "InnerProduct"
  bottom: "pool5"
  top: "fc6"
  param {
    lr_mult: 1
    decay_mult: 1
  }
  param {
    lr_mult: 2
    decay_mult: 0
  }
  inner_product_param {
    num_output: 512
    weight_filler {
      type: "xavier"
      std: 0.005
    }
    bias_filler {
      type: "constant"
      value: 0.1
    }
  }
}
layer {
  name: "relu6"
  type: "ReLU"
  bottom: "fc6"
  top: "fc6"
}
layer {
  name: "drop6"
  type: "Dropout"
  bottom: "fc6"
  top: "fc6"
  dropout_param {
    dropout_ratio: 0.5
  }
}
layer {
  name: "fc7"
  type: "InnerProduct"
  bottom: "fc6"
  top: "fc7"
  param {
    lr_mult: 1
    decay_mult: 1
  }
  param {
    lr_mult: 2
    decay_mult: 0
  }
  inner_product_param {
    num_output: 512
    weight_filler {
      type: "xavier"
      std: 0.005
    }
    bias_filler {
      type: "constant"
      value: 0.1
    }
  }
}
layer {
  name: "relu7"
  type: "ReLU"
  bottom: "fc7"
  top: "fc7"
}
layer {
  name: "drop7"
  type: "Dropout"
  bottom: "fc7"
  top: "fc7"
  dropout_param {
    dropout_ratio: 0.5
  }
}
layer {
  name: "fc8_flickr"
  type: "InnerProduct"
  bottom: "fc7"
  top: "fc8_flickr"
  param {
    lr_mult: 1
    decay_mult: 1
  }
  param {
    lr_mult: 2
    decay_mult: 0
  }
  inner_product_param {
    num_output: 7
    weight_filler {
      type: "xavier"
      std: 0.01
    }
    bias_filler {
      type: "constant"
      value: 0
    }
  }
}
layer {
  name: "loss"
  type: "SoftmaxWithLoss"
  bottom: "fc8_flickr"
  bottom: "label"
  top: "loss"
}
I0115 16:28:00.707415 17681 layer_factory.hpp:77] Creating layer data
I0115 16:28:00.707535 17681 db_lmdb.cpp:35] Opened lmdb ./data2/rail_train_lmdb
I0115 16:28:00.707568 17681 net.cpp:84] Creating Layer data
I0115 16:28:00.707578 17681 net.cpp:380] data -> data
I0115 16:28:00.707604 17681 net.cpp:380] data -> label
I0115 16:28:00.708804 17681 data_layer.cpp:45] output data size: 128,3,200,200
I0115 16:28:00.854791 17681 net.cpp:122] Setting up data
I0115 16:28:00.854838 17681 net.cpp:129] Top shape: 128 3 200 200 (15360000)
I0115 16:28:00.854845 17681 net.cpp:129] Top shape: 128 (128)
I0115 16:28:00.854847 17681 net.cpp:137] Memory required for data: 61440512
I0115 16:28:00.854858 17681 layer_factory.hpp:77] Creating layer conv1
I0115 16:28:00.854890 17681 net.cpp:84] Creating Layer conv1
I0115 16:28:00.854899 17681 net.cpp:406] conv1 <- data
I0115 16:28:00.854917 17681 net.cpp:380] conv1 -> conv1
I0115 16:28:01.887104 17681 net.cpp:122] Setting up conv1
I0115 16:28:01.887159 17681 net.cpp:129] Top shape: 128 64 62 62 (31490048)
I0115 16:28:01.887166 17681 net.cpp:137] Memory required for data: 187400704
I0115 16:28:01.887192 17681 layer_factory.hpp:77] Creating layer relu1
I0115 16:28:01.887215 17681 net.cpp:84] Creating Layer relu1
I0115 16:28:01.887221 17681 net.cpp:406] relu1 <- conv1
I0115 16:28:01.887229 17681 net.cpp:367] relu1 -> conv1 (in-place)
I0115 16:28:01.887394 17681 net.cpp:122] Setting up relu1
I0115 16:28:01.887409 17681 net.cpp:129] Top shape: 128 64 62 62 (31490048)
I0115 16:28:01.887413 17681 net.cpp:137] Memory required for data: 313360896
I0115 16:28:01.887418 17681 layer_factory.hpp:77] Creating layer pool1
I0115 16:28:01.887426 17681 net.cpp:84] Creating Layer pool1
I0115 16:28:01.887430 17681 net.cpp:406] pool1 <- conv1
I0115 16:28:01.887435 17681 net.cpp:380] pool1 -> pool1
I0115 16:28:01.887487 17681 net.cpp:122] Setting up pool1
I0115 16:28:01.887495 17681 net.cpp:129] Top shape: 128 64 31 31 (7872512)
I0115 16:28:01.887498 17681 net.cpp:137] Memory required for data: 344850944
I0115 16:28:01.887502 17681 layer_factory.hpp:77] Creating layer conv2
I0115 16:28:01.887517 17681 net.cpp:84] Creating Layer conv2
I0115 16:28:01.887521 17681 net.cpp:406] conv2 <- pool1
I0115 16:28:01.887527 17681 net.cpp:380] conv2 -> conv2
I0115 16:28:01.891814 17681 net.cpp:122] Setting up conv2
I0115 16:28:01.891832 17681 net.cpp:129] Top shape: 128 128 27 27 (11943936)
I0115 16:28:01.891836 17681 net.cpp:137] Memory required for data: 392626688
I0115 16:28:01.891846 17681 layer_factory.hpp:77] Creating layer relu2
I0115 16:28:01.891862 17681 net.cpp:84] Creating Layer relu2
I0115 16:28:01.891878 17681 net.cpp:406] relu2 <- conv2
I0115 16:28:01.891885 17681 net.cpp:367] relu2 -> conv2 (in-place)
I0115 16:28:01.892626 17681 net.cpp:122] Setting up relu2
I0115 16:28:01.892640 17681 net.cpp:129] Top shape: 128 128 27 27 (11943936)
I0115 16:28:01.892644 17681 net.cpp:137] Memory required for data: 440402432
I0115 16:28:01.892648 17681 layer_factory.hpp:77] Creating layer pool2
I0115 16:28:01.892655 17681 net.cpp:84] Creating Layer pool2
I0115 16:28:01.892659 17681 net.cpp:406] pool2 <- conv2
I0115 16:28:01.892666 17681 net.cpp:380] pool2 -> pool2
I0115 16:28:01.892704 17681 net.cpp:122] Setting up pool2
I0115 16:28:01.892711 17681 net.cpp:129] Top shape: 128 128 13 13 (2768896)
I0115 16:28:01.892714 17681 net.cpp:137] Memory required for data: 451478016
I0115 16:28:01.892719 17681 layer_factory.hpp:77] Creating layer conv3
I0115 16:28:01.892729 17681 net.cpp:84] Creating Layer conv3
I0115 16:28:01.892732 17681 net.cpp:406] conv3 <- pool2
I0115 16:28:01.892737 17681 net.cpp:380] conv3 -> conv3
I0115 16:28:01.895413 17681 net.cpp:122] Setting up conv3
I0115 16:28:01.895428 17681 net.cpp:129] Top shape: 128 256 13 13 (5537792)
I0115 16:28:01.895433 17681 net.cpp:137] Memory required for data: 473629184
I0115 16:28:01.895442 17681 layer_factory.hpp:77] Creating layer relu3
I0115 16:28:01.895450 17681 net.cpp:84] Creating Layer relu3
I0115 16:28:01.895454 17681 net.cpp:406] relu3 <- conv3
I0115 16:28:01.895459 17681 net.cpp:367] relu3 -> conv3 (in-place)
I0115 16:28:01.896183 17681 net.cpp:122] Setting up relu3
I0115 16:28:01.896198 17681 net.cpp:129] Top shape: 128 256 13 13 (5537792)
I0115 16:28:01.896201 17681 net.cpp:137] Memory required for data: 495780352
I0115 16:28:01.896206 17681 layer_factory.hpp:77] Creating layer conv4
I0115 16:28:01.896215 17681 net.cpp:84] Creating Layer conv4
I0115 16:28:01.896220 17681 net.cpp:406] conv4 <- conv3
I0115 16:28:01.896226 17681 net.cpp:380] conv4 -> conv4
I0115 16:28:01.902106 17681 net.cpp:122] Setting up conv4
I0115 16:28:01.902122 17681 net.cpp:129] Top shape: 128 256 13 13 (5537792)
I0115 16:28:01.902127 17681 net.cpp:137] Memory required for data: 517931520
I0115 16:28:01.902134 17681 layer_factory.hpp:77] Creating layer relu4
I0115 16:28:01.902140 17681 net.cpp:84] Creating Layer relu4
I0115 16:28:01.902144 17681 net.cpp:406] relu4 <- conv4
I0115 16:28:01.902150 17681 net.cpp:367] relu4 -> conv4 (in-place)
I0115 16:28:01.902299 17681 net.cpp:122] Setting up relu4
I0115 16:28:01.902309 17681 net.cpp:129] Top shape: 128 256 13 13 (5537792)
I0115 16:28:01.902312 17681 net.cpp:137] Memory required for data: 540082688
I0115 16:28:01.902318 17681 layer_factory.hpp:77] Creating layer conv5
I0115 16:28:01.902326 17681 net.cpp:84] Creating Layer conv5
I0115 16:28:01.902330 17681 net.cpp:406] conv5 <- conv4
I0115 16:28:01.902336 17681 net.cpp:380] conv5 -> conv5
I0115 16:28:01.908205 17681 net.cpp:122] Setting up conv5
I0115 16:28:01.908221 17681 net.cpp:129] Top shape: 128 256 13 13 (5537792)
I0115 16:28:01.908226 17681 net.cpp:137] Memory required for data: 562233856
I0115 16:28:01.908236 17681 layer_factory.hpp:77] Creating layer relu5
I0115 16:28:01.908242 17681 net.cpp:84] Creating Layer relu5
I0115 16:28:01.908246 17681 net.cpp:406] relu5 <- conv5
I0115 16:28:01.908252 17681 net.cpp:367] relu5 -> conv5 (in-place)
I0115 16:28:01.908406 17681 net.cpp:122] Setting up relu5
I0115 16:28:01.908417 17681 net.cpp:129] Top shape: 128 256 13 13 (5537792)
I0115 16:28:01.908421 17681 net.cpp:137] Memory required for data: 584385024
I0115 16:28:01.908424 17681 layer_factory.hpp:77] Creating layer pool5
I0115 16:28:01.908430 17681 net.cpp:84] Creating Layer pool5
I0115 16:28:01.908435 17681 net.cpp:406] pool5 <- conv5
I0115 16:28:01.908440 17681 net.cpp:380] pool5 -> pool5
I0115 16:28:01.908479 17681 net.cpp:122] Setting up pool5
I0115 16:28:01.908486 17681 net.cpp:129] Top shape: 128 256 6 6 (1179648)
I0115 16:28:01.908490 17681 net.cpp:137] Memory required for data: 589103616
I0115 16:28:01.908493 17681 layer_factory.hpp:77] Creating layer fc6
I0115 16:28:01.908512 17681 net.cpp:84] Creating Layer fc6
I0115 16:28:01.908516 17681 net.cpp:406] fc6 <- pool5
I0115 16:28:01.908522 17681 net.cpp:380] fc6 -> fc6
I0115 16:28:01.939066 17681 net.cpp:122] Setting up fc6
I0115 16:28:01.939090 17681 net.cpp:129] Top shape: 128 512 (65536)
I0115 16:28:01.939093 17681 net.cpp:137] Memory required for data: 589365760
I0115 16:28:01.939101 17681 layer_factory.hpp:77] Creating layer relu6
I0115 16:28:01.939108 17681 net.cpp:84] Creating Layer relu6
I0115 16:28:01.939112 17681 net.cpp:406] relu6 <- fc6
I0115 16:28:01.939117 17681 net.cpp:367] relu6 -> fc6 (in-place)
I0115 16:28:01.939287 17681 net.cpp:122] Setting up relu6
I0115 16:28:01.939296 17681 net.cpp:129] Top shape: 128 512 (65536)
I0115 16:28:01.939301 17681 net.cpp:137] Memory required for data: 589627904
I0115 16:28:01.939303 17681 layer_factory.hpp:77] Creating layer drop6
I0115 16:28:01.939313 17681 net.cpp:84] Creating Layer drop6
I0115 16:28:01.939317 17681 net.cpp:406] drop6 <- fc6
I0115 16:28:01.939323 17681 net.cpp:367] drop6 -> fc6 (in-place)
I0115 16:28:01.939347 17681 net.cpp:122] Setting up drop6
I0115 16:28:01.939353 17681 net.cpp:129] Top shape: 128 512 (65536)
I0115 16:28:01.939357 17681 net.cpp:137] Memory required for data: 589890048
I0115 16:28:01.939360 17681 layer_factory.hpp:77] Creating layer fc7
I0115 16:28:01.939368 17681 net.cpp:84] Creating Layer fc7
I0115 16:28:01.939373 17681 net.cpp:406] fc7 <- fc6
I0115 16:28:01.939378 17681 net.cpp:380] fc7 -> fc7
I0115 16:28:01.941800 17681 net.cpp:122] Setting up fc7
I0115 16:28:01.941813 17681 net.cpp:129] Top shape: 128 512 (65536)
I0115 16:28:01.941817 17681 net.cpp:137] Memory required for data: 590152192
I0115 16:28:01.941824 17681 layer_factory.hpp:77] Creating layer relu7
I0115 16:28:01.941830 17681 net.cpp:84] Creating Layer relu7
I0115 16:28:01.941834 17681 net.cpp:406] relu7 <- fc7
I0115 16:28:01.941841 17681 net.cpp:367] relu7 -> fc7 (in-place)
I0115 16:28:01.942589 17681 net.cpp:122] Setting up relu7
I0115 16:28:01.942601 17681 net.cpp:129] Top shape: 128 512 (65536)
I0115 16:28:01.942605 17681 net.cpp:137] Memory required for data: 590414336
I0115 16:28:01.942610 17681 layer_factory.hpp:77] Creating layer drop7
I0115 16:28:01.942617 17681 net.cpp:84] Creating Layer drop7
I0115 16:28:01.942621 17681 net.cpp:406] drop7 <- fc7
I0115 16:28:01.942627 17681 net.cpp:367] drop7 -> fc7 (in-place)
I0115 16:28:01.942651 17681 net.cpp:122] Setting up drop7
I0115 16:28:01.942657 17681 net.cpp:129] Top shape: 128 512 (65536)
I0115 16:28:01.942661 17681 net.cpp:137] Memory required for data: 590676480
I0115 16:28:01.942663 17681 layer_factory.hpp:77] Creating layer fc8_flickr
I0115 16:28:01.942672 17681 net.cpp:84] Creating Layer fc8_flickr
I0115 16:28:01.942677 17681 net.cpp:406] fc8_flickr <- fc7
I0115 16:28:01.942682 17681 net.cpp:380] fc8_flickr -> fc8_flickr
I0115 16:28:01.942800 17681 net.cpp:122] Setting up fc8_flickr
I0115 16:28:01.942808 17681 net.cpp:129] Top shape: 128 7 (896)
I0115 16:28:01.942811 17681 net.cpp:137] Memory required for data: 590680064
I0115 16:28:01.942817 17681 layer_factory.hpp:77] Creating layer loss
I0115 16:28:01.942824 17681 net.cpp:84] Creating Layer loss
I0115 16:28:01.942828 17681 net.cpp:406] loss <- fc8_flickr
I0115 16:28:01.942832 17681 net.cpp:406] loss <- label
I0115 16:28:01.942839 17681 net.cpp:380] loss -> loss
I0115 16:28:01.942852 17681 layer_factory.hpp:77] Creating layer loss
…
I0115 16:28:01.943538 17681 solver.cpp:172] Creating test net (#0) specified by net file: ./sketch-a-net.prototxt
I0115 16:28:01.943572 17681 net.cpp:294] The NetState phase (1) differed from the phase (0) specified by a rule in layer data
I0115 16:28:01.943724 17681 net.cpp:51] Initializing net from parameters: 
name: "Sketch-a-Net"
state {
  phase: TEST
}
layer {
  name: "data"
  type: "Data"
  top: "data"
  top: "label"
  include {
    phase: TEST
  }
  transform_param {
    scale: 0.00390625
  }
  data_param {
    source: "./data2/rail_val_lmdb"
    batch_size: 100
    backend: LMDB
  }
}
layer {
  name: "conv1"
  type: "Convolution"
  bottom: "data"
  top: "conv1"
  param {
    lr_mult: 1
    decay_mult: 1
  }
  param {
    lr_mult: 2
    decay_mult: 0
  }
  convolution_param {
    num_output: 64
    kernel_size: 15
    stride: 3
    weight_filler {
      type: "xavier"
      std: 0.01
    }
    bias_filler {
      type: "constant"
      value: 0
    }
  }
}
layer {
  name: "relu1"
  type: "ReLU"
  bottom: "conv1"
  top: "conv1"
}
layer {
  name: "pool1"
  type: "Pooling"
  bottom: "conv1"
  top: "pool1"
  pooling_param {
    pool: MAX
    kernel_size: 3
    stride: 2
  }
}
layer {
  name: "conv2"
  type: "Convolution"
  bottom: "pool1"
  top: "conv2"
  param {
    lr_mult: 1
    decay_mult: 1
  }
  param {
    lr_mult: 2
    decay_mult: 0
  }
  convolution_param {
    num_output: 128
    pad: 0
    kernel_size: 5
    group: 1
    weight_filler {
      type: "xavier"
      std: 0.01
    }
    bias_filler {
      type: "constant"
      value: 0.1
    }
  }
}
layer {
  name: "relu2"
  type: "ReLU"
  bottom: "conv2"
  top: "conv2"
}
layer {
  name: "pool2"
  type: "Pooling"
  bottom: "conv2"
  top: "pool2"
  pooling_param {
    pool: MAX
    kernel_size: 3
    stride: 2
  }
}
layer {
  name: "conv3"
  type: "Convolution"
  bottom: "pool2"
  top: "conv3"
  param {
    lr_mult: 1
    decay_mult: 1
  }
  param {
    lr_mult: 2
    decay_mult: 0
  }
  convolution_param {
    num_output: 256
    pad: 1
    kernel_size: 3
    weight_filler {
      type: "xavier"
      std: 0.01
    }
    bias_filler {
      type: "constant"
      value: 0
    }
  }
}
layer {
  name: "relu3"
  type: "ReLU"
  bottom: "conv3"
  top: "conv3"
}
layer {
  name: "conv4"
  type: "Convolution"
  bottom: "conv3"
  top: "conv4"
  param {
    lr_mult: 1
    decay_mult: 1
  }
  param {
    lr_mult: 2
    decay_mult: 0
  }
  convolution_param {
    num_output: 256
    pad: 1
    kernel_size: 3
    weight_filler {
      type: "xavier"
      std: 0.01
    }
    bias_filler {
      type: "constant"
      value: 0.1
    }
  }
}
layer {
  name: "relu4"
  type: "ReLU"
  bottom: "conv4"
  top: "conv4"
}
layer {
  name: "conv5"
  type: "Convolution"
  bottom: "conv4"
  top: "conv5"
  param {
    lr_mult: 1
    decay_mult: 1
  }
  param {
    lr_mult: 2
    decay_mult: 0
  }
  convolution_param {
    num_output: 256
    pad: 1
    kernel_size: 3
    weight_filler {
      type: "xavier"
      std: 0.01
    }
    bias_filler {
      type: "constant"
      value: 0.1
    }
  }
}
layer {
  name: "relu5"
  type: "ReLU"
  bottom: "conv5"
  top: "conv5"
}
layer {
  name: "pool5"
  type: "Pooling"
  bottom: "conv5"
  top: "pool5"
  pooling_param {
    pool: MAX
    kernel_size: 3
    stride: 2
  }
}
layer {
  name: "fc6"
  type: "InnerProduct"
  bottom: "pool5"
  top: "fc6"
  param {
    lr_mult: 1
    decay_mult: 1
  }
  param {
    lr_mult: 2
    decay_mult: 0
  }
  inner_product_param {
    num_output: 512
    weight_filler {
      type: "xavier"
      std: 0.005
    }
    bias_filler {
      type: "constant"
      value: 0.1
    }
  }
}
layer {
  name: "relu6"
  type: "ReLU"
  bottom: "fc6"
  top: "fc6"
}
layer {
  name: "drop6"
  type: "Dropout"
  bottom: "fc6"
  top: "fc6"
  dropout_param {
    dropout_ratio: 0.5
  }
}
layer {
  name: "fc7"
  type: "InnerProduct"
  bottom: "fc6"
  top: "fc7"
  param {
    lr_mult: 1
    decay_mult: 1
  }
  param {
    lr_mult: 2
    decay_mult: 0
  }
  inner_product_param {
    num_output: 512
    weight_filler {
      type: "xavier"
      std: 0.005
    }
    bias_filler {
      type: "constant"
      value: 0.1
    }
  }
}
layer {
  name: "relu7"
  type: "ReLU"
  bottom: "fc7"
  top: "fc7"
}
layer {
  name: "drop7"
  type: "Dropout"
  bottom: "fc7"
  top: "fc7"
  dropout_param {
    dropout_ratio: 0.5
  }
}
layer {
  name: "fc8_flickr"
  type: "InnerProduct"
  bottom: "fc7"
  top: "fc8_flickr"
  param {
    lr_mult: 1
    decay_mult: 1
  }
  param {
    lr_mult: 2
    decay_mult: 0
  }
  inner_product_param {
    num_output: 7
    weight_filler {
      type: "xavier"
      std: 0.01
    }
    bias_filler {
      type: "constant"
      value: 0
    }
  }
}
layer {
  name: "accuracy"
  type: "Accuracy"
  bottom: "fc8_flickr"
  bottom: "label"
  top: "accuracy"
  include {
    phase: TEST
  }
}
layer {
  name: "loss"
  type: "SoftmaxWithLoss"
  bottom: "fc8_flickr"
  bottom: "label"
  top: "loss"
}
I0115 16:28:01.943819 17681 layer_factory.hpp:77] Creating layer data
I0115 16:28:01.943882 17681 db_lmdb.cpp:35] Opened lmdb ./data2/rail_val_lmdb
I0115 16:28:01.943900 17681 net.cpp:84] Creating Layer data
I0115 16:28:01.943907 17681 net.cpp:380] data -> data
I0115 16:28:01.943915 17681 net.cpp:380] data -> label
I0115 16:28:01.944139 17681 data_layer.cpp:45] output data size: 100,3,200,200
I0115 16:28:02.061699 17681 net.cpp:122] Setting up data
I0115 16:28:02.061756 17681 net.cpp:129] Top shape: 100 3 200 200 (12000000)
I0115 16:28:02.061764 17681 net.cpp:129] Top shape: 100 (100)
I0115 16:28:02.061767 17681 net.cpp:137] Memory required for data: 48000400
I0115 16:28:02.061775 17681 layer_factory.hpp:77] Creating layer label_data_1_split
I0115 16:28:02.061794 17681 net.cpp:84] Creating Layer label_data_1_split
I0115 16:28:02.061800 17681 net.cpp:406] label_data_1_split <- label
I0115 16:28:02.061810 17681 net.cpp:380] label_data_1_split -> label_data_1_split_0
I0115 16:28:02.061821 17681 net.cpp:380] label_data_1_split -> label_data_1_split_1
I0115 16:28:02.062053 17681 net.cpp:122] Setting up label_data_1_split
I0115 16:28:02.062113 17681 net.cpp:129] Top shape: 100 (100)
I0115 16:28:02.062125 17681 net.cpp:129] Top shape: 100 (100)
I0115 16:28:02.062134 17681 net.cpp:137] Memory required for data: 48001200
I0115 16:28:02.062144 17681 layer_factory.hpp:77] Creating layer conv1
I0115 16:28:02.062180 17681 net.cpp:84] Creating Layer conv1
I0115 16:28:02.062192 17681 net.cpp:406] conv1 <- data
I0115 16:28:02.062211 17681 net.cpp:380] conv1 -> conv1
I0115 16:28:02.069855 17681 net.cpp:122] Setting up conv1
I0115 16:28:02.069896 17681 net.cpp:129] Top shape: 100 64 62 62 (24601600)
I0115 16:28:02.069908 17681 net.cpp:137] Memory required for data: 146407600
I0115 16:28:02.069945 17681 layer_factory.hpp:77] Creating layer relu1
I0115 16:28:02.069981 17681 net.cpp:84] Creating Layer relu1
I0115 16:28:02.069991 17681 net.cpp:406] relu1 <- conv1
I0115 16:28:02.070005 17681 net.cpp:367] relu1 -> conv1 (in-place)
I0115 16:28:02.070353 17681 net.cpp:122] Setting up relu1
I0115 16:28:02.070371 17681 net.cpp:129] Top shape: 100 64 62 62 (24601600)
I0115 16:28:02.070379 17681 net.cpp:137] Memory required for data: 244814000
I0115 16:28:02.070389 17681 layer_factory.hpp:77] Creating layer pool1
I0115 16:28:02.070407 17681 net.cpp:84] Creating Layer pool1
I0115 16:28:02.070416 17681 net.cpp:406] pool1 <- conv1
I0115 16:28:02.070430 17681 net.cpp:380] pool1 -> pool1
I0115 16:28:02.070519 17681 net.cpp:122] Setting up pool1
I0115 16:28:02.070534 17681 net.cpp:129] Top shape: 100 64 31 31 (6150400)
I0115 16:28:02.070542 17681 net.cpp:137] Memory required for data: 269415600
I0115 16:28:02.070550 17681 layer_factory.hpp:77] Creating layer conv2
I0115 16:28:02.070571 17681 net.cpp:84] Creating Layer conv2
I0115 16:28:02.070580 17681 net.cpp:406] conv2 <- pool1
I0115 16:28:02.070595 17681 net.cpp:380] conv2 -> conv2
I0115 16:28:02.076098 17681 net.cpp:122] Setting up conv2
I0115 16:28:02.076131 17681 net.cpp:129] Top shape: 100 128 27 27 (9331200)
I0115 16:28:02.076140 17681 net.cpp:137] Memory required for data: 306740400
I0115 16:28:02.076161 17681 layer_factory.hpp:77] Creating layer relu2
I0115 16:28:02.076175 17681 net.cpp:84] Creating Layer relu2
I0115 16:28:02.076185 17681 net.cpp:406] relu2 <- conv2
I0115 16:28:02.076196 17681 net.cpp:367] relu2 -> conv2 (in-place)
I0115 16:28:02.076547 17681 net.cpp:122] Setting up relu2
I0115 16:28:02.076566 17681 net.cpp:129] Top shape: 100 128 27 27 (9331200)
I0115 16:28:02.076575 17681 net.cpp:137] Memory required for data: 344065200
I0115 16:28:02.076582 17681 layer_factory.hpp:77] Creating layer pool2
I0115 16:28:02.076596 17681 net.cpp:84] Creating Layer pool2
I0115 16:28:02.076602 17681 net.cpp:406] pool2 <- conv2
I0115 16:28:02.076618 17681 net.cpp:380] pool2 -> pool2
I0115 16:28:02.076697 17681 net.cpp:122] Setting up pool2
I0115 16:28:02.076711 17681 net.cpp:129] Top shape: 100 128 13 13 (2163200)
I0115 16:28:02.076719 17681 net.cpp:137] Memory required for data: 352718000
I0115 16:28:02.076727 17681 layer_factory.hpp:77] Creating layer conv3
I0115 16:28:02.076752 17681 net.cpp:84] Creating Layer conv3
I0115 16:28:02.076761 17681 net.cpp:406] conv3 <- pool2
I0115 16:28:02.076773 17681 net.cpp:380] conv3 -> conv3
I0115 16:28:02.085736 17681 net.cpp:122] Setting up conv3
I0115 16:28:02.085768 17681 net.cpp:129] Top shape: 100 256 13 13 (4326400)
I0115 16:28:02.085777 17681 net.cpp:137] Memory required for data: 370023600
I0115 16:28:02.085799 17681 layer_factory.hpp:77] Creating layer relu3
I0115 16:28:02.085814 17681 net.cpp:84] Creating Layer relu3
I0115 16:28:02.085822 17681 net.cpp:406] relu3 <- conv3
I0115 16:28:02.085834 17681 net.cpp:367] relu3 -> conv3 (in-place)
I0115 16:28:02.086184 17681 net.cpp:122] Setting up relu3
I0115 16:28:02.086205 17681 net.cpp:129] Top shape: 100 256 13 13 (4326400)
I0115 16:28:02.086211 17681 net.cpp:137] Memory required for data: 387329200
I0115 16:28:02.086220 17681 layer_factory.hpp:77] Creating layer conv4
I0115 16:28:02.086241 17681 net.cpp:84] Creating Layer conv4
I0115 16:28:02.086249 17681 net.cpp:406] conv4 <- conv3
I0115 16:28:02.086266 17681 net.cpp:380] conv4 -> conv4
I0115 16:28:02.097904 17681 net.cpp:122] Setting up conv4
I0115 16:28:02.097945 17681 net.cpp:129] Top shape: 100 256 13 13 (4326400)
I0115 16:28:02.097956 17681 net.cpp:137] Memory required for data: 404634800
I0115 16:28:02.097970 17681 layer_factory.hpp:77] Creating layer relu4
I0115 16:28:02.097981 17681 net.cpp:84] Creating Layer relu4
I0115 16:28:02.097990 17681 net.cpp:406] relu4 <- conv4
I0115 16:28:02.098006 17681 net.cpp:367] relu4 -> conv4 (in-place)
I0115 16:28:02.099476 17681 net.cpp:122] Setting up relu4
I0115 16:28:02.099503 17681 net.cpp:129] Top shape: 100 256 13 13 (4326400)
I0115 16:28:02.099521 17681 net.cpp:137] Memory required for data: 421940400
I0115 16:28:02.099544 17681 layer_factory.hpp:77] Creating layer conv5
I0115 16:28:02.099563 17681 net.cpp:84] Creating Layer conv5
I0115 16:28:02.099572 17681 net.cpp:406] conv5 <- conv4
I0115 16:28:02.099588 17681 net.cpp:380] conv5 -> conv5
I0115 16:28:02.110049 17681 net.cpp:122] Setting up conv5
I0115 16:28:02.110079 17681 net.cpp:129] Top shape: 100 256 13 13 (4326400)
I0115 16:28:02.110086 17681 net.cpp:137] Memory required for data: 439246000
I0115 16:28:02.110108 17681 layer_factory.hpp:77] Creating layer relu5
I0115 16:28:02.110122 17681 net.cpp:84] Creating Layer relu5
I0115 16:28:02.110131 17681 net.cpp:406] relu5 <- conv5
I0115 16:28:02.110141 17681 net.cpp:367] relu5 -> conv5 (in-place)
I0115 16:28:02.111599 17681 net.cpp:122] Setting up relu5
I0115 16:28:02.111629 17681 net.cpp:129] Top shape: 100 256 13 13 (4326400)
I0115 16:28:02.111636 17681 net.cpp:137] Memory required for data: 456551600
I0115 16:28:02.111644 17681 layer_factory.hpp:77] Creating layer pool5
I0115 16:28:02.111655 17681 net.cpp:84] Creating Layer pool5
I0115 16:28:02.111665 17681 net.cpp:406] pool5 <- conv5
I0115 16:28:02.111675 17681 net.cpp:380] pool5 -> pool5
I0115 16:28:02.111758 17681 net.cpp:122] Setting up pool5
I0115 16:28:02.111771 17681 net.cpp:129] Top shape: 100 256 6 6 (921600)
I0115 16:28:02.111778 17681 net.cpp:137] Memory required for data: 460238000
I0115 16:28:02.111785 17681 layer_factory.hpp:77] Creating layer fc6
I0115 16:28:02.111801 17681 net.cpp:84] Creating Layer fc6
I0115 16:28:02.111809 17681 net.cpp:406] fc6 <- pool5
I0115 16:28:02.111819 17681 net.cpp:380] fc6 -> fc6
I0115 16:28:02.164151 17681 net.cpp:122] Setting up fc6
I0115 16:28:02.164198 17681 net.cpp:129] Top shape: 100 512 (51200)
I0115 16:28:02.164204 17681 net.cpp:137] Memory required for data: 460442800
I0115 16:28:02.164219 17681 layer_factory.hpp:77] Creating layer relu6
I0115 16:28:02.164242 17681 net.cpp:84] Creating Layer relu6
I0115 16:28:02.164249 17681 net.cpp:406] relu6 <- fc6
I0115 16:28:02.164260 17681 net.cpp:367] relu6 -> fc6 (in-place)
I0115 16:28:02.164603 17681 net.cpp:122] Setting up relu6
I0115 16:28:02.164618 17681 net.cpp:129] Top shape: 100 512 (51200)
I0115 16:28:02.164623 17681 net.cpp:137] Memory required for data: 460647600
I0115 16:28:02.164628 17681 layer_factory.hpp:77] Creating layer drop6
I0115 16:28:02.164639 17681 net.cpp:84] Creating Layer drop6
I0115 16:28:02.164645 17681 net.cpp:406] drop6 <- fc6
I0115 16:28:02.164654 17681 net.cpp:367] drop6 -> fc6 (in-place)
I0115 16:28:02.164697 17681 net.cpp:122] Setting up drop6
I0115 16:28:02.164707 17681 net.cpp:129] Top shape: 100 512 (51200)
I0115 16:28:02.164713 17681 net.cpp:137] Memory required for data: 460852400
I0115 16:28:02.164718 17681 layer_factory.hpp:77] Creating layer fc7
I0115 16:28:02.164731 17681 net.cpp:84] Creating Layer fc7
I0115 16:28:02.164738 17681 net.cpp:406] fc7 <- fc6
I0115 16:28:02.164746 17681 net.cpp:380] fc7 -> fc7
I0115 16:28:02.168474 17681 net.cpp:122] Setting up fc7
I0115 16:28:02.168495 17681 net.cpp:129] Top shape: 100 512 (51200)
I0115 16:28:02.168503 17681 net.cpp:137] Memory required for data: 461057200
I0115 16:28:02.168512 17681 layer_factory.hpp:77] Creating layer relu7
I0115 16:28:02.168524 17681 net.cpp:84] Creating Layer relu7
I0115 16:28:02.168529 17681 net.cpp:406] relu7 <- fc7
I0115 16:28:02.168539 17681 net.cpp:367] relu7 -> fc7 (in-place)
I0115 16:28:02.168797 17681 net.cpp:122] Setting up relu7
I0115 16:28:02.168812 17681 net.cpp:129] Top shape: 100 512 (51200)
I0115 16:28:02.168817 17681 net.cpp:137] Memory required for data: 461262000
I0115 16:28:02.168823 17681 layer_factory.hpp:77] Creating layer drop7
I0115 16:28:02.168831 17681 net.cpp:84] Creating Layer drop7
I0115 16:28:02.168838 17681 net.cpp:406] drop7 <- fc7
I0115 16:28:02.168848 17681 net.cpp:367] drop7 -> fc7 (in-place)
I0115 16:28:02.168884 17681 net.cpp:122] Setting up drop7
I0115 16:28:02.168893 17681 net.cpp:129] Top shape: 100 512 (51200)
I0115 16:28:02.168898 17681 net.cpp:137] Memory required for data: 461466800
I0115 16:28:02.168913 17681 layer_factory.hpp:77] Creating layer fc8_flickr
I0115 16:28:02.168938 17681 net.cpp:84] Creating Layer fc8_flickr
I0115 16:28:02.168944 17681 net.cpp:406] fc8_flickr <- fc7
I0115 16:28:02.168954 17681 net.cpp:380] fc8_flickr -> fc8_flickr
I0115 16:28:02.169154 17681 net.cpp:122] Setting up fc8_flickr
I0115 16:28:02.169168 17681 net.cpp:129] Top shape: 100 7 (700)
I0115 16:28:02.169173 17681 net.cpp:137] Memory required for data: 461469600
I0115 16:28:02.169183 17681 layer_factory.hpp:77] Creating layer fc8_flickr_fc8_flickr_0_split
I0115 16:28:02.169191 17681 net.cpp:84] Creating Layer fc8_flickr_fc8_flickr_0_split
I0115 16:28:02.169198 17681 net.cpp:406] fc8_flickr_fc8_flickr_0_split <- fc8_flickr
I0115 16:28:02.169205 17681 net.cpp:380] fc8_flickr_fc8_flickr_0_split -> fc8_flickr_fc8_flickr_0_split_0
I0115 16:28:02.169219 17681 net.cpp:380] fc8_flickr_fc8_flickr_0_split -> fc8_flickr_fc8_flickr_0_split_1
I0115 16:28:02.169275 17681 net.cpp:122] Setting up fc8_flickr_fc8_flickr_0_split
I0115 16:28:02.169286 17681 net.cpp:129] Top shape: 100 7 (700)
I0115 16:28:02.169292 17681 net.cpp:129] Top shape: 100 7 (700)
I0115 16:28:02.169297 17681 net.cpp:137] Memory required for data: 461475200
I0115 16:28:02.169302 17681 layer_factory.hpp:77] Creating layer accuracy
I0115 16:28:02.169317 17681 net.cpp:84] Creating Layer accuracy
I0115 16:28:02.169322 17681 net.cpp:406] accuracy <- fc8_flickr_fc8_flickr_0_split_0
I0115 16:28:02.169329 17681 net.cpp:406] accuracy <- label_data_1_split_0
I0115 16:28:02.169337 17681 net.cpp:380] accuracy -> accuracy
…
