…
I0115 16:01:58.563043 17192 net.cpp:294] The NetState phase (0) differed from the phase (1) specified by a rule in layer data
I0115 16:01:58.563074 17192 net.cpp:294] The NetState phase (0) differed from the phase (1) specified by a rule in layer accuracy
I0115 16:01:58.563212 17192 net.cpp:51] Initializing net from parameters: 
name: "Sketch-a-Net"
state {
  phase: TRAIN
  level: 0
  stage: ""
}
layer {
  name: "data"
  type: "Data"
  top: "data"
  top: "label"
  include {
    phase: TRAIN
  }
  transform_param {
    scale: 0.00390625
  }
  data_param {
    source: "./data2/rail_train_lmdb"
    batch_size: 32
    backend: LMDB
  }
}
layer {
  name: "conv1"
  type: "Convolution"
  bottom: "data"
  top: "conv1"
  param {
    lr_mult: 1
    decay_mult: 1
  }
  param {
    lr_mult: 2
    decay_mult: 0
  }
  convolution_param {
    num_output: 64
    kernel_size: 15
    stride: 3
    weight_filler {
      type: "xavier"
      std: 0.01
    }
    bias_filler {
      type: "constant"
      value: 0
    }
  }
}
layer {
  name: "relu1"
  type: "ReLU"
  bottom: "conv1"
  top: "conv1"
}
layer {
  name: "pool1"
  type: "Pooling"
  bottom: "conv1"
  top: "pool1"
  pooling_param {
    pool: MAX
    kernel_size: 3
    stride: 2
  }
}
layer {
  name: "conv2"
  type: "Convolution"
  bottom: "pool1"
  top: "conv2"
  param {
    lr_mult: 1
    decay_mult: 1
  }
  param {
    lr_mult: 2
    decay_mult: 0
  }
  convolution_param {
    num_output: 128
    pad: 0
    kernel_size: 5
    group: 1
    weight_filler {
      type: "xavier"
      std: 0.01
    }
    bias_filler {
      type: "constant"
      value: 0.1
    }
  }
}
layer {
  name: "relu2"
  type: "ReLU"
  bottom: "conv2"
  top: "conv2"
}
layer {
  name: "pool2"
  type: "Pooling"
  bottom: "conv2"
  top: "pool2"
  pooling_param {
    pool: MAX
    kernel_size: 3
    stride: 2
  }
}
layer {
  name: "conv3"
  type: "Convolution"
  bottom: "pool2"
  top: "conv3"
  param {
    lr_mult: 1
    decay_mult: 1
  }
  param {
    lr_mult: 2
    decay_mult: 0
  }
  convolution_param {
    num_output: 256
    pad: 1
    kernel_size: 3
    weight_filler {
      type: "xavier"
      std: 0.01
    }
    bias_filler {
      type: "constant"
      value: 0
    }
  }
}
layer {
  name: "relu3"
  type: "ReLU"
  bottom: "conv3"
  top: "conv3"
}
layer {
  name: "conv4"
  type: "Convolution"
  bottom: "conv3"
  top: "conv4"
  param {
    lr_mult: 1
    decay_mult: 1
  }
  param {
    lr_mult: 2
    decay_mult: 0
  }
  convolution_param {
    num_output: 256
    pad: 1
    kernel_size: 3
    group: 2
    weight_filler {
      type: "xavier"
      std: 0.01
    }
    bias_filler {
      type: "constant"
      value: 0.1
    }
  }
}
layer {
  name: "relu4"
  type: "ReLU"
  bottom: "conv4"
  top: "conv4"
}
layer {
  name: "conv5"
  type: "Convolution"
  bottom: "conv4"
  top: "conv5"
  param {
    lr_mult: 1
    decay_mult: 1
  }
  param {
    lr_mult: 2
    decay_mult: 0
  }
  convolution_param {
    num_output: 256
    pad: 1
    kernel_size: 3
    group: 2
    weight_filler {
      type: "xavier"
      std: 0.01
    }
    bias_filler {
      type: "constant"
      value: 0.1
    }
  }
}
layer {
  name: "relu5"
  type: "ReLU"
  bottom: "conv5"
  top: "conv5"
}
layer {
  name: "pool5"
  type: "Pooling"
  bottom: "conv5"
  top: "pool5"
  pooling_param {
    pool: MAX
    kernel_size: 3
    stride: 2
  }
}
layer {
  name: "fc6"
  type: "InnerProduct"
  bottom: "pool5"
  top: "fc6"
  param {
    lr_mult: 1
    decay_mult: 1
  }
  param {
    lr_mult: 2
    decay_mult: 0
  }
  inner_product_param {
    num_output: 512
    weight_filler {
      type: "xavier"
      std: 0.005
    }
    bias_filler {
      type: "constant"
      value: 0.1
    }
  }
}
layer {
  name: "relu6"
  type: "ReLU"
  bottom: "fc6"
  top: "fc6"
}
layer {
  name: "drop6"
  type: "Dropout"
  bottom: "fc6"
  top: "fc6"
  dropout_param {
    dropout_ratio: 0.5
  }
}
layer {
  name: "fc7"
  type: "InnerProduct"
  bottom: "fc6"
  top: "fc7"
  param {
    lr_mult: 1
    decay_mult: 1
  }
  param {
    lr_mult: 2
    decay_mult: 0
  }
  inner_product_param {
    num_output: 512
    weight_filler {
      type: "xavier"
      std: 0.005
    }
    bias_filler {
      type: "constant"
      value: 0.1
    }
  }
}
layer {
  name: "relu7"
  type: "ReLU"
  bottom: "fc7"
  top: "fc7"
}
layer {
  name: "drop7"
  type: "Dropout"
  bottom: "fc7"
  top: "fc7"
  dropout_param {
    dropout_ratio: 0.5
  }
}
layer {
  name: "fc8_flickr"
  type: "InnerProduct"
  bottom: "fc7"
  top: "fc8_flickr"
  param {
    lr_mult: 1
    decay_mult: 1
  }
  param {
    lr_mult: 2
    decay_mult: 0
  }
  inner_product_param {
    num_output: 7
    weight_filler {
      type: "xavier"
      std: 0.01
    }
    bias_filler {
      type: "constant"
      value: 0
    }
  }
}
layer {
  name: "loss"
  type: "SoftmaxWithLoss"
  bottom: "fc8_flickr"
  bottom: "label"
  top: "loss"
}
I0115 16:01:58.563318 17192 layer_factory.hpp:77] Creating layer data
I0115 16:01:58.563446 17192 db_lmdb.cpp:35] Opened lmdb ./data2/rail_train_lmdb
I0115 16:01:58.563483 17192 net.cpp:84] Creating Layer data
I0115 16:01:58.563493 17192 net.cpp:380] data -> data
I0115 16:01:58.563520 17192 net.cpp:380] data -> label
I0115 16:01:58.564721 17192 data_layer.cpp:45] output data size: 32,3,200,200
I0115 16:01:58.598232 17192 net.cpp:122] Setting up data
I0115 16:01:58.598271 17192 net.cpp:129] Top shape: 32 3 200 200 (3840000)
I0115 16:01:58.598278 17192 net.cpp:129] Top shape: 32 (32)
I0115 16:01:58.598282 17192 net.cpp:137] Memory required for data: 15360128
I0115 16:01:58.598294 17192 layer_factory.hpp:77] Creating layer conv1
I0115 16:01:58.598326 17192 net.cpp:84] Creating Layer conv1
I0115 16:01:58.598336 17192 net.cpp:406] conv1 <- data
I0115 16:01:58.598354 17192 net.cpp:380] conv1 -> conv1
I0115 16:01:59.589213 17192 net.cpp:122] Setting up conv1
I0115 16:01:59.589280 17192 net.cpp:129] Top shape: 32 64 62 62 (7872512)
I0115 16:01:59.589287 17192 net.cpp:137] Memory required for data: 46850176
I0115 16:01:59.589314 17192 layer_factory.hpp:77] Creating layer relu1
I0115 16:01:59.589329 17192 net.cpp:84] Creating Layer relu1
I0115 16:01:59.589334 17192 net.cpp:406] relu1 <- conv1
I0115 16:01:59.589341 17192 net.cpp:367] relu1 -> conv1 (in-place)
I0115 16:01:59.589532 17192 net.cpp:122] Setting up relu1
I0115 16:01:59.589546 17192 net.cpp:129] Top shape: 32 64 62 62 (7872512)
I0115 16:01:59.589550 17192 net.cpp:137] Memory required for data: 78340224
I0115 16:01:59.589555 17192 layer_factory.hpp:77] Creating layer pool1
I0115 16:01:59.589562 17192 net.cpp:84] Creating Layer pool1
I0115 16:01:59.589566 17192 net.cpp:406] pool1 <- conv1
I0115 16:01:59.589572 17192 net.cpp:380] pool1 -> pool1
I0115 16:01:59.589622 17192 net.cpp:122] Setting up pool1
I0115 16:01:59.589629 17192 net.cpp:129] Top shape: 32 64 31 31 (1968128)
I0115 16:01:59.589632 17192 net.cpp:137] Memory required for data: 86212736
I0115 16:01:59.589637 17192 layer_factory.hpp:77] Creating layer conv2
I0115 16:01:59.589651 17192 net.cpp:84] Creating Layer conv2
I0115 16:01:59.589655 17192 net.cpp:406] conv2 <- pool1
I0115 16:01:59.589661 17192 net.cpp:380] conv2 -> conv2
I0115 16:01:59.593575 17192 net.cpp:122] Setting up conv2
I0115 16:01:59.593591 17192 net.cpp:129] Top shape: 32 128 27 27 (2985984)
I0115 16:01:59.593595 17192 net.cpp:137] Memory required for data: 98156672
I0115 16:01:59.593605 17192 layer_factory.hpp:77] Creating layer relu2
I0115 16:01:59.593619 17192 net.cpp:84] Creating Layer relu2
I0115 16:01:59.593634 17192 net.cpp:406] relu2 <- conv2
I0115 16:01:59.593639 17192 net.cpp:367] relu2 -> conv2 (in-place)
I0115 16:01:59.594312 17192 net.cpp:122] Setting up relu2
I0115 16:01:59.594326 17192 net.cpp:129] Top shape: 32 128 27 27 (2985984)
I0115 16:01:59.594329 17192 net.cpp:137] Memory required for data: 110100608
I0115 16:01:59.594333 17192 layer_factory.hpp:77] Creating layer pool2
I0115 16:01:59.594339 17192 net.cpp:84] Creating Layer pool2
I0115 16:01:59.594342 17192 net.cpp:406] pool2 <- conv2
I0115 16:01:59.594348 17192 net.cpp:380] pool2 -> pool2
I0115 16:01:59.594382 17192 net.cpp:122] Setting up pool2
I0115 16:01:59.594388 17192 net.cpp:129] Top shape: 32 128 13 13 (692224)
I0115 16:01:59.594391 17192 net.cpp:137] Memory required for data: 112869504
I0115 16:01:59.594395 17192 layer_factory.hpp:77] Creating layer conv3
I0115 16:01:59.594403 17192 net.cpp:84] Creating Layer conv3
I0115 16:01:59.594406 17192 net.cpp:406] conv3 <- pool2
I0115 16:01:59.594411 17192 net.cpp:380] conv3 -> conv3
I0115 16:01:59.596760 17192 net.cpp:122] Setting up conv3
I0115 16:01:59.596773 17192 net.cpp:129] Top shape: 32 256 13 13 (1384448)
I0115 16:01:59.596778 17192 net.cpp:137] Memory required for data: 118407296
I0115 16:01:59.596786 17192 layer_factory.hpp:77] Creating layer relu3
I0115 16:01:59.596793 17192 net.cpp:84] Creating Layer relu3
I0115 16:01:59.596797 17192 net.cpp:406] relu3 <- conv3
I0115 16:01:59.596802 17192 net.cpp:367] relu3 -> conv3 (in-place)
I0115 16:01:59.597450 17192 net.cpp:122] Setting up relu3
I0115 16:01:59.597463 17192 net.cpp:129] Top shape: 32 256 13 13 (1384448)
I0115 16:01:59.597466 17192 net.cpp:137] Memory required for data: 123945088
I0115 16:01:59.597470 17192 layer_factory.hpp:77] Creating layer conv4
I0115 16:01:59.597479 17192 net.cpp:84] Creating Layer conv4
I0115 16:01:59.597483 17192 net.cpp:406] conv4 <- conv3
I0115 16:01:59.597489 17192 net.cpp:380] conv4 -> conv4
I0115 16:01:59.602264 17192 net.cpp:122] Setting up conv4
I0115 16:01:59.602279 17192 net.cpp:129] Top shape: 32 256 13 13 (1384448)
I0115 16:01:59.602283 17192 net.cpp:137] Memory required for data: 129482880
I0115 16:01:59.602289 17192 layer_factory.hpp:77] Creating layer relu4
I0115 16:01:59.602296 17192 net.cpp:84] Creating Layer relu4
I0115 16:01:59.602299 17192 net.cpp:406] relu4 <- conv4
I0115 16:01:59.602305 17192 net.cpp:367] relu4 -> conv4 (in-place)
I0115 16:01:59.602439 17192 net.cpp:122] Setting up relu4
I0115 16:01:59.602447 17192 net.cpp:129] Top shape: 32 256 13 13 (1384448)
I0115 16:01:59.602450 17192 net.cpp:137] Memory required for data: 135020672
I0115 16:01:59.602454 17192 layer_factory.hpp:77] Creating layer conv5
I0115 16:01:59.602463 17192 net.cpp:84] Creating Layer conv5
I0115 16:01:59.602468 17192 net.cpp:406] conv5 <- conv4
I0115 16:01:59.602473 17192 net.cpp:380] conv5 -> conv5
I0115 16:01:59.607235 17192 net.cpp:122] Setting up conv5
I0115 16:01:59.607250 17192 net.cpp:129] Top shape: 32 256 13 13 (1384448)
I0115 16:01:59.607254 17192 net.cpp:137] Memory required for data: 140558464
I0115 16:01:59.607262 17192 layer_factory.hpp:77] Creating layer relu5
I0115 16:01:59.607270 17192 net.cpp:84] Creating Layer relu5
I0115 16:01:59.607275 17192 net.cpp:406] relu5 <- conv5
I0115 16:01:59.607280 17192 net.cpp:367] relu5 -> conv5 (in-place)
I0115 16:01:59.607415 17192 net.cpp:122] Setting up relu5
I0115 16:01:59.607424 17192 net.cpp:129] Top shape: 32 256 13 13 (1384448)
I0115 16:01:59.607427 17192 net.cpp:137] Memory required for data: 146096256
I0115 16:01:59.607431 17192 layer_factory.hpp:77] Creating layer pool5
I0115 16:01:59.607436 17192 net.cpp:84] Creating Layer pool5
I0115 16:01:59.607440 17192 net.cpp:406] pool5 <- conv5
I0115 16:01:59.607445 17192 net.cpp:380] pool5 -> pool5
I0115 16:01:59.607481 17192 net.cpp:122] Setting up pool5
I0115 16:01:59.607487 17192 net.cpp:129] Top shape: 32 256 6 6 (294912)
I0115 16:01:59.607491 17192 net.cpp:137] Memory required for data: 147275904
I0115 16:01:59.607494 17192 layer_factory.hpp:77] Creating layer fc6
I0115 16:01:59.607507 17192 net.cpp:84] Creating Layer fc6
I0115 16:01:59.607517 17192 net.cpp:406] fc6 <- pool5
I0115 16:01:59.607522 17192 net.cpp:380] fc6 -> fc6
I0115 16:01:59.634820 17192 net.cpp:122] Setting up fc6
I0115 16:01:59.634841 17192 net.cpp:129] Top shape: 32 512 (16384)
I0115 16:01:59.634845 17192 net.cpp:137] Memory required for data: 147341440
I0115 16:01:59.634852 17192 layer_factory.hpp:77] Creating layer relu6
I0115 16:01:59.634858 17192 net.cpp:84] Creating Layer relu6
I0115 16:01:59.634862 17192 net.cpp:406] relu6 <- fc6
I0115 16:01:59.634868 17192 net.cpp:367] relu6 -> fc6 (in-place)
I0115 16:01:59.635025 17192 net.cpp:122] Setting up relu6
I0115 16:01:59.635033 17192 net.cpp:129] Top shape: 32 512 (16384)
I0115 16:01:59.635036 17192 net.cpp:137] Memory required for data: 147406976
I0115 16:01:59.635040 17192 layer_factory.hpp:77] Creating layer drop6
I0115 16:01:59.635053 17192 net.cpp:84] Creating Layer drop6
I0115 16:01:59.635058 17192 net.cpp:406] drop6 <- fc6
I0115 16:01:59.635063 17192 net.cpp:367] drop6 -> fc6 (in-place)
I0115 16:01:59.635092 17192 net.cpp:122] Setting up drop6
I0115 16:01:59.635099 17192 net.cpp:129] Top shape: 32 512 (16384)
I0115 16:01:59.635102 17192 net.cpp:137] Memory required for data: 147472512
I0115 16:01:59.635105 17192 layer_factory.hpp:77] Creating layer fc7
I0115 16:01:59.635113 17192 net.cpp:84] Creating Layer fc7
I0115 16:01:59.635118 17192 net.cpp:406] fc7 <- fc6
I0115 16:01:59.635123 17192 net.cpp:380] fc7 -> fc7
I0115 16:01:59.637315 17192 net.cpp:122] Setting up fc7
I0115 16:01:59.637327 17192 net.cpp:129] Top shape: 32 512 (16384)
I0115 16:01:59.637331 17192 net.cpp:137] Memory required for data: 147538048
I0115 16:01:59.637337 17192 layer_factory.hpp:77] Creating layer relu7
I0115 16:01:59.637343 17192 net.cpp:84] Creating Layer relu7
I0115 16:01:59.637346 17192 net.cpp:406] relu7 <- fc7
I0115 16:01:59.637352 17192 net.cpp:367] relu7 -> fc7 (in-place)
I0115 16:01:59.637491 17192 net.cpp:122] Setting up relu7
I0115 16:01:59.637500 17192 net.cpp:129] Top shape: 32 512 (16384)
I0115 16:01:59.637502 17192 net.cpp:137] Memory required for data: 147603584
I0115 16:01:59.637506 17192 layer_factory.hpp:77] Creating layer drop7
I0115 16:01:59.637512 17192 net.cpp:84] Creating Layer drop7
I0115 16:01:59.637516 17192 net.cpp:406] drop7 <- fc7
I0115 16:01:59.637521 17192 net.cpp:367] drop7 -> fc7 (in-place)
I0115 16:01:59.637543 17192 net.cpp:122] Setting up drop7
I0115 16:01:59.637549 17192 net.cpp:129] Top shape: 32 512 (16384)
I0115 16:01:59.637552 17192 net.cpp:137] Memory required for data: 147669120
I0115 16:01:59.637554 17192 layer_factory.hpp:77] Creating layer fc8_flickr
I0115 16:01:59.637576 17192 net.cpp:84] Creating Layer fc8_flickr
I0115 16:01:59.637580 17192 net.cpp:406] fc8_flickr <- fc7
I0115 16:01:59.637585 17192 net.cpp:380] fc8_flickr -> fc8_flickr
I0115 16:01:59.637696 17192 net.cpp:122] Setting up fc8_flickr
I0115 16:01:59.637704 17192 net.cpp:129] Top shape: 32 7 (224)
I0115 16:01:59.637707 17192 net.cpp:137] Memory required for data: 147670016
I0115 16:01:59.637712 17192 layer_factory.hpp:77] Creating layer loss
I0115 16:01:59.637719 17192 net.cpp:84] Creating Layer loss
I0115 16:01:59.637723 17192 net.cpp:406] loss <- fc8_flickr
I0115 16:01:59.637728 17192 net.cpp:406] loss <- label
I0115 16:01:59.637734 17192 net.cpp:380] loss -> loss
I0115 16:01:59.637747 17192 layer_factory.hpp:77] Creating layer loss
…
I0115 16:01:59.638917 17192 solver.cpp:172] Creating test net (#0) specified by net file: ./sketch-a-net.prototxt
I0115 16:01:59.638947 17192 net.cpp:294] The NetState phase (1) differed from the phase (0) specified by a rule in layer data
I0115 16:01:59.639087 17192 net.cpp:51] Initializing net from parameters: 
name: "Sketch-a-Net"
state {
  phase: TEST
}
layer {
  name: "data"
  type: "Data"
  top: "data"
  top: "label"
  include {
    phase: TEST
  }
  transform_param {
    scale: 0.00390625
  }
  data_param {
    source: "./data2/rail_val_lmdb"
    batch_size: 100
    backend: LMDB
  }
}
layer {
  name: "conv1"
  type: "Convolution"
  bottom: "data"
  top: "conv1"
  param {
    lr_mult: 1
    decay_mult: 1
  }
  param {
    lr_mult: 2
    decay_mult: 0
  }
  convolution_param {
    num_output: 64
    kernel_size: 15
    stride: 3
    weight_filler {
      type: "xavier"
      std: 0.01
    }
    bias_filler {
      type: "constant"
      value: 0
    }
  }
}
layer {
  name: "relu1"
  type: "ReLU"
  bottom: "conv1"
  top: "conv1"
}
layer {
  name: "pool1"
  type: "Pooling"
  bottom: "conv1"
  top: "pool1"
  pooling_param {
    pool: MAX
    kernel_size: 3
    stride: 2
  }
}
layer {
  name: "conv2"
  type: "Convolution"
  bottom: "pool1"
  top: "conv2"
  param {
    lr_mult: 1
    decay_mult: 1
  }
  param {
    lr_mult: 2
    decay_mult: 0
  }
  convolution_param {
    num_output: 128
    pad: 0
    kernel_size: 5
    group: 1
    weight_filler {
      type: "xavier"
      std: 0.01
    }
    bias_filler {
      type: "constant"
      value: 0.1
    }
  }
}
layer {
  name: "relu2"
  type: "ReLU"
  bottom: "conv2"
  top: "conv2"
}
layer {
  name: "pool2"
  type: "Pooling"
  bottom: "conv2"
  top: "pool2"
  pooling_param {
    pool: MAX
    kernel_size: 3
    stride: 2
  }
}
layer {
  name: "conv3"
  type: "Convolution"
  bottom: "pool2"
  top: "conv3"
  param {
    lr_mult: 1
    decay_mult: 1
  }
  param {
    lr_mult: 2
    decay_mult: 0
  }
  convolution_param {
    num_output: 256
    pad: 1
    kernel_size: 3
    weight_filler {
      type: "xavier"
      std: 0.01
    }
    bias_filler {
      type: "constant"
      value: 0
    }
  }
}
layer {
  name: "relu3"
  type: "ReLU"
  bottom: "conv3"
  top: "conv3"
}
layer {
  name: "conv4"
  type: "Convolution"
  bottom: "conv3"
  top: "conv4"
  param {
    lr_mult: 1
    decay_mult: 1
  }
  param {
    lr_mult: 2
    decay_mult: 0
  }
  convolution_param {
    num_output: 256
    pad: 1
    kernel_size: 3
    group: 2
    weight_filler {
      type: "xavier"
      std: 0.01
    }
    bias_filler {
      type: "constant"
      value: 0.1
    }
  }
}
layer {
  name: "relu4"
  type: "ReLU"
  bottom: "conv4"
  top: "conv4"
}
layer {
  name: "conv5"
  type: "Convolution"
  bottom: "conv4"
  top: "conv5"
  param {
    lr_mult: 1
    decay_mult: 1
  }
  param {
    lr_mult: 2
    decay_mult: 0
  }
  convolution_param {
    num_output: 256
    pad: 1
    kernel_size: 3
    group: 2
    weight_filler {
      type: "xavier"
      std: 0.01
    }
    bias_filler {
      type: "constant"
      value: 0.1
    }
  }
}
layer {
  name: "relu5"
  type: "ReLU"
  bottom: "conv5"
  top: "conv5"
}
layer {
  name: "pool5"
  type: "Pooling"
  bottom: "conv5"
  top: "pool5"
  pooling_param {
    pool: MAX
    kernel_size: 3
    stride: 2
  }
}
layer {
  name: "fc6"
  type: "InnerProduct"
  bottom: "pool5"
  top: "fc6"
  param {
    lr_mult: 1
    decay_mult: 1
  }
  param {
    lr_mult: 2
    decay_mult: 0
  }
  inner_product_param {
    num_output: 512
    weight_filler {
      type: "xavier"
      std: 0.005
    }
    bias_filler {
      type: "constant"
      value: 0.1
    }
  }
}
layer {
  name: "relu6"
  type: "ReLU"
  bottom: "fc6"
  top: "fc6"
}
layer {
  name: "drop6"
  type: "Dropout"
  bottom: "fc6"
  top: "fc6"
  dropout_param {
    dropout_ratio: 0.5
  }
}
layer {
  name: "fc7"
  type: "InnerProduct"
  bottom: "fc6"
  top: "fc7"
  param {
    lr_mult: 1
    decay_mult: 1
  }
  param {
    lr_mult: 2
    decay_mult: 0
  }
  inner_product_param {
    num_output: 512
    weight_filler {
      type: "xavier"
      std: 0.005
    }
    bias_filler {
      type: "constant"
      value: 0.1
    }
  }
}
layer {
  name: "relu7"
  type: "ReLU"
  bottom: "fc7"
  top: "fc7"
}
layer {
  name: "drop7"
  type: "Dropout"
  bottom: "fc7"
  top: "fc7"
  dropout_param {
    dropout_ratio: 0.5
  }
}
layer {
  name: "fc8_flickr"
  type: "InnerProduct"
  bottom: "fc7"
  top: "fc8_flickr"
  param {
    lr_mult: 1
    decay_mult: 1
  }
  param {
    lr_mult: 2
    decay_mult: 0
  }
  inner_product_param {
    num_output: 7
    weight_filler {
      type: "xavier"
      std: 0.01
    }
    bias_filler {
      type: "constant"
      value: 0
    }
  }
}
layer {
  name: "accuracy"
  type: "Accuracy"
  bottom: "fc8_flickr"
  bottom: "label"
  top: "accuracy"
  include {
    phase: TEST
  }
}
layer {
  name: "loss"
  type: "SoftmaxWithLoss"
  bottom: "fc8_flickr"
  bottom: "label"
  top: "loss"
}
I0115 16:01:59.639174 17192 layer_factory.hpp:77] Creating layer data
I0115 16:01:59.639235 17192 db_lmdb.cpp:35] Opened lmdb ./data2/rail_val_lmdb
I0115 16:01:59.639252 17192 net.cpp:84] Creating Layer data
I0115 16:01:59.639258 17192 net.cpp:380] data -> data
I0115 16:01:59.639266 17192 net.cpp:380] data -> label
I0115 16:01:59.639401 17192 data_layer.cpp:45] output data size: 100,3,200,200
I0115 16:01:59.751330 17192 net.cpp:122] Setting up data
I0115 16:01:59.751382 17192 net.cpp:129] Top shape: 100 3 200 200 (12000000)
I0115 16:01:59.751404 17192 net.cpp:129] Top shape: 100 (100)
I0115 16:01:59.751407 17192 net.cpp:137] Memory required for data: 48000400
I0115 16:01:59.751415 17192 layer_factory.hpp:77] Creating layer label_data_1_split
I0115 16:01:59.751432 17192 net.cpp:84] Creating Layer label_data_1_split
I0115 16:01:59.751437 17192 net.cpp:406] label_data_1_split <- label
I0115 16:01:59.751447 17192 net.cpp:380] label_data_1_split -> label_data_1_split_0
I0115 16:01:59.751459 17192 net.cpp:380] label_data_1_split -> label_data_1_split_1
I0115 16:01:59.751816 17192 net.cpp:122] Setting up label_data_1_split
I0115 16:01:59.751883 17192 net.cpp:129] Top shape: 100 (100)
I0115 16:01:59.751898 17192 net.cpp:129] Top shape: 100 (100)
I0115 16:01:59.751904 17192 net.cpp:137] Memory required for data: 48001200
I0115 16:01:59.751916 17192 layer_factory.hpp:77] Creating layer conv1
I0115 16:01:59.751953 17192 net.cpp:84] Creating Layer conv1
I0115 16:01:59.751966 17192 net.cpp:406] conv1 <- data
I0115 16:01:59.751986 17192 net.cpp:380] conv1 -> conv1
I0115 16:01:59.759748 17192 net.cpp:122] Setting up conv1
I0115 16:01:59.759799 17192 net.cpp:129] Top shape: 100 64 62 62 (24601600)
I0115 16:01:59.759810 17192 net.cpp:137] Memory required for data: 146407600
I0115 16:01:59.759871 17192 layer_factory.hpp:77] Creating layer relu1
I0115 16:01:59.759891 17192 net.cpp:84] Creating Layer relu1
I0115 16:01:59.759902 17192 net.cpp:406] relu1 <- conv1
I0115 16:01:59.759917 17192 net.cpp:367] relu1 -> conv1 (in-place)
I0115 16:01:59.760269 17192 net.cpp:122] Setting up relu1
I0115 16:01:59.760288 17192 net.cpp:129] Top shape: 100 64 62 62 (24601600)
I0115 16:01:59.760295 17192 net.cpp:137] Memory required for data: 244814000
I0115 16:01:59.760305 17192 layer_factory.hpp:77] Creating layer pool1
I0115 16:01:59.760324 17192 net.cpp:84] Creating Layer pool1
I0115 16:01:59.760332 17192 net.cpp:406] pool1 <- conv1
I0115 16:01:59.760345 17192 net.cpp:380] pool1 -> pool1
I0115 16:01:59.760434 17192 net.cpp:122] Setting up pool1
I0115 16:01:59.760449 17192 net.cpp:129] Top shape: 100 64 31 31 (6150400)
I0115 16:01:59.760458 17192 net.cpp:137] Memory required for data: 269415600
I0115 16:01:59.760466 17192 layer_factory.hpp:77] Creating layer conv2
I0115 16:01:59.760490 17192 net.cpp:84] Creating Layer conv2
I0115 16:01:59.760499 17192 net.cpp:406] conv2 <- pool1
I0115 16:01:59.760514 17192 net.cpp:380] conv2 -> conv2
I0115 16:01:59.766026 17192 net.cpp:122] Setting up conv2
I0115 16:01:59.766060 17192 net.cpp:129] Top shape: 100 128 27 27 (9331200)
I0115 16:01:59.766070 17192 net.cpp:137] Memory required for data: 306740400
I0115 16:01:59.766091 17192 layer_factory.hpp:77] Creating layer relu2
I0115 16:01:59.766106 17192 net.cpp:84] Creating Layer relu2
I0115 16:01:59.766118 17192 net.cpp:406] relu2 <- conv2
I0115 16:01:59.766130 17192 net.cpp:367] relu2 -> conv2 (in-place)
I0115 16:01:59.766480 17192 net.cpp:122] Setting up relu2
I0115 16:01:59.766499 17192 net.cpp:129] Top shape: 100 128 27 27 (9331200)
I0115 16:01:59.766510 17192 net.cpp:137] Memory required for data: 344065200
I0115 16:01:59.766517 17192 layer_factory.hpp:77] Creating layer pool2
I0115 16:01:59.766531 17192 net.cpp:84] Creating Layer pool2
I0115 16:01:59.766540 17192 net.cpp:406] pool2 <- conv2
I0115 16:01:59.766553 17192 net.cpp:380] pool2 -> pool2
I0115 16:01:59.766636 17192 net.cpp:122] Setting up pool2
I0115 16:01:59.766650 17192 net.cpp:129] Top shape: 100 128 13 13 (2163200)
I0115 16:01:59.766659 17192 net.cpp:137] Memory required for data: 352718000
I0115 16:01:59.766669 17192 layer_factory.hpp:77] Creating layer conv3
I0115 16:01:59.766692 17192 net.cpp:84] Creating Layer conv3
I0115 16:01:59.766702 17192 net.cpp:406] conv3 <- pool2
I0115 16:01:59.766716 17192 net.cpp:380] conv3 -> conv3
I0115 16:01:59.776257 17192 net.cpp:122] Setting up conv3
I0115 16:01:59.776291 17192 net.cpp:129] Top shape: 100 256 13 13 (4326400)
I0115 16:01:59.776301 17192 net.cpp:137] Memory required for data: 370023600
I0115 16:01:59.776322 17192 layer_factory.hpp:77] Creating layer relu3
I0115 16:01:59.776336 17192 net.cpp:84] Creating Layer relu3
I0115 16:01:59.776346 17192 net.cpp:406] relu3 <- conv3
I0115 16:01:59.776360 17192 net.cpp:367] relu3 -> conv3 (in-place)
I0115 16:01:59.776691 17192 net.cpp:122] Setting up relu3
I0115 16:01:59.776710 17192 net.cpp:129] Top shape: 100 256 13 13 (4326400)
I0115 16:01:59.776718 17192 net.cpp:137] Memory required for data: 387329200
I0115 16:01:59.776726 17192 layer_factory.hpp:77] Creating layer conv4
I0115 16:01:59.776747 17192 net.cpp:84] Creating Layer conv4
I0115 16:01:59.776756 17192 net.cpp:406] conv4 <- conv3
I0115 16:01:59.776770 17192 net.cpp:380] conv4 -> conv4
I0115 16:01:59.787436 17192 net.cpp:122] Setting up conv4
I0115 16:01:59.787467 17192 net.cpp:129] Top shape: 100 256 13 13 (4326400)
I0115 16:01:59.787475 17192 net.cpp:137] Memory required for data: 404634800
I0115 16:01:59.787492 17192 layer_factory.hpp:77] Creating layer relu4
I0115 16:01:59.787503 17192 net.cpp:84] Creating Layer relu4
I0115 16:01:59.787511 17192 net.cpp:406] relu4 <- conv4
I0115 16:01:59.787523 17192 net.cpp:367] relu4 -> conv4 (in-place)
I0115 16:01:59.787832 17192 net.cpp:122] Setting up relu4
I0115 16:01:59.787849 17192 net.cpp:129] Top shape: 100 256 13 13 (4326400)
I0115 16:01:59.787868 17192 net.cpp:137] Memory required for data: 421940400
I0115 16:01:59.787888 17192 layer_factory.hpp:77] Creating layer conv5
I0115 16:01:59.787909 17192 net.cpp:84] Creating Layer conv5
I0115 16:01:59.787917 17192 net.cpp:406] conv5 <- conv4
I0115 16:01:59.787930 17192 net.cpp:380] conv5 -> conv5
I0115 16:01:59.798108 17192 net.cpp:122] Setting up conv5
I0115 16:01:59.798142 17192 net.cpp:129] Top shape: 100 256 13 13 (4326400)
I0115 16:01:59.798151 17192 net.cpp:137] Memory required for data: 439246000
I0115 16:01:59.798171 17192 layer_factory.hpp:77] Creating layer relu5
I0115 16:01:59.798184 17192 net.cpp:84] Creating Layer relu5
I0115 16:01:59.798193 17192 net.cpp:406] relu5 <- conv5
I0115 16:01:59.798205 17192 net.cpp:367] relu5 -> conv5 (in-place)
I0115 16:01:59.798493 17192 net.cpp:122] Setting up relu5
I0115 16:01:59.798511 17192 net.cpp:129] Top shape: 100 256 13 13 (4326400)
I0115 16:01:59.798518 17192 net.cpp:137] Memory required for data: 456551600
I0115 16:01:59.798526 17192 layer_factory.hpp:77] Creating layer pool5
I0115 16:01:59.798537 17192 net.cpp:84] Creating Layer pool5
I0115 16:01:59.798544 17192 net.cpp:406] pool5 <- conv5
I0115 16:01:59.798557 17192 net.cpp:380] pool5 -> pool5
I0115 16:01:59.798633 17192 net.cpp:122] Setting up pool5
I0115 16:01:59.798645 17192 net.cpp:129] Top shape: 100 256 6 6 (921600)
I0115 16:01:59.798652 17192 net.cpp:137] Memory required for data: 460238000
I0115 16:01:59.798660 17192 layer_factory.hpp:77] Creating layer fc6
I0115 16:01:59.798674 17192 net.cpp:84] Creating Layer fc6
I0115 16:01:59.798681 17192 net.cpp:406] fc6 <- pool5
I0115 16:01:59.798692 17192 net.cpp:380] fc6 -> fc6
I0115 16:01:59.849339 17192 net.cpp:122] Setting up fc6
I0115 16:01:59.849386 17192 net.cpp:129] Top shape: 100 512 (51200)
I0115 16:01:59.849392 17192 net.cpp:137] Memory required for data: 460442800
I0115 16:01:59.849408 17192 layer_factory.hpp:77] Creating layer relu6
I0115 16:01:59.849431 17192 net.cpp:84] Creating Layer relu6
I0115 16:01:59.849438 17192 net.cpp:406] relu6 <- fc6
I0115 16:01:59.849450 17192 net.cpp:367] relu6 -> fc6 (in-place)
I0115 16:01:59.850828 17192 net.cpp:122] Setting up relu6
I0115 16:01:59.850850 17192 net.cpp:129] Top shape: 100 512 (51200)
I0115 16:01:59.850855 17192 net.cpp:137] Memory required for data: 460647600
I0115 16:01:59.850862 17192 layer_factory.hpp:77] Creating layer drop6
I0115 16:01:59.850874 17192 net.cpp:84] Creating Layer drop6
I0115 16:01:59.850881 17192 net.cpp:406] drop6 <- fc6
I0115 16:01:59.850891 17192 net.cpp:367] drop6 -> fc6 (in-place)
I0115 16:01:59.850939 17192 net.cpp:122] Setting up drop6
I0115 16:01:59.850949 17192 net.cpp:129] Top shape: 100 512 (51200)
I0115 16:01:59.850955 17192 net.cpp:137] Memory required for data: 460852400
I0115 16:01:59.850960 17192 layer_factory.hpp:77] Creating layer fc7
I0115 16:01:59.850972 17192 net.cpp:84] Creating Layer fc7
I0115 16:01:59.850978 17192 net.cpp:406] fc7 <- fc6
I0115 16:01:59.850989 17192 net.cpp:380] fc7 -> fc7
I0115 16:01:59.854598 17192 net.cpp:122] Setting up fc7
I0115 16:01:59.854619 17192 net.cpp:129] Top shape: 100 512 (51200)
I0115 16:01:59.854625 17192 net.cpp:137] Memory required for data: 461057200
I0115 16:01:59.854637 17192 layer_factory.hpp:77] Creating layer relu7
I0115 16:01:59.854647 17192 net.cpp:84] Creating Layer relu7
I0115 16:01:59.854653 17192 net.cpp:406] relu7 <- fc7
I0115 16:01:59.854662 17192 net.cpp:367] relu7 -> fc7 (in-place)
I0115 16:01:59.854909 17192 net.cpp:122] Setting up relu7
I0115 16:01:59.854923 17192 net.cpp:129] Top shape: 100 512 (51200)
I0115 16:01:59.854928 17192 net.cpp:137] Memory required for data: 461262000
I0115 16:01:59.854933 17192 layer_factory.hpp:77] Creating layer drop7
I0115 16:01:59.854943 17192 net.cpp:84] Creating Layer drop7
I0115 16:01:59.854949 17192 net.cpp:406] drop7 <- fc7
I0115 16:01:59.854957 17192 net.cpp:367] drop7 -> fc7 (in-place)
I0115 16:01:59.854996 17192 net.cpp:122] Setting up drop7
I0115 16:01:59.855006 17192 net.cpp:129] Top shape: 100 512 (51200)
I0115 16:01:59.855011 17192 net.cpp:137] Memory required for data: 461466800
I0115 16:01:59.855039 17192 layer_factory.hpp:77] Creating layer fc8_flickr
I0115 16:01:59.855062 17192 net.cpp:84] Creating Layer fc8_flickr
I0115 16:01:59.855070 17192 net.cpp:406] fc8_flickr <- fc7
I0115 16:01:59.855080 17192 net.cpp:380] fc8_flickr -> fc8_flickr
I0115 16:01:59.855284 17192 net.cpp:122] Setting up fc8_flickr
I0115 16:01:59.855303 17192 net.cpp:129] Top shape: 100 7 (700)
I0115 16:01:59.855309 17192 net.cpp:137] Memory required for data: 461469600
I0115 16:01:59.855317 17192 layer_factory.hpp:77] Creating layer fc8_flickr_fc8_flickr_0_split
I0115 16:01:59.855329 17192 net.cpp:84] Creating Layer fc8_flickr_fc8_flickr_0_split
I0115 16:01:59.855334 17192 net.cpp:406] fc8_flickr_fc8_flickr_0_split <- fc8_flickr
I0115 16:01:59.855345 17192 net.cpp:380] fc8_flickr_fc8_flickr_0_split -> fc8_flickr_fc8_flickr_0_split_0
I0115 16:01:59.855355 17192 net.cpp:380] fc8_flickr_fc8_flickr_0_split -> fc8_flickr_fc8_flickr_0_split_1
I0115 16:01:59.855422 17192 net.cpp:122] Setting up fc8_flickr_fc8_flickr_0_split
I0115 16:01:59.855432 17192 net.cpp:129] Top shape: 100 7 (700)
I0115 16:01:59.855440 17192 net.cpp:129] Top shape: 100 7 (700)
I0115 16:01:59.855444 17192 net.cpp:137] Memory required for data: 461475200
I0115 16:01:59.855449 17192 layer_factory.hpp:77] Creating layer accuracy
I0115 16:01:59.855461 17192 net.cpp:84] Creating Layer accuracy
I0115 16:01:59.855468 17192 net.cpp:406] accuracy <- fc8_flickr_fc8_flickr_0_split_0
I0115 16:01:59.855474 17192 net.cpp:406] accuracy <- label_data_1_split_0
I0115 16:01:59.855484 17192 net.cpp:380] accuracy -> accuracy
…
