…
I0118 17:10:59.684031 31741 net.cpp:294] The NetState phase (0) differed from the phase (1) specified by a rule in layer data
I0118 17:10:59.684068 31741 net.cpp:294] The NetState phase (0) differed from the phase (1) specified by a rule in layer accuracy
I0118 17:10:59.684218 31741 net.cpp:51] Initializing net from parameters: 
name: "AlexNet"
state {
  phase: TRAIN
  level: 0
  stage: ""
}
layer {
  name: "data"
  type: "Data"
  top: "data"
  top: "label"
  include {
    phase: TRAIN
  }
  transform_param {
    scale: 0.00390625
  }
  data_param {
    source: "./data2/rail_train_lmdb"
    batch_size: 128
    backend: LMDB
  }
}
layer {
  name: "conv1"
  type: "Convolution"
  bottom: "data"
  top: "conv1"
  param {
    lr_mult: 1
    decay_mult: 1
  }
  param {
    lr_mult: 2
    decay_mult: 0
  }
  convolution_param {
    num_output: 96
    kernel_size: 11
    stride: 4
    weight_filler {
      type: "gaussian"
      std: 0.01
    }
    bias_filler {
      type: "constant"
      value: 0
    }
  }
}
layer {
  name: "relu1"
  type: "ReLU"
  bottom: "conv1"
  top: "conv1"
}
layer {
  name: "norm1"
  type: "LRN"
  bottom: "conv1"
  top: "norm1"
  lrn_param {
    local_size: 5
    alpha: 0.0001
    beta: 0.75
  }
}
layer {
  name: "pool1"
  type: "Pooling"
  bottom: "norm1"
  top: "pool1"
  pooling_param {
    pool: MAX
    kernel_size: 3
    stride: 2
  }
}
layer {
  name: "conv2"
  type: "Convolution"
  bottom: "pool1"
  top: "conv2"
  param {
    lr_mult: 1
    decay_mult: 1
  }
  param {
    lr_mult: 2
    decay_mult: 0
  }
  convolution_param {
    num_output: 256
    pad: 2
    kernel_size: 5
    group: 2
    weight_filler {
      type: "gaussian"
      std: 0.01
    }
    bias_filler {
      type: "constant"
      value: 0.1
    }
  }
}
layer {
  name: "relu2"
  type: "ReLU"
  bottom: "conv2"
  top: "conv2"
}
layer {
  name: "norm2"
  type: "LRN"
  bottom: "conv2"
  top: "norm2"
  lrn_param {
    local_size: 5
    alpha: 0.0001
    beta: 0.75
  }
}
layer {
  name: "pool2"
  type: "Pooling"
  bottom: "norm2"
  top: "pool2"
  pooling_param {
    pool: MAX
    kernel_size: 3
    stride: 2
  }
}
layer {
  name: "conv3"
  type: "Convolution"
  bottom: "pool2"
  top: "conv3"
  param {
    lr_mult: 1
    decay_mult: 1
  }
  param {
    lr_mult: 2
    decay_mult: 0
  }
  convolution_param {
    num_output: 384
    pad: 1
    kernel_size: 3
    weight_filler {
      type: "gaussian"
      std: 0.01
    }
    bias_filler {
      type: "constant"
      value: 0
    }
  }
}
layer {
  name: "relu3"
  type: "ReLU"
  bottom: "conv3"
  top: "conv3"
}
layer {
  name: "conv4"
  type: "Convolution"
  bottom: "conv3"
  top: "conv4"
  param {
    lr_mult: 1
    decay_mult: 1
  }
  param {
    lr_mult: 2
    decay_mult: 0
  }
  convolution_param {
    num_output: 384
    pad: 1
    kernel_size: 3
    group: 2
    weight_filler {
      type: "gaussian"
      std: 0.01
    }
    bias_filler {
      type: "constant"
      value: 0.1
    }
  }
}
layer {
  name: "relu4"
  type: "ReLU"
  bottom: "conv4"
  top: "conv4"
}
layer {
  name: "conv5"
  type: "Convolution"
  bottom: "conv4"
  top: "conv5"
  param {
    lr_mult: 1
    decay_mult: 1
  }
  param {
    lr_mult: 2
    decay_mult: 0
  }
  convolution_param {
    num_output: 256
    pad: 1
    kernel_size: 3
    group: 2
    weight_filler {
      type: "gaussian"
      std: 0.01
    }
    bias_filler {
      type: "constant"
      value: 0.1
    }
  }
}
layer {
  name: "relu5"
  type: "ReLU"
  bottom: "conv5"
  top: "conv5"
}
layer {
  name: "pool5"
  type: "Pooling"
  bottom: "conv5"
  top: "pool5"
  pooling_param {
    pool: MAX
    kernel_size: 3
    stride: 2
  }
}
layer {
  name: "fc6"
  type: "InnerProduct"
  bottom: "pool5"
  top: "fc6"
  param {
    lr_mult: 1
    decay_mult: 1
  }
  param {
    lr_mult: 2
    decay_mult: 0
  }
  inner_product_param {
    num_output: 4096
    weight_filler {
      type: "gaussian"
      std: 0.005
    }
    bias_filler {
      type: "constant"
      value: 0.1
    }
  }
}
layer {
  name: "relu6"
  type: "ReLU"
  bottom: "fc6"
  top: "fc6"
}
layer {
  name: "drop6"
  type: "Dropout"
  bottom: "fc6"
  top: "fc6"
  dropout_param {
    dropout_ratio: 0.5
  }
}
layer {
  name: "fc7"
  type: "InnerProduct"
  bottom: "fc6"
  top: "fc7"
  param {
    lr_mult: 1
    decay_mult: 1
  }
  param {
    lr_mult: 2
    decay_mult: 0
  }
  inner_product_param {
    num_output: 4096
    weight_filler {
      type: "gaussian"
      std: 0.005
    }
    bias_filler {
      type: "constant"
      value: 0.1
    }
  }
}
layer {
  name: "relu7"
  type: "ReLU"
  bottom: "fc7"
  top: "fc7"
}
layer {
  name: "drop7"
  type: "Dropout"
  bottom: "fc7"
  top: "fc7"
  dropout_param {
    dropout_ratio: 0.5
  }
}
layer {
  name: "fc8_flickr"
  type: "InnerProduct"
  bottom: "fc7"
  top: "fc8_flickr"
  param {
    lr_mult: 1
    decay_mult: 1
  }
  param {
    lr_mult: 2
    decay_mult: 0
  }
  inner_product_param {
    num_output: 7
    weight_filler {
      type: "gaussian"
      std: 0.01
    }
    bias_filler {
      type: "constant"
      value: 0
    }
  }
}
layer {
  name: "loss"
  type: "SoftmaxWithLoss"
  bottom: "fc8_flickr"
  bottom: "label"
  top: "loss"
}
I0118 17:10:59.684376 31741 layer_factory.hpp:77] Creating layer data
I0118 17:10:59.684500 31741 db_lmdb.cpp:35] Opened lmdb ./data2/rail_train_lmdb
I0118 17:10:59.684535 31741 net.cpp:84] Creating Layer data
I0118 17:10:59.684545 31741 net.cpp:380] data -> data
I0118 17:10:59.684569 31741 net.cpp:380] data -> label
I0118 17:10:59.685819 31741 data_layer.cpp:45] output data size: 128,3,200,200
I0118 17:10:59.835326 31741 net.cpp:122] Setting up data
I0118 17:10:59.835384 31741 net.cpp:129] Top shape: 128 3 200 200 (15360000)
I0118 17:10:59.835391 31741 net.cpp:129] Top shape: 128 (128)
I0118 17:10:59.835395 31741 net.cpp:137] Memory required for data: 61440512
I0118 17:10:59.835407 31741 layer_factory.hpp:77] Creating layer conv1
I0118 17:10:59.835454 31741 net.cpp:84] Creating Layer conv1
I0118 17:10:59.835479 31741 net.cpp:406] conv1 <- data
I0118 17:10:59.835497 31741 net.cpp:380] conv1 -> conv1
I0118 17:11:00.963176 31741 net.cpp:122] Setting up conv1
I0118 17:11:00.963228 31741 net.cpp:129] Top shape: 128 96 48 48 (28311552)
I0118 17:11:00.963237 31741 net.cpp:137] Memory required for data: 174686720
I0118 17:11:00.963265 31741 layer_factory.hpp:77] Creating layer relu1
I0118 17:11:00.963280 31741 net.cpp:84] Creating Layer relu1
I0118 17:11:00.963286 31741 net.cpp:406] relu1 <- conv1
I0118 17:11:00.963295 31741 net.cpp:367] relu1 -> conv1 (in-place)
I0118 17:11:00.963498 31741 net.cpp:122] Setting up relu1
I0118 17:11:00.963510 31741 net.cpp:129] Top shape: 128 96 48 48 (28311552)
I0118 17:11:00.963515 31741 net.cpp:137] Memory required for data: 287932928
I0118 17:11:00.963521 31741 layer_factory.hpp:77] Creating layer norm1
I0118 17:11:00.963534 31741 net.cpp:84] Creating Layer norm1
I0118 17:11:00.963541 31741 net.cpp:406] norm1 <- conv1
I0118 17:11:00.963547 31741 net.cpp:380] norm1 -> norm1
I0118 17:11:00.964437 31741 net.cpp:122] Setting up norm1
I0118 17:11:00.964453 31741 net.cpp:129] Top shape: 128 96 48 48 (28311552)
I0118 17:11:00.964458 31741 net.cpp:137] Memory required for data: 401179136
I0118 17:11:00.964464 31741 layer_factory.hpp:77] Creating layer pool1
I0118 17:11:00.964475 31741 net.cpp:84] Creating Layer pool1
I0118 17:11:00.964481 31741 net.cpp:406] pool1 <- norm1
I0118 17:11:00.964488 31741 net.cpp:380] pool1 -> pool1
I0118 17:11:00.964550 31741 net.cpp:122] Setting up pool1
I0118 17:11:00.964573 31741 net.cpp:129] Top shape: 128 96 24 24 (7077888)
I0118 17:11:00.964578 31741 net.cpp:137] Memory required for data: 429490688
I0118 17:11:00.964582 31741 layer_factory.hpp:77] Creating layer conv2
I0118 17:11:00.964596 31741 net.cpp:84] Creating Layer conv2
I0118 17:11:00.964602 31741 net.cpp:406] conv2 <- pool1
I0118 17:11:00.964609 31741 net.cpp:380] conv2 -> conv2
I0118 17:11:00.972059 31741 net.cpp:122] Setting up conv2
I0118 17:11:00.972079 31741 net.cpp:129] Top shape: 128 256 24 24 (18874368)
I0118 17:11:00.972085 31741 net.cpp:137] Memory required for data: 504988160
I0118 17:11:00.972096 31741 layer_factory.hpp:77] Creating layer relu2
I0118 17:11:00.972105 31741 net.cpp:84] Creating Layer relu2
I0118 17:11:00.972110 31741 net.cpp:406] relu2 <- conv2
I0118 17:11:00.972117 31741 net.cpp:367] relu2 -> conv2 (in-place)
I0118 17:11:00.972982 31741 net.cpp:122] Setting up relu2
I0118 17:11:00.973000 31741 net.cpp:129] Top shape: 128 256 24 24 (18874368)
I0118 17:11:00.973011 31741 net.cpp:137] Memory required for data: 580485632
I0118 17:11:00.973019 31741 layer_factory.hpp:77] Creating layer norm2
I0118 17:11:00.973028 31741 net.cpp:84] Creating Layer norm2
I0118 17:11:00.973033 31741 net.cpp:406] norm2 <- conv2
I0118 17:11:00.973042 31741 net.cpp:380] norm2 -> norm2
I0118 17:11:00.973246 31741 net.cpp:122] Setting up norm2
I0118 17:11:00.973259 31741 net.cpp:129] Top shape: 128 256 24 24 (18874368)
I0118 17:11:00.973263 31741 net.cpp:137] Memory required for data: 655983104
I0118 17:11:00.973268 31741 layer_factory.hpp:77] Creating layer pool2
I0118 17:11:00.973278 31741 net.cpp:84] Creating Layer pool2
I0118 17:11:00.973284 31741 net.cpp:406] pool2 <- norm2
I0118 17:11:00.973290 31741 net.cpp:380] pool2 -> pool2
I0118 17:11:00.973330 31741 net.cpp:122] Setting up pool2
I0118 17:11:00.973338 31741 net.cpp:129] Top shape: 128 256 12 12 (4718592)
I0118 17:11:00.973342 31741 net.cpp:137] Memory required for data: 674857472
I0118 17:11:00.973347 31741 layer_factory.hpp:77] Creating layer conv3
I0118 17:11:00.973357 31741 net.cpp:84] Creating Layer conv3
I0118 17:11:00.973363 31741 net.cpp:406] conv3 <- pool2
I0118 17:11:00.973371 31741 net.cpp:380] conv3 -> conv3
I0118 17:11:00.986958 31741 net.cpp:122] Setting up conv3
I0118 17:11:00.986999 31741 net.cpp:129] Top shape: 128 384 12 12 (7077888)
I0118 17:11:00.987005 31741 net.cpp:137] Memory required for data: 703169024
I0118 17:11:00.987022 31741 layer_factory.hpp:77] Creating layer relu3
I0118 17:11:00.987035 31741 net.cpp:84] Creating Layer relu3
I0118 17:11:00.987040 31741 net.cpp:406] relu3 <- conv3
I0118 17:11:00.987051 31741 net.cpp:367] relu3 -> conv3 (in-place)
I0118 17:11:00.987246 31741 net.cpp:122] Setting up relu3
I0118 17:11:00.987257 31741 net.cpp:129] Top shape: 128 384 12 12 (7077888)
I0118 17:11:00.987262 31741 net.cpp:137] Memory required for data: 731480576
I0118 17:11:00.987268 31741 layer_factory.hpp:77] Creating layer conv4
I0118 17:11:00.987282 31741 net.cpp:84] Creating Layer conv4
I0118 17:11:00.987287 31741 net.cpp:406] conv4 <- conv3
I0118 17:11:00.987295 31741 net.cpp:380] conv4 -> conv4
I0118 17:11:00.999225 31741 net.cpp:122] Setting up conv4
I0118 17:11:00.999244 31741 net.cpp:129] Top shape: 128 384 12 12 (7077888)
I0118 17:11:00.999249 31741 net.cpp:137] Memory required for data: 759792128
I0118 17:11:00.999258 31741 layer_factory.hpp:77] Creating layer relu4
I0118 17:11:00.999269 31741 net.cpp:84] Creating Layer relu4
I0118 17:11:00.999274 31741 net.cpp:406] relu4 <- conv4
I0118 17:11:00.999281 31741 net.cpp:367] relu4 -> conv4 (in-place)
I0118 17:11:00.999472 31741 net.cpp:122] Setting up relu4
I0118 17:11:00.999485 31741 net.cpp:129] Top shape: 128 384 12 12 (7077888)
I0118 17:11:00.999490 31741 net.cpp:137] Memory required for data: 788103680
I0118 17:11:00.999495 31741 layer_factory.hpp:77] Creating layer conv5
I0118 17:11:00.999507 31741 net.cpp:84] Creating Layer conv5
I0118 17:11:00.999512 31741 net.cpp:406] conv5 <- conv4
I0118 17:11:00.999529 31741 net.cpp:380] conv5 -> conv5
I0118 17:11:01.008801 31741 net.cpp:122] Setting up conv5
I0118 17:11:01.008821 31741 net.cpp:129] Top shape: 128 256 12 12 (4718592)
I0118 17:11:01.008826 31741 net.cpp:137] Memory required for data: 806978048
I0118 17:11:01.008839 31741 layer_factory.hpp:77] Creating layer relu5
I0118 17:11:01.008848 31741 net.cpp:84] Creating Layer relu5
I0118 17:11:01.008853 31741 net.cpp:406] relu5 <- conv5
I0118 17:11:01.008862 31741 net.cpp:367] relu5 -> conv5 (in-place)
I0118 17:11:01.009063 31741 net.cpp:122] Setting up relu5
I0118 17:11:01.009078 31741 net.cpp:129] Top shape: 128 256 12 12 (4718592)
I0118 17:11:01.009083 31741 net.cpp:137] Memory required for data: 825852416
I0118 17:11:01.009088 31741 layer_factory.hpp:77] Creating layer pool5
I0118 17:11:01.009096 31741 net.cpp:84] Creating Layer pool5
I0118 17:11:01.009101 31741 net.cpp:406] pool5 <- conv5
I0118 17:11:01.009109 31741 net.cpp:380] pool5 -> pool5
I0118 17:11:01.009160 31741 net.cpp:122] Setting up pool5
I0118 17:11:01.009168 31741 net.cpp:129] Top shape: 128 256 6 6 (1179648)
I0118 17:11:01.009172 31741 net.cpp:137] Memory required for data: 830571008
I0118 17:11:01.009177 31741 layer_factory.hpp:77] Creating layer fc6
I0118 17:11:01.009191 31741 net.cpp:84] Creating Layer fc6
I0118 17:11:01.009196 31741 net.cpp:406] fc6 <- pool5
I0118 17:11:01.009204 31741 net.cpp:380] fc6 -> fc6
I0118 17:11:01.437219 31741 net.cpp:122] Setting up fc6
I0118 17:11:01.437280 31741 net.cpp:129] Top shape: 128 4096 (524288)
I0118 17:11:01.437285 31741 net.cpp:137] Memory required for data: 832668160
I0118 17:11:01.437299 31741 layer_factory.hpp:77] Creating layer relu6
I0118 17:11:01.437309 31741 net.cpp:84] Creating Layer relu6
I0118 17:11:01.437316 31741 net.cpp:406] relu6 <- fc6
I0118 17:11:01.437340 31741 net.cpp:367] relu6 -> fc6 (in-place)
I0118 17:11:01.438391 31741 net.cpp:122] Setting up relu6
I0118 17:11:01.438407 31741 net.cpp:129] Top shape: 128 4096 (524288)
I0118 17:11:01.438426 31741 net.cpp:137] Memory required for data: 834765312
I0118 17:11:01.438431 31741 layer_factory.hpp:77] Creating layer drop6
I0118 17:11:01.438454 31741 net.cpp:84] Creating Layer drop6
I0118 17:11:01.438472 31741 net.cpp:406] drop6 <- fc6
I0118 17:11:01.438494 31741 net.cpp:367] drop6 -> fc6 (in-place)
I0118 17:11:01.438524 31741 net.cpp:122] Setting up drop6
I0118 17:11:01.438531 31741 net.cpp:129] Top shape: 128 4096 (524288)
I0118 17:11:01.438534 31741 net.cpp:137] Memory required for data: 836862464
I0118 17:11:01.438539 31741 layer_factory.hpp:77] Creating layer fc7
I0118 17:11:01.438549 31741 net.cpp:84] Creating Layer fc7
I0118 17:11:01.438554 31741 net.cpp:406] fc7 <- fc6
I0118 17:11:01.438560 31741 net.cpp:380] fc7 -> fc7
I0118 17:11:01.685919 31741 net.cpp:122] Setting up fc7
I0118 17:11:01.685986 31741 net.cpp:129] Top shape: 128 4096 (524288)
I0118 17:11:01.685992 31741 net.cpp:137] Memory required for data: 838959616
I0118 17:11:01.686008 31741 layer_factory.hpp:77] Creating layer relu7
I0118 17:11:01.686025 31741 net.cpp:84] Creating Layer relu7
I0118 17:11:01.686033 31741 net.cpp:406] relu7 <- fc7
I0118 17:11:01.686045 31741 net.cpp:367] relu7 -> fc7 (in-place)
I0118 17:11:01.686362 31741 net.cpp:122] Setting up relu7
I0118 17:11:01.686377 31741 net.cpp:129] Top shape: 128 4096 (524288)
I0118 17:11:01.686381 31741 net.cpp:137] Memory required for data: 841056768
I0118 17:11:01.686386 31741 layer_factory.hpp:77] Creating layer drop7
I0118 17:11:01.686398 31741 net.cpp:84] Creating Layer drop7
I0118 17:11:01.686403 31741 net.cpp:406] drop7 <- fc7
I0118 17:11:01.686411 31741 net.cpp:367] drop7 -> fc7 (in-place)
I0118 17:11:01.686439 31741 net.cpp:122] Setting up drop7
I0118 17:11:01.686447 31741 net.cpp:129] Top shape: 128 4096 (524288)
I0118 17:11:01.686452 31741 net.cpp:137] Memory required for data: 843153920
I0118 17:11:01.686457 31741 layer_factory.hpp:77] Creating layer fc8_flickr
I0118 17:11:01.686468 31741 net.cpp:84] Creating Layer fc8_flickr
I0118 17:11:01.686475 31741 net.cpp:406] fc8_flickr <- fc7
I0118 17:11:01.686496 31741 net.cpp:380] fc8_flickr -> fc8_flickr
I0118 17:11:01.686985 31741 net.cpp:122] Setting up fc8_flickr
I0118 17:11:01.686995 31741 net.cpp:129] Top shape: 128 7 (896)
I0118 17:11:01.687000 31741 net.cpp:137] Memory required for data: 843157504
I0118 17:11:01.687008 31741 layer_factory.hpp:77] Creating layer loss
I0118 17:11:01.687018 31741 net.cpp:84] Creating Layer loss
I0118 17:11:01.687023 31741 net.cpp:406] loss <- fc8_flickr
I0118 17:11:01.687029 31741 net.cpp:406] loss <- label
I0118 17:11:01.687041 31741 net.cpp:380] loss -> loss
I0118 17:11:01.687057 31741 layer_factory.hpp:77] Creating layer loss
…
I0118 17:11:01.687918 31741 solver.cpp:172] Creating test net (#0) specified by net file: ./alex_net.prototxt
I0118 17:11:01.687960 31741 net.cpp:294] The NetState phase (1) differed from the phase (0) specified by a rule in layer data
I0118 17:11:01.688148 31741 net.cpp:51] Initializing net from parameters: 
name: "AlexNet"
state {
  phase: TEST
}
layer {
  name: "data"
  type: "Data"
  top: "data"
  top: "label"
  include {
    phase: TEST
  }
  transform_param {
    scale: 0.00390625
  }
  data_param {
    source: "./data2/rail_val_lmdb"
    batch_size: 100
    backend: LMDB
  }
}
layer {
  name: "conv1"
  type: "Convolution"
  bottom: "data"
  top: "conv1"
  param {
    lr_mult: 1
    decay_mult: 1
  }
  param {
    lr_mult: 2
    decay_mult: 0
  }
  convolution_param {
    num_output: 96
    kernel_size: 11
    stride: 4
    weight_filler {
      type: "gaussian"
      std: 0.01
    }
    bias_filler {
      type: "constant"
      value: 0
    }
  }
}
layer {
  name: "relu1"
  type: "ReLU"
  bottom: "conv1"
  top: "conv1"
}
layer {
  name: "norm1"
  type: "LRN"
  bottom: "conv1"
  top: "norm1"
  lrn_param {
    local_size: 5
    alpha: 0.0001
    beta: 0.75
  }
}
layer {
  name: "pool1"
  type: "Pooling"
  bottom: "norm1"
  top: "pool1"
  pooling_param {
    pool: MAX
    kernel_size: 3
    stride: 2
  }
}
layer {
  name: "conv2"
  type: "Convolution"
  bottom: "pool1"
  top: "conv2"
  param {
    lr_mult: 1
    decay_mult: 1
  }
  param {
    lr_mult: 2
    decay_mult: 0
  }
  convolution_param {
    num_output: 256
    pad: 2
    kernel_size: 5
    group: 2
    weight_filler {
      type: "gaussian"
      std: 0.01
    }
    bias_filler {
      type: "constant"
      value: 0.1
    }
  }
}
layer {
  name: "relu2"
  type: "ReLU"
  bottom: "conv2"
  top: "conv2"
}
layer {
  name: "norm2"
  type: "LRN"
  bottom: "conv2"
  top: "norm2"
  lrn_param {
    local_size: 5
    alpha: 0.0001
    beta: 0.75
  }
}
layer {
  name: "pool2"
  type: "Pooling"
  bottom: "norm2"
  top: "pool2"
  pooling_param {
    pool: MAX
    kernel_size: 3
    stride: 2
  }
}
layer {
  name: "conv3"
  type: "Convolution"
  bottom: "pool2"
  top: "conv3"
  param {
    lr_mult: 1
    decay_mult: 1
  }
  param {
    lr_mult: 2
    decay_mult: 0
  }
  convolution_param {
    num_output: 384
    pad: 1
    kernel_size: 3
    weight_filler {
      type: "gaussian"
      std: 0.01
    }
    bias_filler {
      type: "constant"
      value: 0
    }
  }
}
layer {
  name: "relu3"
  type: "ReLU"
  bottom: "conv3"
  top: "conv3"
}
layer {
  name: "conv4"
  type: "Convolution"
  bottom: "conv3"
  top: "conv4"
  param {
    lr_mult: 1
    decay_mult: 1
  }
  param {
    lr_mult: 2
    decay_mult: 0
  }
  convolution_param {
    num_output: 384
    pad: 1
    kernel_size: 3
    group: 2
    weight_filler {
      type: "gaussian"
      std: 0.01
    }
    bias_filler {
      type: "constant"
      value: 0.1
    }
  }
}
layer {
  name: "relu4"
  type: "ReLU"
  bottom: "conv4"
  top: "conv4"
}
layer {
  name: "conv5"
  type: "Convolution"
  bottom: "conv4"
  top: "conv5"
  param {
    lr_mult: 1
    decay_mult: 1
  }
  param {
    lr_mult: 2
    decay_mult: 0
  }
  convolution_param {
    num_output: 256
    pad: 1
    kernel_size: 3
    group: 2
    weight_filler {
      type: "gaussian"
      std: 0.01
    }
    bias_filler {
      type: "constant"
      value: 0.1
    }
  }
}
layer {
  name: "relu5"
  type: "ReLU"
  bottom: "conv5"
  top: "conv5"
}
layer {
  name: "pool5"
  type: "Pooling"
  bottom: "conv5"
  top: "pool5"
  pooling_param {
    pool: MAX
    kernel_size: 3
    stride: 2
  }
}
layer {
  name: "fc6"
  type: "InnerProduct"
  bottom: "pool5"
  top: "fc6"
  param {
    lr_mult: 1
    decay_mult: 1
  }
  param {
    lr_mult: 2
    decay_mult: 0
  }
  inner_product_param {
    num_output: 4096
    weight_filler {
      type: "gaussian"
      std: 0.005
    }
    bias_filler {
      type: "constant"
      value: 0.1
    }
  }
}
layer {
  name: "relu6"
  type: "ReLU"
  bottom: "fc6"
  top: "fc6"
}
layer {
  name: "drop6"
  type: "Dropout"
  bottom: "fc6"
  top: "fc6"
  dropout_param {
    dropout_ratio: 0.5
  }
}
layer {
  name: "fc7"
  type: "InnerProduct"
  bottom: "fc6"
  top: "fc7"
  param {
    lr_mult: 1
    decay_mult: 1
  }
  param {
    lr_mult: 2
    decay_mult: 0
  }
  inner_product_param {
    num_output: 4096
    weight_filler {
      type: "gaussian"
      std: 0.005
    }
    bias_filler {
      type: "constant"
      value: 0.1
    }
  }
}
layer {
  name: "relu7"
  type: "ReLU"
  bottom: "fc7"
  top: "fc7"
}
layer {
  name: "drop7"
  type: "Dropout"
  bottom: "fc7"
  top: "fc7"
  dropout_param {
    dropout_ratio: 0.5
  }
}
layer {
  name: "fc8_flickr"
  type: "InnerProduct"
  bottom: "fc7"
  top: "fc8_flickr"
  param {
    lr_mult: 1
    decay_mult: 1
  }
  param {
    lr_mult: 2
    decay_mult: 0
  }
  inner_product_param {
    num_output: 7
    weight_filler {
      type: "gaussian"
      std: 0.01
    }
    bias_filler {
      type: "constant"
      value: 0
    }
  }
}
layer {
  name: "accuracy"
  type: "Accuracy"
  bottom: "fc8_flickr"
  bottom: "label"
  top: "accuracy"
  include {
    phase: TEST
  }
}
layer {
  name: "loss"
  type: "SoftmaxWithLoss"
  bottom: "fc8_flickr"
  bottom: "label"
  top: "loss"
}
I0118 17:11:01.688272 31741 layer_factory.hpp:77] Creating layer data
I0118 17:11:01.688372 31741 db_lmdb.cpp:35] Opened lmdb ./data2/rail_val_lmdb
I0118 17:11:01.688412 31741 net.cpp:84] Creating Layer data
I0118 17:11:01.688422 31741 net.cpp:380] data -> data
I0118 17:11:01.688434 31741 net.cpp:380] data -> label
I0118 17:11:01.688645 31741 data_layer.cpp:45] output data size: 100,3,200,200
I0118 17:11:01.825335 31741 net.cpp:122] Setting up data
I0118 17:11:01.825397 31741 net.cpp:129] Top shape: 100 3 200 200 (12000000)
I0118 17:11:01.825407 31741 net.cpp:129] Top shape: 100 (100)
I0118 17:11:01.825412 31741 net.cpp:137] Memory required for data: 48000400
I0118 17:11:01.825423 31741 layer_factory.hpp:77] Creating layer label_data_1_split
I0118 17:11:01.825443 31741 net.cpp:84] Creating Layer label_data_1_split
I0118 17:11:01.825450 31741 net.cpp:406] label_data_1_split <- label
I0118 17:11:01.825464 31741 net.cpp:380] label_data_1_split -> label_data_1_split_0
I0118 17:11:01.825479 31741 net.cpp:380] label_data_1_split -> label_data_1_split_1
I0118 17:11:01.825755 31741 net.cpp:122] Setting up label_data_1_split
I0118 17:11:01.825805 31741 net.cpp:129] Top shape: 100 (100)
I0118 17:11:01.825816 31741 net.cpp:129] Top shape: 100 (100)
I0118 17:11:01.825824 31741 net.cpp:137] Memory required for data: 48001200
I0118 17:11:01.825834 31741 layer_factory.hpp:77] Creating layer conv1
I0118 17:11:01.825865 31741 net.cpp:84] Creating Layer conv1
I0118 17:11:01.825876 31741 net.cpp:406] conv1 <- data
I0118 17:11:01.825892 31741 net.cpp:380] conv1 -> conv1
I0118 17:11:01.833113 31741 net.cpp:122] Setting up conv1
I0118 17:11:01.833156 31741 net.cpp:129] Top shape: 100 96 48 48 (22118400)
I0118 17:11:01.833168 31741 net.cpp:137] Memory required for data: 136474800
I0118 17:11:01.833195 31741 layer_factory.hpp:77] Creating layer relu1
I0118 17:11:01.833214 31741 net.cpp:84] Creating Layer relu1
I0118 17:11:01.833223 31741 net.cpp:406] relu1 <- conv1
I0118 17:11:01.833240 31741 net.cpp:367] relu1 -> conv1 (in-place)
I0118 17:11:01.833587 31741 net.cpp:122] Setting up relu1
I0118 17:11:01.833608 31741 net.cpp:129] Top shape: 100 96 48 48 (22118400)
I0118 17:11:01.833617 31741 net.cpp:137] Memory required for data: 224948400
I0118 17:11:01.833627 31741 layer_factory.hpp:77] Creating layer norm1
I0118 17:11:01.833648 31741 net.cpp:84] Creating Layer norm1
I0118 17:11:01.833658 31741 net.cpp:406] norm1 <- conv1
I0118 17:11:01.833673 31741 net.cpp:380] norm1 -> norm1
I0118 17:11:01.835441 31741 net.cpp:122] Setting up norm1
I0118 17:11:01.835472 31741 net.cpp:129] Top shape: 100 96 48 48 (22118400)
I0118 17:11:01.835482 31741 net.cpp:137] Memory required for data: 313422000
I0118 17:11:01.835492 31741 layer_factory.hpp:77] Creating layer pool1
I0118 17:11:01.835511 31741 net.cpp:84] Creating Layer pool1
I0118 17:11:01.835521 31741 net.cpp:406] pool1 <- norm1
I0118 17:11:01.835536 31741 net.cpp:380] pool1 -> pool1
I0118 17:11:01.835618 31741 net.cpp:122] Setting up pool1
I0118 17:11:01.835636 31741 net.cpp:129] Top shape: 100 96 24 24 (5529600)
I0118 17:11:01.835645 31741 net.cpp:137] Memory required for data: 335540400
I0118 17:11:01.835654 31741 layer_factory.hpp:77] Creating layer conv2
I0118 17:11:01.835676 31741 net.cpp:84] Creating Layer conv2
I0118 17:11:01.835687 31741 net.cpp:406] conv2 <- pool1
I0118 17:11:01.835702 31741 net.cpp:380] conv2 -> conv2
I0118 17:11:01.847417 31741 net.cpp:122] Setting up conv2
I0118 17:11:01.847451 31741 net.cpp:129] Top shape: 100 256 24 24 (14745600)
I0118 17:11:01.847461 31741 net.cpp:137] Memory required for data: 394522800
I0118 17:11:01.847482 31741 layer_factory.hpp:77] Creating layer relu2
I0118 17:11:01.847497 31741 net.cpp:84] Creating Layer relu2
I0118 17:11:01.847506 31741 net.cpp:406] relu2 <- conv2
I0118 17:11:01.847522 31741 net.cpp:367] relu2 -> conv2 (in-place)
I0118 17:11:01.849087 31741 net.cpp:122] Setting up relu2
I0118 17:11:01.849117 31741 net.cpp:129] Top shape: 100 256 24 24 (14745600)
I0118 17:11:01.849124 31741 net.cpp:137] Memory required for data: 453505200
I0118 17:11:01.849136 31741 layer_factory.hpp:77] Creating layer norm2
I0118 17:11:01.849167 31741 net.cpp:84] Creating Layer norm2
I0118 17:11:01.849191 31741 net.cpp:406] norm2 <- conv2
I0118 17:11:01.849206 31741 net.cpp:380] norm2 -> norm2
I0118 17:11:01.849602 31741 net.cpp:122] Setting up norm2
I0118 17:11:01.849623 31741 net.cpp:129] Top shape: 100 256 24 24 (14745600)
I0118 17:11:01.849632 31741 net.cpp:137] Memory required for data: 512487600
I0118 17:11:01.849640 31741 layer_factory.hpp:77] Creating layer pool2
I0118 17:11:01.849655 31741 net.cpp:84] Creating Layer pool2
I0118 17:11:01.849664 31741 net.cpp:406] pool2 <- norm2
I0118 17:11:01.849678 31741 net.cpp:380] pool2 -> pool2
I0118 17:11:01.849751 31741 net.cpp:122] Setting up pool2
I0118 17:11:01.849767 31741 net.cpp:129] Top shape: 100 256 12 12 (3686400)
I0118 17:11:01.849774 31741 net.cpp:137] Memory required for data: 527233200
I0118 17:11:01.849782 31741 layer_factory.hpp:77] Creating layer conv3
I0118 17:11:01.849802 31741 net.cpp:84] Creating Layer conv3
I0118 17:11:01.849812 31741 net.cpp:406] conv3 <- pool2
I0118 17:11:01.849825 31741 net.cpp:380] conv3 -> conv3
I0118 17:11:01.871780 31741 net.cpp:122] Setting up conv3
I0118 17:11:01.871817 31741 net.cpp:129] Top shape: 100 384 12 12 (5529600)
I0118 17:11:01.871826 31741 net.cpp:137] Memory required for data: 549351600
I0118 17:11:01.871846 31741 layer_factory.hpp:77] Creating layer relu3
I0118 17:11:01.871861 31741 net.cpp:84] Creating Layer relu3
I0118 17:11:01.871870 31741 net.cpp:406] relu3 <- conv3
I0118 17:11:01.871883 31741 net.cpp:367] relu3 -> conv3 (in-place)
I0118 17:11:01.872193 31741 net.cpp:122] Setting up relu3
I0118 17:11:01.872212 31741 net.cpp:129] Top shape: 100 384 12 12 (5529600)
I0118 17:11:01.872220 31741 net.cpp:137] Memory required for data: 571470000
I0118 17:11:01.872228 31741 layer_factory.hpp:77] Creating layer conv4
I0118 17:11:01.872246 31741 net.cpp:84] Creating Layer conv4
I0118 17:11:01.872254 31741 net.cpp:406] conv4 <- conv3
I0118 17:11:01.872267 31741 net.cpp:380] conv4 -> conv4
I0118 17:11:01.890184 31741 net.cpp:122] Setting up conv4
I0118 17:11:01.890216 31741 net.cpp:129] Top shape: 100 384 12 12 (5529600)
I0118 17:11:01.890224 31741 net.cpp:137] Memory required for data: 593588400
I0118 17:11:01.890238 31741 layer_factory.hpp:77] Creating layer relu4
I0118 17:11:01.890250 31741 net.cpp:84] Creating Layer relu4
I0118 17:11:01.890259 31741 net.cpp:406] relu4 <- conv4
I0118 17:11:01.890269 31741 net.cpp:367] relu4 -> conv4 (in-place)
I0118 17:11:01.890564 31741 net.cpp:122] Setting up relu4
I0118 17:11:01.890581 31741 net.cpp:129] Top shape: 100 384 12 12 (5529600)
I0118 17:11:01.890588 31741 net.cpp:137] Memory required for data: 615706800
I0118 17:11:01.890594 31741 layer_factory.hpp:77] Creating layer conv5
I0118 17:11:01.890610 31741 net.cpp:84] Creating Layer conv5
I0118 17:11:01.890619 31741 net.cpp:406] conv5 <- conv4
I0118 17:11:01.890631 31741 net.cpp:380] conv5 -> conv5
I0118 17:11:01.906162 31741 net.cpp:122] Setting up conv5
I0118 17:11:01.906188 31741 net.cpp:129] Top shape: 100 256 12 12 (3686400)
I0118 17:11:01.906196 31741 net.cpp:137] Memory required for data: 630452400
I0118 17:11:01.906214 31741 layer_factory.hpp:77] Creating layer relu5
I0118 17:11:01.906226 31741 net.cpp:84] Creating Layer relu5
I0118 17:11:01.906234 31741 net.cpp:406] relu5 <- conv5
I0118 17:11:01.906244 31741 net.cpp:367] relu5 -> conv5 (in-place)
I0118 17:11:01.906499 31741 net.cpp:122] Setting up relu5
I0118 17:11:01.906514 31741 net.cpp:129] Top shape: 100 256 12 12 (3686400)
I0118 17:11:01.906520 31741 net.cpp:137] Memory required for data: 645198000
I0118 17:11:01.906527 31741 layer_factory.hpp:77] Creating layer pool5
I0118 17:11:01.906544 31741 net.cpp:84] Creating Layer pool5
I0118 17:11:01.906551 31741 net.cpp:406] pool5 <- conv5
I0118 17:11:01.906561 31741 net.cpp:380] pool5 -> pool5
I0118 17:11:01.906630 31741 net.cpp:122] Setting up pool5
I0118 17:11:01.906642 31741 net.cpp:129] Top shape: 100 256 6 6 (921600)
I0118 17:11:01.906649 31741 net.cpp:137] Memory required for data: 648884400
I0118 17:11:01.906656 31741 layer_factory.hpp:77] Creating layer fc6
I0118 17:11:01.906679 31741 net.cpp:84] Creating Layer fc6
I0118 17:11:01.906699 31741 net.cpp:406] fc6 <- pool5
I0118 17:11:01.906710 31741 net.cpp:380] fc6 -> fc6
I0118 17:11:02.405203 31741 net.cpp:122] Setting up fc6
I0118 17:11:02.405259 31741 net.cpp:129] Top shape: 100 4096 (409600)
I0118 17:11:02.405267 31741 net.cpp:137] Memory required for data: 650522800
I0118 17:11:02.405282 31741 layer_factory.hpp:77] Creating layer relu6
I0118 17:11:02.405294 31741 net.cpp:84] Creating Layer relu6
I0118 17:11:02.405302 31741 net.cpp:406] relu6 <- fc6
I0118 17:11:02.405313 31741 net.cpp:367] relu6 -> fc6 (in-place)
I0118 17:11:02.405598 31741 net.cpp:122] Setting up relu6
I0118 17:11:02.405612 31741 net.cpp:129] Top shape: 100 4096 (409600)
I0118 17:11:02.405618 31741 net.cpp:137] Memory required for data: 652161200
I0118 17:11:02.405623 31741 layer_factory.hpp:77] Creating layer drop6
I0118 17:11:02.405634 31741 net.cpp:84] Creating Layer drop6
I0118 17:11:02.405639 31741 net.cpp:406] drop6 <- fc6
I0118 17:11:02.405647 31741 net.cpp:367] drop6 -> fc6 (in-place)
I0118 17:11:02.405685 31741 net.cpp:122] Setting up drop6
I0118 17:11:02.405694 31741 net.cpp:129] Top shape: 100 4096 (409600)
I0118 17:11:02.405699 31741 net.cpp:137] Memory required for data: 653799600
I0118 17:11:02.405704 31741 layer_factory.hpp:77] Creating layer fc7
I0118 17:11:02.405714 31741 net.cpp:84] Creating Layer fc7
I0118 17:11:02.405719 31741 net.cpp:406] fc7 <- fc6
I0118 17:11:02.405727 31741 net.cpp:380] fc7 -> fc7
I0118 17:11:02.625248 31741 net.cpp:122] Setting up fc7
I0118 17:11:02.625301 31741 net.cpp:129] Top shape: 100 4096 (409600)
I0118 17:11:02.625308 31741 net.cpp:137] Memory required for data: 655438000
I0118 17:11:02.625321 31741 layer_factory.hpp:77] Creating layer relu7
I0118 17:11:02.625335 31741 net.cpp:84] Creating Layer relu7
I0118 17:11:02.625342 31741 net.cpp:406] relu7 <- fc7
I0118 17:11:02.625353 31741 net.cpp:367] relu7 -> fc7 (in-place)
I0118 17:11:02.627929 31741 net.cpp:122] Setting up relu7
I0118 17:11:02.628008 31741 net.cpp:129] Top shape: 100 4096 (409600)
I0118 17:11:02.628020 31741 net.cpp:137] Memory required for data: 657076400
I0118 17:11:02.628033 31741 layer_factory.hpp:77] Creating layer drop7
I0118 17:11:02.628058 31741 net.cpp:84] Creating Layer drop7
I0118 17:11:02.628072 31741 net.cpp:406] drop7 <- fc7
I0118 17:11:02.628092 31741 net.cpp:367] drop7 -> fc7 (in-place)
I0118 17:11:02.628190 31741 net.cpp:122] Setting up drop7
I0118 17:11:02.628206 31741 net.cpp:129] Top shape: 100 4096 (409600)
I0118 17:11:02.628216 31741 net.cpp:137] Memory required for data: 658714800
I0118 17:11:02.628226 31741 layer_factory.hpp:77] Creating layer fc8_flickr
I0118 17:11:02.628247 31741 net.cpp:84] Creating Layer fc8_flickr
I0118 17:11:02.628255 31741 net.cpp:406] fc8_flickr <- fc7
I0118 17:11:02.628273 31741 net.cpp:380] fc8_flickr -> fc8_flickr
I0118 17:11:02.629232 31741 net.cpp:122] Setting up fc8_flickr
I0118 17:11:02.629256 31741 net.cpp:129] Top shape: 100 7 (700)
I0118 17:11:02.629266 31741 net.cpp:137] Memory required for data: 658717600
I0118 17:11:02.629285 31741 layer_factory.hpp:77] Creating layer fc8_flickr_fc8_flickr_0_split
I0118 17:11:02.629302 31741 net.cpp:84] Creating Layer fc8_flickr_fc8_flickr_0_split
I0118 17:11:02.629312 31741 net.cpp:406] fc8_flickr_fc8_flickr_0_split <- fc8_flickr
I0118 17:11:02.629328 31741 net.cpp:380] fc8_flickr_fc8_flickr_0_split -> fc8_flickr_fc8_flickr_0_split_0
I0118 17:11:02.629346 31741 net.cpp:380] fc8_flickr_fc8_flickr_0_split -> fc8_flickr_fc8_flickr_0_split_1
I0118 17:11:02.629428 31741 net.cpp:122] Setting up fc8_flickr_fc8_flickr_0_split
I0118 17:11:02.629443 31741 net.cpp:129] Top shape: 100 7 (700)
I0118 17:11:02.629454 31741 net.cpp:129] Top shape: 100 7 (700)
I0118 17:11:02.629463 31741 net.cpp:137] Memory required for data: 658723200
I0118 17:11:02.629472 31741 layer_factory.hpp:77] Creating layer accuracy
I0118 17:11:02.629489 31741 net.cpp:84] Creating Layer accuracy
I0118 17:11:02.629499 31741 net.cpp:406] accuracy <- fc8_flickr_fc8_flickr_0_split_0
I0118 17:11:02.629530 31741 net.cpp:406] accuracy <- label_data_1_split_0
I0118 17:11:02.629565 31741 net.cpp:380] accuracy -> accuracy
…
