…
I0119 16:53:26.998975 28781 net.cpp:294] The NetState phase (0) differed from the phase (1) specified by a rule in layer data
I0119 16:53:26.999011 28781 net.cpp:294] The NetState phase (0) differed from the phase (1) specified by a rule in layer accuracy
I0119 16:53:26.999142 28781 net.cpp:51] Initializing net from parameters: 
name: "Sketch-a-Net"
state {
  phase: TRAIN
  level: 0
  stage: ""
}
layer {
  name: "data"
  type: "Data"
  top: "data"
  top: "label"
  include {
    phase: TRAIN
  }
  transform_param {
    scale: 0.00390625
  }
  data_param {
    source: "./data3/rail_train_lmdb"
    batch_size: 128
    backend: LMDB
  }
}
layer {
  name: "conv1"
  type: "Convolution"
  bottom: "data"
  top: "conv1"
  param {
    lr_mult: 1
    decay_mult: 1
  }
  param {
    lr_mult: 2
    decay_mult: 0
  }
  convolution_param {
    num_output: 64
    kernel_size: 15
    stride: 3
    weight_filler {
      type: "xavier"
      std: 0.01
    }
    bias_filler {
      type: "constant"
      value: 0
    }
  }
}
layer {
  name: "relu1"
  type: "ReLU"
  bottom: "conv1"
  top: "conv1"
}
layer {
  name: "pool1"
  type: "Pooling"
  bottom: "conv1"
  top: "pool1"
  pooling_param {
    pool: MAX
    kernel_size: 3
    stride: 2
  }
}
layer {
  name: "conv2"
  type: "Convolution"
  bottom: "pool1"
  top: "conv2"
  param {
    lr_mult: 1
    decay_mult: 1
  }
  param {
    lr_mult: 2
    decay_mult: 0
  }
  convolution_param {
    num_output: 128
    pad: 0
    kernel_size: 5
    group: 1
    weight_filler {
      type: "xavier"
      std: 0.01
    }
    bias_filler {
      type: "constant"
      value: 0.1
    }
  }
}
layer {
  name: "relu2"
  type: "ReLU"
  bottom: "conv2"
  top: "conv2"
}
layer {
  name: "pool2"
  type: "Pooling"
  bottom: "conv2"
  top: "pool2"
  pooling_param {
    pool: MAX
    kernel_size: 3
    stride: 2
  }
}
layer {
  name: "conv3"
  type: "Convolution"
  bottom: "pool2"
  top: "conv3"
  param {
    lr_mult: 1
    decay_mult: 1
  }
  param {
    lr_mult: 2
    decay_mult: 0
  }
  convolution_param {
    num_output: 256
    pad: 1
    kernel_size: 3
    weight_filler {
      type: "xavier"
      std: 0.01
    }
    bias_filler {
      type: "constant"
      value: 0
    }
  }
}
layer {
  name: "relu3"
  type: "ReLU"
  bottom: "conv3"
  top: "conv3"
}
layer {
  name: "conv4"
  type: "Convolution"
  bottom: "conv3"
  top: "conv4"
  param {
    lr_mult: 1
    decay_mult: 1
  }
  param {
    lr_mult: 2
    decay_mult: 0
  }
  convolution_param {
    num_output: 256
    pad: 1
    kernel_size: 3
    weight_filler {
      type: "xavier"
      std: 0.01
    }
    bias_filler {
      type: "constant"
      value: 0.1
    }
  }
}
layer {
  name: "relu4"
  type: "ReLU"
  bottom: "conv4"
  top: "conv4"
}
layer {
  name: "conv5"
  type: "Convolution"
  bottom: "conv4"
  top: "conv5"
  param {
    lr_mult: 1
    decay_mult: 1
  }
  param {
    lr_mult: 2
    decay_mult: 0
  }
  convolution_param {
    num_output: 256
    pad: 1
    kernel_size: 3
    weight_filler {
      type: "xavier"
      std: 0.01
    }
    bias_filler {
      type: "constant"
      value: 0.1
    }
  }
}
layer {
  name: "relu5"
  type: "ReLU"
  bottom: "conv5"
  top: "conv5"
}
layer {
  name: "pool5"
  type: "Pooling"
  bottom: "conv5"
  top: "pool5"
  pooling_param {
    pool: MAX
    kernel_size: 3
    stride: 2
  }
}
layer {
  name: "fc6"
  type: "InnerProduct"
  bottom: "pool5"
  top: "fc6"
  param {
    lr_mult: 1
    decay_mult: 1
  }
  param {
    lr_mult: 2
    decay_mult: 0
  }
  inner_product_param {
    num_output: 512
    weight_filler {
      type: "xavier"
      std: 0.005
    }
    bias_filler {
      type: "constant"
      value: 0.1
    }
  }
}
layer {
  name: "relu6"
  type: "ReLU"
  bottom: "fc6"
  top: "fc6"
}
layer {
  name: "drop6"
  type: "Dropout"
  bottom: "fc6"
  top: "fc6"
  dropout_param {
    dropout_ratio: 0.5
  }
}
layer {
  name: "fc7"
  type: "InnerProduct"
  bottom: "fc6"
  top: "fc7"
  param {
    lr_mult: 1
    decay_mult: 1
  }
  param {
    lr_mult: 2
    decay_mult: 0
  }
  inner_product_param {
    num_output: 512
    weight_filler {
      type: "xavier"
      std: 0.005
    }
    bias_filler {
      type: "constant"
      value: 0.1
    }
  }
}
layer {
  name: "relu7"
  type: "ReLU"
  bottom: "fc7"
  top: "fc7"
}
layer {
  name: "drop7"
  type: "Dropout"
  bottom: "fc7"
  top: "fc7"
  dropout_param {
    dropout_ratio: 0.5
  }
}
layer {
  name: "fc8_flickr"
  type: "InnerProduct"
  bottom: "fc7"
  top: "fc8_flickr"
  param {
    lr_mult: 1
    decay_mult: 1
  }
  param {
    lr_mult: 2
    decay_mult: 0
  }
  inner_product_param {
    num_output: 7
    weight_filler {
      type: "xavier"
      std: 0.01
    }
    bias_filler {
      type: "constant"
      value: 0
    }
  }
}
layer {
  name: "loss"
  type: "SoftmaxWithLoss"
  bottom: "fc8_flickr"
  bottom: "label"
  top: "loss"
}
I0119 16:53:26.999248 28781 layer_factory.hpp:77] Creating layer data
I0119 16:53:26.999380 28781 db_lmdb.cpp:35] Opened lmdb ./data3/rail_train_lmdb
I0119 16:53:26.999414 28781 net.cpp:84] Creating Layer data
I0119 16:53:26.999424 28781 net.cpp:380] data -> data
I0119 16:53:26.999464 28781 net.cpp:380] data -> label
I0119 16:53:27.000633 28781 data_layer.cpp:45] output data size: 128,3,200,200
I0119 16:53:27.151254 28781 net.cpp:122] Setting up data
I0119 16:53:27.151296 28781 net.cpp:129] Top shape: 128 3 200 200 (15360000)
I0119 16:53:27.151304 28781 net.cpp:129] Top shape: 128 (128)
I0119 16:53:27.151307 28781 net.cpp:137] Memory required for data: 61440512
I0119 16:53:27.151320 28781 layer_factory.hpp:77] Creating layer conv1
I0119 16:53:27.151348 28781 net.cpp:84] Creating Layer conv1
I0119 16:53:27.151356 28781 net.cpp:406] conv1 <- data
I0119 16:53:27.151372 28781 net.cpp:380] conv1 -> conv1
I0119 16:53:28.169272 28781 net.cpp:122] Setting up conv1
I0119 16:53:28.169323 28781 net.cpp:129] Top shape: 128 64 62 62 (31490048)
I0119 16:53:28.169329 28781 net.cpp:137] Memory required for data: 187400704
I0119 16:53:28.169355 28781 layer_factory.hpp:77] Creating layer relu1
I0119 16:53:28.169371 28781 net.cpp:84] Creating Layer relu1
I0119 16:53:28.169376 28781 net.cpp:406] relu1 <- conv1
I0119 16:53:28.169384 28781 net.cpp:367] relu1 -> conv1 (in-place)
I0119 16:53:28.169536 28781 net.cpp:122] Setting up relu1
I0119 16:53:28.169548 28781 net.cpp:129] Top shape: 128 64 62 62 (31490048)
I0119 16:53:28.169550 28781 net.cpp:137] Memory required for data: 313360896
I0119 16:53:28.169554 28781 layer_factory.hpp:77] Creating layer pool1
I0119 16:53:28.169560 28781 net.cpp:84] Creating Layer pool1
I0119 16:53:28.169564 28781 net.cpp:406] pool1 <- conv1
I0119 16:53:28.169569 28781 net.cpp:380] pool1 -> pool1
I0119 16:53:28.169615 28781 net.cpp:122] Setting up pool1
I0119 16:53:28.169621 28781 net.cpp:129] Top shape: 128 64 31 31 (7872512)
I0119 16:53:28.169625 28781 net.cpp:137] Memory required for data: 344850944
I0119 16:53:28.169627 28781 layer_factory.hpp:77] Creating layer conv2
I0119 16:53:28.169641 28781 net.cpp:84] Creating Layer conv2
I0119 16:53:28.169644 28781 net.cpp:406] conv2 <- pool1
I0119 16:53:28.169649 28781 net.cpp:380] conv2 -> conv2
I0119 16:53:28.173638 28781 net.cpp:122] Setting up conv2
I0119 16:53:28.173655 28781 net.cpp:129] Top shape: 128 128 27 27 (11943936)
I0119 16:53:28.173658 28781 net.cpp:137] Memory required for data: 392626688
I0119 16:53:28.173668 28781 layer_factory.hpp:77] Creating layer relu2
I0119 16:53:28.173682 28781 net.cpp:84] Creating Layer relu2
I0119 16:53:28.173696 28781 net.cpp:406] relu2 <- conv2
I0119 16:53:28.173702 28781 net.cpp:367] relu2 -> conv2 (in-place)
I0119 16:53:28.174384 28781 net.cpp:122] Setting up relu2
I0119 16:53:28.174398 28781 net.cpp:129] Top shape: 128 128 27 27 (11943936)
I0119 16:53:28.174402 28781 net.cpp:137] Memory required for data: 440402432
I0119 16:53:28.174405 28781 layer_factory.hpp:77] Creating layer pool2
I0119 16:53:28.174413 28781 net.cpp:84] Creating Layer pool2
I0119 16:53:28.174417 28781 net.cpp:406] pool2 <- conv2
I0119 16:53:28.174422 28781 net.cpp:380] pool2 -> pool2
I0119 16:53:28.174459 28781 net.cpp:122] Setting up pool2
I0119 16:53:28.174465 28781 net.cpp:129] Top shape: 128 128 13 13 (2768896)
I0119 16:53:28.174468 28781 net.cpp:137] Memory required for data: 451478016
I0119 16:53:28.174471 28781 layer_factory.hpp:77] Creating layer conv3
I0119 16:53:28.174481 28781 net.cpp:84] Creating Layer conv3
I0119 16:53:28.174484 28781 net.cpp:406] conv3 <- pool2
I0119 16:53:28.174490 28781 net.cpp:380] conv3 -> conv3
I0119 16:53:28.176918 28781 net.cpp:122] Setting up conv3
I0119 16:53:28.176931 28781 net.cpp:129] Top shape: 128 256 13 13 (5537792)
I0119 16:53:28.176935 28781 net.cpp:137] Memory required for data: 473629184
I0119 16:53:28.176945 28781 layer_factory.hpp:77] Creating layer relu3
I0119 16:53:28.176952 28781 net.cpp:84] Creating Layer relu3
I0119 16:53:28.176956 28781 net.cpp:406] relu3 <- conv3
I0119 16:53:28.176960 28781 net.cpp:367] relu3 -> conv3 (in-place)
I0119 16:53:28.177636 28781 net.cpp:122] Setting up relu3
I0119 16:53:28.177650 28781 net.cpp:129] Top shape: 128 256 13 13 (5537792)
I0119 16:53:28.177654 28781 net.cpp:137] Memory required for data: 495780352
I0119 16:53:28.177657 28781 layer_factory.hpp:77] Creating layer conv4
I0119 16:53:28.177670 28781 net.cpp:84] Creating Layer conv4
I0119 16:53:28.177675 28781 net.cpp:406] conv4 <- conv3
I0119 16:53:28.177680 28781 net.cpp:380] conv4 -> conv4
I0119 16:53:28.183024 28781 net.cpp:122] Setting up conv4
I0119 16:53:28.183039 28781 net.cpp:129] Top shape: 128 256 13 13 (5537792)
I0119 16:53:28.183043 28781 net.cpp:137] Memory required for data: 517931520
I0119 16:53:28.183049 28781 layer_factory.hpp:77] Creating layer relu4
I0119 16:53:28.183058 28781 net.cpp:84] Creating Layer relu4
I0119 16:53:28.183060 28781 net.cpp:406] relu4 <- conv4
I0119 16:53:28.183065 28781 net.cpp:367] relu4 -> conv4 (in-place)
I0119 16:53:28.183217 28781 net.cpp:122] Setting up relu4
I0119 16:53:28.183226 28781 net.cpp:129] Top shape: 128 256 13 13 (5537792)
I0119 16:53:28.183230 28781 net.cpp:137] Memory required for data: 540082688
I0119 16:53:28.183233 28781 layer_factory.hpp:77] Creating layer conv5
I0119 16:53:28.183243 28781 net.cpp:84] Creating Layer conv5
I0119 16:53:28.183246 28781 net.cpp:406] conv5 <- conv4
I0119 16:53:28.183251 28781 net.cpp:380] conv5 -> conv5
I0119 16:53:28.188585 28781 net.cpp:122] Setting up conv5
I0119 16:53:28.188601 28781 net.cpp:129] Top shape: 128 256 13 13 (5537792)
I0119 16:53:28.188606 28781 net.cpp:137] Memory required for data: 562233856
I0119 16:53:28.188613 28781 layer_factory.hpp:77] Creating layer relu5
I0119 16:53:28.188621 28781 net.cpp:84] Creating Layer relu5
I0119 16:53:28.188625 28781 net.cpp:406] relu5 <- conv5
I0119 16:53:28.188630 28781 net.cpp:367] relu5 -> conv5 (in-place)
I0119 16:53:28.188781 28781 net.cpp:122] Setting up relu5
I0119 16:53:28.188791 28781 net.cpp:129] Top shape: 128 256 13 13 (5537792)
I0119 16:53:28.188793 28781 net.cpp:137] Memory required for data: 584385024
I0119 16:53:28.188796 28781 layer_factory.hpp:77] Creating layer pool5
I0119 16:53:28.188803 28781 net.cpp:84] Creating Layer pool5
I0119 16:53:28.188807 28781 net.cpp:406] pool5 <- conv5
I0119 16:53:28.188812 28781 net.cpp:380] pool5 -> pool5
I0119 16:53:28.188850 28781 net.cpp:122] Setting up pool5
I0119 16:53:28.188856 28781 net.cpp:129] Top shape: 128 256 6 6 (1179648)
I0119 16:53:28.188859 28781 net.cpp:137] Memory required for data: 589103616
I0119 16:53:28.188863 28781 layer_factory.hpp:77] Creating layer fc6
I0119 16:53:28.188882 28781 net.cpp:84] Creating Layer fc6
I0119 16:53:28.188885 28781 net.cpp:406] fc6 <- pool5
I0119 16:53:28.188892 28781 net.cpp:380] fc6 -> fc6
I0119 16:53:28.216447 28781 net.cpp:122] Setting up fc6
I0119 16:53:28.216472 28781 net.cpp:129] Top shape: 128 512 (65536)
I0119 16:53:28.216476 28781 net.cpp:137] Memory required for data: 589365760
I0119 16:53:28.216483 28781 layer_factory.hpp:77] Creating layer relu6
I0119 16:53:28.216490 28781 net.cpp:84] Creating Layer relu6
I0119 16:53:28.216493 28781 net.cpp:406] relu6 <- fc6
I0119 16:53:28.216498 28781 net.cpp:367] relu6 -> fc6 (in-place)
I0119 16:53:28.216668 28781 net.cpp:122] Setting up relu6
I0119 16:53:28.216677 28781 net.cpp:129] Top shape: 128 512 (65536)
I0119 16:53:28.216680 28781 net.cpp:137] Memory required for data: 589627904
I0119 16:53:28.216683 28781 layer_factory.hpp:77] Creating layer drop6
I0119 16:53:28.216694 28781 net.cpp:84] Creating Layer drop6
I0119 16:53:28.216697 28781 net.cpp:406] drop6 <- fc6
I0119 16:53:28.216702 28781 net.cpp:367] drop6 -> fc6 (in-place)
I0119 16:53:28.216723 28781 net.cpp:122] Setting up drop6
I0119 16:53:28.216732 28781 net.cpp:129] Top shape: 128 512 (65536)
I0119 16:53:28.216734 28781 net.cpp:137] Memory required for data: 589890048
I0119 16:53:28.216738 28781 layer_factory.hpp:77] Creating layer fc7
I0119 16:53:28.216744 28781 net.cpp:84] Creating Layer fc7
I0119 16:53:28.216747 28781 net.cpp:406] fc7 <- fc6
I0119 16:53:28.216754 28781 net.cpp:380] fc7 -> fc7
I0119 16:53:28.218984 28781 net.cpp:122] Setting up fc7
I0119 16:53:28.218998 28781 net.cpp:129] Top shape: 128 512 (65536)
I0119 16:53:28.219002 28781 net.cpp:137] Memory required for data: 590152192
I0119 16:53:28.219007 28781 layer_factory.hpp:77] Creating layer relu7
I0119 16:53:28.219013 28781 net.cpp:84] Creating Layer relu7
I0119 16:53:28.219017 28781 net.cpp:406] relu7 <- fc7
I0119 16:53:28.219023 28781 net.cpp:367] relu7 -> fc7 (in-place)
I0119 16:53:28.219709 28781 net.cpp:122] Setting up relu7
I0119 16:53:28.219722 28781 net.cpp:129] Top shape: 128 512 (65536)
I0119 16:53:28.219725 28781 net.cpp:137] Memory required for data: 590414336
I0119 16:53:28.219729 28781 layer_factory.hpp:77] Creating layer drop7
I0119 16:53:28.219735 28781 net.cpp:84] Creating Layer drop7
I0119 16:53:28.219738 28781 net.cpp:406] drop7 <- fc7
I0119 16:53:28.219745 28781 net.cpp:367] drop7 -> fc7 (in-place)
I0119 16:53:28.219765 28781 net.cpp:122] Setting up drop7
I0119 16:53:28.219770 28781 net.cpp:129] Top shape: 128 512 (65536)
I0119 16:53:28.219774 28781 net.cpp:137] Memory required for data: 590676480
I0119 16:53:28.219776 28781 layer_factory.hpp:77] Creating layer fc8_flickr
I0119 16:53:28.219784 28781 net.cpp:84] Creating Layer fc8_flickr
I0119 16:53:28.219787 28781 net.cpp:406] fc8_flickr <- fc7
I0119 16:53:28.219792 28781 net.cpp:380] fc8_flickr -> fc8_flickr
I0119 16:53:28.219903 28781 net.cpp:122] Setting up fc8_flickr
I0119 16:53:28.219910 28781 net.cpp:129] Top shape: 128 7 (896)
I0119 16:53:28.219913 28781 net.cpp:137] Memory required for data: 590680064
I0119 16:53:28.219918 28781 layer_factory.hpp:77] Creating layer loss
I0119 16:53:28.219925 28781 net.cpp:84] Creating Layer loss
I0119 16:53:28.219929 28781 net.cpp:406] loss <- fc8_flickr
I0119 16:53:28.219933 28781 net.cpp:406] loss <- label
I0119 16:53:28.219938 28781 net.cpp:380] loss -> loss
I0119 16:53:28.219949 28781 layer_factory.hpp:77] Creating layer loss
…
I0119 16:53:28.220563 28781 solver.cpp:172] Creating test net (#0) specified by net file: ./sketch-a-net.prototxt
I0119 16:53:28.220592 28781 net.cpp:294] The NetState phase (1) differed from the phase (0) specified by a rule in layer data
I0119 16:53:28.220723 28781 net.cpp:51] Initializing net from parameters: 
name: "Sketch-a-Net"
state {
  phase: TEST
}
layer {
  name: "data"
  type: "Data"
  top: "data"
  top: "label"
  include {
    phase: TEST
  }
  transform_param {
    scale: 0.00390625
  }
  data_param {
    source: "./data3/rail_val_lmdb"
    batch_size: 100
    backend: LMDB
  }
}
layer {
  name: "conv1"
  type: "Convolution"
  bottom: "data"
  top: "conv1"
  param {
    lr_mult: 1
    decay_mult: 1
  }
  param {
    lr_mult: 2
    decay_mult: 0
  }
  convolution_param {
    num_output: 64
    kernel_size: 15
    stride: 3
    weight_filler {
      type: "xavier"
      std: 0.01
    }
    bias_filler {
      type: "constant"
      value: 0
    }
  }
}
layer {
  name: "relu1"
  type: "ReLU"
  bottom: "conv1"
  top: "conv1"
}
layer {
  name: "pool1"
  type: "Pooling"
  bottom: "conv1"
  top: "pool1"
  pooling_param {
    pool: MAX
    kernel_size: 3
    stride: 2
  }
}
layer {
  name: "conv2"
  type: "Convolution"
  bottom: "pool1"
  top: "conv2"
  param {
    lr_mult: 1
    decay_mult: 1
  }
  param {
    lr_mult: 2
    decay_mult: 0
  }
  convolution_param {
    num_output: 128
    pad: 0
    kernel_size: 5
    group: 1
    weight_filler {
      type: "xavier"
      std: 0.01
    }
    bias_filler {
      type: "constant"
      value: 0.1
    }
  }
}
layer {
  name: "relu2"
  type: "ReLU"
  bottom: "conv2"
  top: "conv2"
}
layer {
  name: "pool2"
  type: "Pooling"
  bottom: "conv2"
  top: "pool2"
  pooling_param {
    pool: MAX
    kernel_size: 3
    stride: 2
  }
}
layer {
  name: "conv3"
  type: "Convolution"
  bottom: "pool2"
  top: "conv3"
  param {
    lr_mult: 1
    decay_mult: 1
  }
  param {
    lr_mult: 2
    decay_mult: 0
  }
  convolution_param {
    num_output: 256
    pad: 1
    kernel_size: 3
    weight_filler {
      type: "xavier"
      std: 0.01
    }
    bias_filler {
      type: "constant"
      value: 0
    }
  }
}
layer {
  name: "relu3"
  type: "ReLU"
  bottom: "conv3"
  top: "conv3"
}
layer {
  name: "conv4"
  type: "Convolution"
  bottom: "conv3"
  top: "conv4"
  param {
    lr_mult: 1
    decay_mult: 1
  }
  param {
    lr_mult: 2
    decay_mult: 0
  }
  convolution_param {
    num_output: 256
    pad: 1
    kernel_size: 3
    weight_filler {
      type: "xavier"
      std: 0.01
    }
    bias_filler {
      type: "constant"
      value: 0.1
    }
  }
}
layer {
  name: "relu4"
  type: "ReLU"
  bottom: "conv4"
  top: "conv4"
}
layer {
  name: "conv5"
  type: "Convolution"
  bottom: "conv4"
  top: "conv5"
  param {
    lr_mult: 1
    decay_mult: 1
  }
  param {
    lr_mult: 2
    decay_mult: 0
  }
  convolution_param {
    num_output: 256
    pad: 1
    kernel_size: 3
    weight_filler {
      type: "xavier"
      std: 0.01
    }
    bias_filler {
      type: "constant"
      value: 0.1
    }
  }
}
layer {
  name: "relu5"
  type: "ReLU"
  bottom: "conv5"
  top: "conv5"
}
layer {
  name: "pool5"
  type: "Pooling"
  bottom: "conv5"
  top: "pool5"
  pooling_param {
    pool: MAX
    kernel_size: 3
    stride: 2
  }
}
layer {
  name: "fc6"
  type: "InnerProduct"
  bottom: "pool5"
  top: "fc6"
  param {
    lr_mult: 1
    decay_mult: 1
  }
  param {
    lr_mult: 2
    decay_mult: 0
  }
  inner_product_param {
    num_output: 512
    weight_filler {
      type: "xavier"
      std: 0.005
    }
    bias_filler {
      type: "constant"
      value: 0.1
    }
  }
}
layer {
  name: "relu6"
  type: "ReLU"
  bottom: "fc6"
  top: "fc6"
}
layer {
  name: "drop6"
  type: "Dropout"
  bottom: "fc6"
  top: "fc6"
  dropout_param {
    dropout_ratio: 0.5
  }
}
layer {
  name: "fc7"
  type: "InnerProduct"
  bottom: "fc6"
  top: "fc7"
  param {
    lr_mult: 1
    decay_mult: 1
  }
  param {
    lr_mult: 2
    decay_mult: 0
  }
  inner_product_param {
    num_output: 512
    weight_filler {
      type: "xavier"
      std: 0.005
    }
    bias_filler {
      type: "constant"
      value: 0.1
    }
  }
}
layer {
  name: "relu7"
  type: "ReLU"
  bottom: "fc7"
  top: "fc7"
}
layer {
  name: "drop7"
  type: "Dropout"
  bottom: "fc7"
  top: "fc7"
  dropout_param {
    dropout_ratio: 0.5
  }
}
layer {
  name: "fc8_flickr"
  type: "InnerProduct"
  bottom: "fc7"
  top: "fc8_flickr"
  param {
    lr_mult: 1
    decay_mult: 1
  }
  param {
    lr_mult: 2
    decay_mult: 0
  }
  inner_product_param {
    num_output: 7
    weight_filler {
      type: "xavier"
      std: 0.01
    }
    bias_filler {
      type: "constant"
      value: 0
    }
  }
}
layer {
  name: "accuracy"
  type: "Accuracy"
  bottom: "fc8_flickr"
  bottom: "label"
  top: "accuracy"
  include {
    phase: TEST
  }
}
layer {
  name: "loss"
  type: "SoftmaxWithLoss"
  bottom: "fc8_flickr"
  bottom: "label"
  top: "loss"
}
I0119 16:53:28.220818 28781 layer_factory.hpp:77] Creating layer data
I0119 16:53:28.220876 28781 db_lmdb.cpp:35] Opened lmdb ./data3/rail_val_lmdb
I0119 16:53:28.220897 28781 net.cpp:84] Creating Layer data
I0119 16:53:28.220903 28781 net.cpp:380] data -> data
I0119 16:53:28.220911 28781 net.cpp:380] data -> label
I0119 16:53:28.221123 28781 data_layer.cpp:45] output data size: 100,3,200,200
I0119 16:53:28.332413 28781 net.cpp:122] Setting up data
I0119 16:53:28.332463 28781 net.cpp:129] Top shape: 100 3 200 200 (12000000)
I0119 16:53:28.332469 28781 net.cpp:129] Top shape: 100 (100)
I0119 16:53:28.332473 28781 net.cpp:137] Memory required for data: 48000400
I0119 16:53:28.332480 28781 layer_factory.hpp:77] Creating layer label_data_1_split
I0119 16:53:28.332496 28781 net.cpp:84] Creating Layer label_data_1_split
I0119 16:53:28.332501 28781 net.cpp:406] label_data_1_split <- label
I0119 16:53:28.332510 28781 net.cpp:380] label_data_1_split -> label_data_1_split_0
I0119 16:53:28.332521 28781 net.cpp:380] label_data_1_split -> label_data_1_split_1
I0119 16:53:28.332738 28781 net.cpp:122] Setting up label_data_1_split
I0119 16:53:28.332803 28781 net.cpp:129] Top shape: 100 (100)
I0119 16:53:28.332814 28781 net.cpp:129] Top shape: 100 (100)
I0119 16:53:28.332821 28781 net.cpp:137] Memory required for data: 48001200
I0119 16:53:28.332832 28781 layer_factory.hpp:77] Creating layer conv1
I0119 16:53:28.332866 28781 net.cpp:84] Creating Layer conv1
I0119 16:53:28.332878 28781 net.cpp:406] conv1 <- data
I0119 16:53:28.332895 28781 net.cpp:380] conv1 -> conv1
I0119 16:53:28.340538 28781 net.cpp:122] Setting up conv1
I0119 16:53:28.340579 28781 net.cpp:129] Top shape: 100 64 62 62 (24601600)
I0119 16:53:28.340591 28781 net.cpp:137] Memory required for data: 146407600
I0119 16:53:28.340629 28781 layer_factory.hpp:77] Creating layer relu1
I0119 16:53:28.340663 28781 net.cpp:84] Creating Layer relu1
I0119 16:53:28.340673 28781 net.cpp:406] relu1 <- conv1
I0119 16:53:28.340690 28781 net.cpp:367] relu1 -> conv1 (in-place)
I0119 16:53:28.341058 28781 net.cpp:122] Setting up relu1
I0119 16:53:28.341095 28781 net.cpp:129] Top shape: 100 64 62 62 (24601600)
I0119 16:53:28.341105 28781 net.cpp:137] Memory required for data: 244814000
I0119 16:53:28.341116 28781 layer_factory.hpp:77] Creating layer pool1
I0119 16:53:28.341137 28781 net.cpp:84] Creating Layer pool1
I0119 16:53:28.341146 28781 net.cpp:406] pool1 <- conv1
I0119 16:53:28.341158 28781 net.cpp:380] pool1 -> pool1
I0119 16:53:28.341253 28781 net.cpp:122] Setting up pool1
I0119 16:53:28.341269 28781 net.cpp:129] Top shape: 100 64 31 31 (6150400)
I0119 16:53:28.341275 28781 net.cpp:137] Memory required for data: 269415600
I0119 16:53:28.341284 28781 layer_factory.hpp:77] Creating layer conv2
I0119 16:53:28.341313 28781 net.cpp:84] Creating Layer conv2
I0119 16:53:28.341323 28781 net.cpp:406] conv2 <- pool1
I0119 16:53:28.341336 28781 net.cpp:380] conv2 -> conv2
I0119 16:53:28.346791 28781 net.cpp:122] Setting up conv2
I0119 16:53:28.346823 28781 net.cpp:129] Top shape: 100 128 27 27 (9331200)
I0119 16:53:28.346832 28781 net.cpp:137] Memory required for data: 306740400
I0119 16:53:28.346849 28781 layer_factory.hpp:77] Creating layer relu2
I0119 16:53:28.346865 28781 net.cpp:84] Creating Layer relu2
I0119 16:53:28.346874 28781 net.cpp:406] relu2 <- conv2
I0119 16:53:28.346885 28781 net.cpp:367] relu2 -> conv2 (in-place)
I0119 16:53:28.347235 28781 net.cpp:122] Setting up relu2
I0119 16:53:28.347252 28781 net.cpp:129] Top shape: 100 128 27 27 (9331200)
I0119 16:53:28.347261 28781 net.cpp:137] Memory required for data: 344065200
I0119 16:53:28.347268 28781 layer_factory.hpp:77] Creating layer pool2
I0119 16:53:28.347280 28781 net.cpp:84] Creating Layer pool2
I0119 16:53:28.347286 28781 net.cpp:406] pool2 <- conv2
I0119 16:53:28.347301 28781 net.cpp:380] pool2 -> pool2
I0119 16:53:28.347383 28781 net.cpp:122] Setting up pool2
I0119 16:53:28.347398 28781 net.cpp:129] Top shape: 100 128 13 13 (2163200)
I0119 16:53:28.347404 28781 net.cpp:137] Memory required for data: 352718000
I0119 16:53:28.347412 28781 layer_factory.hpp:77] Creating layer conv3
I0119 16:53:28.347434 28781 net.cpp:84] Creating Layer conv3
I0119 16:53:28.347442 28781 net.cpp:406] conv3 <- pool2
I0119 16:53:28.347455 28781 net.cpp:380] conv3 -> conv3
I0119 16:53:28.356343 28781 net.cpp:122] Setting up conv3
I0119 16:53:28.356375 28781 net.cpp:129] Top shape: 100 256 13 13 (4326400)
I0119 16:53:28.356393 28781 net.cpp:137] Memory required for data: 370023600
I0119 16:53:28.356413 28781 layer_factory.hpp:77] Creating layer relu3
I0119 16:53:28.356431 28781 net.cpp:84] Creating Layer relu3
I0119 16:53:28.356439 28781 net.cpp:406] relu3 <- conv3
I0119 16:53:28.356451 28781 net.cpp:367] relu3 -> conv3 (in-place)
I0119 16:53:28.356801 28781 net.cpp:122] Setting up relu3
I0119 16:53:28.356820 28781 net.cpp:129] Top shape: 100 256 13 13 (4326400)
I0119 16:53:28.356827 28781 net.cpp:137] Memory required for data: 387329200
I0119 16:53:28.356834 28781 layer_factory.hpp:77] Creating layer conv4
I0119 16:53:28.356856 28781 net.cpp:84] Creating Layer conv4
I0119 16:53:28.356866 28781 net.cpp:406] conv4 <- conv3
I0119 16:53:28.356878 28781 net.cpp:380] conv4 -> conv4
I0119 16:53:28.368641 28781 net.cpp:122] Setting up conv4
I0119 16:53:28.368671 28781 net.cpp:129] Top shape: 100 256 13 13 (4326400)
I0119 16:53:28.368680 28781 net.cpp:137] Memory required for data: 404634800
I0119 16:53:28.368693 28781 layer_factory.hpp:77] Creating layer relu4
I0119 16:53:28.368705 28781 net.cpp:84] Creating Layer relu4
I0119 16:53:28.368711 28781 net.cpp:406] relu4 <- conv4
I0119 16:53:28.368726 28781 net.cpp:367] relu4 -> conv4 (in-place)
I0119 16:53:28.370200 28781 net.cpp:122] Setting up relu4
I0119 16:53:28.370231 28781 net.cpp:129] Top shape: 100 256 13 13 (4326400)
I0119 16:53:28.370247 28781 net.cpp:137] Memory required for data: 421940400
I0119 16:53:28.370268 28781 layer_factory.hpp:77] Creating layer conv5
I0119 16:53:28.370290 28781 net.cpp:84] Creating Layer conv5
I0119 16:53:28.370297 28781 net.cpp:406] conv5 <- conv4
I0119 16:53:28.370312 28781 net.cpp:380] conv5 -> conv5
I0119 16:53:28.380239 28781 net.cpp:122] Setting up conv5
I0119 16:53:28.380267 28781 net.cpp:129] Top shape: 100 256 13 13 (4326400)
I0119 16:53:28.380275 28781 net.cpp:137] Memory required for data: 439246000
I0119 16:53:28.380295 28781 layer_factory.hpp:77] Creating layer relu5
I0119 16:53:28.380308 28781 net.cpp:84] Creating Layer relu5
I0119 16:53:28.380316 28781 net.cpp:406] relu5 <- conv5
I0119 16:53:28.380327 28781 net.cpp:367] relu5 -> conv5 (in-place)
I0119 16:53:28.381716 28781 net.cpp:122] Setting up relu5
I0119 16:53:28.381747 28781 net.cpp:129] Top shape: 100 256 13 13 (4326400)
I0119 16:53:28.381753 28781 net.cpp:137] Memory required for data: 456551600
I0119 16:53:28.381760 28781 layer_factory.hpp:77] Creating layer pool5
I0119 16:53:28.381772 28781 net.cpp:84] Creating Layer pool5
I0119 16:53:28.381780 28781 net.cpp:406] pool5 <- conv5
I0119 16:53:28.381790 28781 net.cpp:380] pool5 -> pool5
I0119 16:53:28.381872 28781 net.cpp:122] Setting up pool5
I0119 16:53:28.381886 28781 net.cpp:129] Top shape: 100 256 6 6 (921600)
I0119 16:53:28.381892 28781 net.cpp:137] Memory required for data: 460238000
I0119 16:53:28.381898 28781 layer_factory.hpp:77] Creating layer fc6
I0119 16:53:28.381913 28781 net.cpp:84] Creating Layer fc6
I0119 16:53:28.381920 28781 net.cpp:406] fc6 <- pool5
I0119 16:53:28.381933 28781 net.cpp:380] fc6 -> fc6
I0119 16:53:28.430645 28781 net.cpp:122] Setting up fc6
I0119 16:53:28.430691 28781 net.cpp:129] Top shape: 100 512 (51200)
I0119 16:53:28.430697 28781 net.cpp:137] Memory required for data: 460442800
I0119 16:53:28.430711 28781 layer_factory.hpp:77] Creating layer relu6
I0119 16:53:28.430734 28781 net.cpp:84] Creating Layer relu6
I0119 16:53:28.430742 28781 net.cpp:406] relu6 <- fc6
I0119 16:53:28.430752 28781 net.cpp:367] relu6 -> fc6 (in-place)
I0119 16:53:28.431066 28781 net.cpp:122] Setting up relu6
I0119 16:53:28.431079 28781 net.cpp:129] Top shape: 100 512 (51200)
I0119 16:53:28.431084 28781 net.cpp:137] Memory required for data: 460647600
I0119 16:53:28.431089 28781 layer_factory.hpp:77] Creating layer drop6
I0119 16:53:28.431102 28781 net.cpp:84] Creating Layer drop6
I0119 16:53:28.431107 28781 net.cpp:406] drop6 <- fc6
I0119 16:53:28.431116 28781 net.cpp:367] drop6 -> fc6 (in-place)
I0119 16:53:28.431159 28781 net.cpp:122] Setting up drop6
I0119 16:53:28.431167 28781 net.cpp:129] Top shape: 100 512 (51200)
I0119 16:53:28.431171 28781 net.cpp:137] Memory required for data: 460852400
I0119 16:53:28.431176 28781 layer_factory.hpp:77] Creating layer fc7
I0119 16:53:28.431191 28781 net.cpp:84] Creating Layer fc7
I0119 16:53:28.431197 28781 net.cpp:406] fc7 <- fc6
I0119 16:53:28.431206 28781 net.cpp:380] fc7 -> fc7
I0119 16:53:28.434726 28781 net.cpp:122] Setting up fc7
I0119 16:53:28.434754 28781 net.cpp:129] Top shape: 100 512 (51200)
I0119 16:53:28.434761 28781 net.cpp:137] Memory required for data: 461057200
I0119 16:53:28.434770 28781 layer_factory.hpp:77] Creating layer relu7
I0119 16:53:28.434778 28781 net.cpp:84] Creating Layer relu7
I0119 16:53:28.434783 28781 net.cpp:406] relu7 <- fc7
I0119 16:53:28.434792 28781 net.cpp:367] relu7 -> fc7 (in-place)
I0119 16:53:28.435039 28781 net.cpp:122] Setting up relu7
I0119 16:53:28.435051 28781 net.cpp:129] Top shape: 100 512 (51200)
I0119 16:53:28.435056 28781 net.cpp:137] Memory required for data: 461262000
I0119 16:53:28.435062 28781 layer_factory.hpp:77] Creating layer drop7
I0119 16:53:28.435070 28781 net.cpp:84] Creating Layer drop7
I0119 16:53:28.435075 28781 net.cpp:406] drop7 <- fc7
I0119 16:53:28.435084 28781 net.cpp:367] drop7 -> fc7 (in-place)
I0119 16:53:28.435120 28781 net.cpp:122] Setting up drop7
I0119 16:53:28.435132 28781 net.cpp:129] Top shape: 100 512 (51200)
I0119 16:53:28.435135 28781 net.cpp:137] Memory required for data: 461466800
I0119 16:53:28.435149 28781 layer_factory.hpp:77] Creating layer fc8_flickr
I0119 16:53:28.435171 28781 net.cpp:84] Creating Layer fc8_flickr
I0119 16:53:28.435178 28781 net.cpp:406] fc8_flickr <- fc7
I0119 16:53:28.435186 28781 net.cpp:380] fc8_flickr -> fc8_flickr
I0119 16:53:28.435375 28781 net.cpp:122] Setting up fc8_flickr
I0119 16:53:28.435386 28781 net.cpp:129] Top shape: 100 7 (700)
I0119 16:53:28.435390 28781 net.cpp:137] Memory required for data: 461469600
I0119 16:53:28.435398 28781 layer_factory.hpp:77] Creating layer fc8_flickr_fc8_flickr_0_split
I0119 16:53:28.435415 28781 net.cpp:84] Creating Layer fc8_flickr_fc8_flickr_0_split
I0119 16:53:28.435420 28781 net.cpp:406] fc8_flickr_fc8_flickr_0_split <- fc8_flickr
I0119 16:53:28.435427 28781 net.cpp:380] fc8_flickr_fc8_flickr_0_split -> fc8_flickr_fc8_flickr_0_split_0
I0119 16:53:28.435439 28781 net.cpp:380] fc8_flickr_fc8_flickr_0_split -> fc8_flickr_fc8_flickr_0_split_1
I0119 16:53:28.435494 28781 net.cpp:122] Setting up fc8_flickr_fc8_flickr_0_split
I0119 16:53:28.435503 28781 net.cpp:129] Top shape: 100 7 (700)
I0119 16:53:28.435509 28781 net.cpp:129] Top shape: 100 7 (700)
I0119 16:53:28.435513 28781 net.cpp:137] Memory required for data: 461475200
I0119 16:53:28.435518 28781 layer_factory.hpp:77] Creating layer accuracy
I0119 16:53:28.435528 28781 net.cpp:84] Creating Layer accuracy
I0119 16:53:28.435534 28781 net.cpp:406] accuracy <- fc8_flickr_fc8_flickr_0_split_0
I0119 16:53:28.435540 28781 net.cpp:406] accuracy <- label_data_1_split_0
I0119 16:53:28.435549 28781 net.cpp:380] accuracy -> accuracy
…
