…
I0119 15:58:44.577278 27124 net.cpp:294] The NetState phase (0) differed from the phase (1) specified by a rule in layer data
I0119 15:58:44.577316 27124 net.cpp:294] The NetState phase (0) differed from the phase (1) specified by a rule in layer accuracy
I0119 15:58:44.577476 27124 net.cpp:51] Initializing net from parameters: 
name: "AlexNet"
state {
  phase: TRAIN
  level: 0
  stage: ""
}
layer {
  name: "data"
  type: "Data"
  top: "data"
  top: "label"
  include {
    phase: TRAIN
  }
  transform_param {
    scale: 0.00390625
  }
  data_param {
    source: "./data3/rail_train_lmdb"
    batch_size: 128
    backend: LMDB
  }
}
layer {
  name: "conv1"
  type: "Convolution"
  bottom: "data"
  top: "conv1"
  param {
    lr_mult: 1
    decay_mult: 1
  }
  param {
    lr_mult: 2
    decay_mult: 0
  }
  convolution_param {
    num_output: 96
    kernel_size: 11
    stride: 4
    weight_filler {
      type: "gaussian"
      std: 0.01
    }
    bias_filler {
      type: "constant"
      value: 0
    }
  }
}
layer {
  name: "relu1"
  type: "ReLU"
  bottom: "conv1"
  top: "conv1"
}
layer {
  name: "norm1"
  type: "LRN"
  bottom: "conv1"
  top: "norm1"
  lrn_param {
    local_size: 5
    alpha: 0.0001
    beta: 0.75
  }
}
layer {
  name: "pool1"
  type: "Pooling"
  bottom: "norm1"
  top: "pool1"
  pooling_param {
    pool: MAX
    kernel_size: 3
    stride: 2
  }
}
layer {
  name: "conv2"
  type: "Convolution"
  bottom: "pool1"
  top: "conv2"
  param {
    lr_mult: 1
    decay_mult: 1
  }
  param {
    lr_mult: 2
    decay_mult: 0
  }
  convolution_param {
    num_output: 256
    pad: 2
    kernel_size: 5
    group: 2
    weight_filler {
      type: "gaussian"
      std: 0.01
    }
    bias_filler {
      type: "constant"
      value: 0.1
    }
  }
}
layer {
  name: "relu2"
  type: "ReLU"
  bottom: "conv2"
  top: "conv2"
}
layer {
  name: "norm2"
  type: "LRN"
  bottom: "conv2"
  top: "norm2"
  lrn_param {
    local_size: 5
    alpha: 0.0001
    beta: 0.75
  }
}
layer {
  name: "pool2"
  type: "Pooling"
  bottom: "norm2"
  top: "pool2"
  pooling_param {
    pool: MAX
    kernel_size: 3
    stride: 2
  }
}
layer {
  name: "conv3"
  type: "Convolution"
  bottom: "pool2"
  top: "conv3"
  param {
    lr_mult: 1
    decay_mult: 1
  }
  param {
    lr_mult: 2
    decay_mult: 0
  }
  convolution_param {
    num_output: 384
    pad: 1
    kernel_size: 3
    weight_filler {
      type: "gaussian"
      std: 0.01
    }
    bias_filler {
      type: "constant"
      value: 0
    }
  }
}
layer {
  name: "relu3"
  type: "ReLU"
  bottom: "conv3"
  top: "conv3"
}
layer {
  name: "conv4"
  type: "Convolution"
  bottom: "conv3"
  top: "conv4"
  param {
    lr_mult: 1
    decay_mult: 1
  }
  param {
    lr_mult: 2
    decay_mult: 0
  }
  convolution_param {
    num_output: 384
    pad: 1
    kernel_size: 3
    group: 2
    weight_filler {
      type: "gaussian"
      std: 0.01
    }
    bias_filler {
      type: "constant"
      value: 0.1
    }
  }
}
layer {
  name: "relu4"
  type: "ReLU"
  bottom: "conv4"
  top: "conv4"
}
layer {
  name: "conv5"
  type: "Convolution"
  bottom: "conv4"
  top: "conv5"
  param {
    lr_mult: 1
    decay_mult: 1
  }
  param {
    lr_mult: 2
    decay_mult: 0
  }
  convolution_param {
    num_output: 256
    pad: 1
    kernel_size: 3
    group: 2
    weight_filler {
      type: "gaussian"
      std: 0.01
    }
    bias_filler {
      type: "constant"
      value: 0.1
    }
  }
}
layer {
  name: "relu5"
  type: "ReLU"
  bottom: "conv5"
  top: "conv5"
}
layer {
  name: "pool5"
  type: "Pooling"
  bottom: "conv5"
  top: "pool5"
  pooling_param {
    pool: MAX
    kernel_size: 3
    stride: 2
  }
}
layer {
  name: "fc6"
  type: "InnerProduct"
  bottom: "pool5"
  top: "fc6"
  param {
    lr_mult: 1
    decay_mult: 1
  }
  param {
    lr_mult: 2
    decay_mult: 0
  }
  inner_product_param {
    num_output: 4096
    weight_filler {
      type: "gaussian"
      std: 0.005
    }
    bias_filler {
      type: "constant"
      value: 0.1
    }
  }
}
layer {
  name: "relu6"
  type: "ReLU"
  bottom: "fc6"
  top: "fc6"
}
layer {
  name: "drop6"
  type: "Dropout"
  bottom: "fc6"
  top: "fc6"
  dropout_param {
    dropout_ratio: 0.5
  }
}
layer {
  name: "fc7"
  type: "InnerProduct"
  bottom: "fc6"
  top: "fc7"
  param {
    lr_mult: 1
    decay_mult: 1
  }
  param {
    lr_mult: 2
    decay_mult: 0
  }
  inner_product_param {
    num_output: 4096
    weight_filler {
      type: "gaussian"
      std: 0.005
    }
    bias_filler {
      type: "constant"
      value: 0.1
    }
  }
}
layer {
  name: "relu7"
  type: "ReLU"
  bottom: "fc7"
  top: "fc7"
}
layer {
  name: "drop7"
  type: "Dropout"
  bottom: "fc7"
  top: "fc7"
  dropout_param {
    dropout_ratio: 0.5
  }
}
layer {
  name: "fc8_flickr"
  type: "InnerProduct"
  bottom: "fc7"
  top: "fc8_flickr"
  param {
    lr_mult: 1
    decay_mult: 1
  }
  param {
    lr_mult: 2
    decay_mult: 0
  }
  inner_product_param {
    num_output: 7
    weight_filler {
      type: "gaussian"
      std: 0.01
    }
    bias_filler {
      type: "constant"
      value: 0
    }
  }
}
layer {
  name: "loss"
  type: "SoftmaxWithLoss"
  bottom: "fc8_flickr"
  bottom: "label"
  top: "loss"
}
I0119 15:58:44.577585 27124 layer_factory.hpp:77] Creating layer data
I0119 15:58:44.577714 27124 db_lmdb.cpp:35] Opened lmdb ./data3/rail_train_lmdb
I0119 15:58:44.577747 27124 net.cpp:84] Creating Layer data
I0119 15:58:44.577757 27124 net.cpp:380] data -> data
I0119 15:58:44.577797 27124 net.cpp:380] data -> label
I0119 15:58:44.578955 27124 data_layer.cpp:45] output data size: 128,3,200,200
I0119 15:58:44.727321 27124 net.cpp:122] Setting up data
I0119 15:58:44.727365 27124 net.cpp:129] Top shape: 128 3 200 200 (15360000)
I0119 15:58:44.727373 27124 net.cpp:129] Top shape: 128 (128)
I0119 15:58:44.727376 27124 net.cpp:137] Memory required for data: 61440512
I0119 15:58:44.727388 27124 layer_factory.hpp:77] Creating layer conv1
I0119 15:58:44.727423 27124 net.cpp:84] Creating Layer conv1
I0119 15:58:44.727432 27124 net.cpp:406] conv1 <- data
I0119 15:58:44.727452 27124 net.cpp:380] conv1 -> conv1
I0119 15:58:45.872747 27124 net.cpp:122] Setting up conv1
I0119 15:58:45.872804 27124 net.cpp:129] Top shape: 128 96 48 48 (28311552)
I0119 15:58:45.872813 27124 net.cpp:137] Memory required for data: 174686720
I0119 15:58:45.872848 27124 layer_factory.hpp:77] Creating layer relu1
I0119 15:58:45.872865 27124 net.cpp:84] Creating Layer relu1
I0119 15:58:45.872874 27124 net.cpp:406] relu1 <- conv1
I0119 15:58:45.872886 27124 net.cpp:367] relu1 -> conv1 (in-place)
I0119 15:58:45.873127 27124 net.cpp:122] Setting up relu1
I0119 15:58:45.873143 27124 net.cpp:129] Top shape: 128 96 48 48 (28311552)
I0119 15:58:45.873148 27124 net.cpp:137] Memory required for data: 287932928
I0119 15:58:45.873154 27124 layer_factory.hpp:77] Creating layer norm1
I0119 15:58:45.873168 27124 net.cpp:84] Creating Layer norm1
I0119 15:58:45.873173 27124 net.cpp:406] norm1 <- conv1
I0119 15:58:45.873183 27124 net.cpp:380] norm1 -> norm1
I0119 15:58:45.874114 27124 net.cpp:122] Setting up norm1
I0119 15:58:45.874132 27124 net.cpp:129] Top shape: 128 96 48 48 (28311552)
I0119 15:58:45.874137 27124 net.cpp:137] Memory required for data: 401179136
I0119 15:58:45.874142 27124 layer_factory.hpp:77] Creating layer pool1
I0119 15:58:45.874155 27124 net.cpp:84] Creating Layer pool1
I0119 15:58:45.874159 27124 net.cpp:406] pool1 <- norm1
I0119 15:58:45.874166 27124 net.cpp:380] pool1 -> pool1
I0119 15:58:45.874234 27124 net.cpp:122] Setting up pool1
I0119 15:58:45.874258 27124 net.cpp:129] Top shape: 128 96 24 24 (7077888)
I0119 15:58:45.874263 27124 net.cpp:137] Memory required for data: 429490688
I0119 15:58:45.874267 27124 layer_factory.hpp:77] Creating layer conv2
I0119 15:58:45.874281 27124 net.cpp:84] Creating Layer conv2
I0119 15:58:45.874287 27124 net.cpp:406] conv2 <- pool1
I0119 15:58:45.874295 27124 net.cpp:380] conv2 -> conv2
I0119 15:58:45.881944 27124 net.cpp:122] Setting up conv2
I0119 15:58:45.881965 27124 net.cpp:129] Top shape: 128 256 24 24 (18874368)
I0119 15:58:45.881971 27124 net.cpp:137] Memory required for data: 504988160
I0119 15:58:45.881983 27124 layer_factory.hpp:77] Creating layer relu2
I0119 15:58:45.881991 27124 net.cpp:84] Creating Layer relu2
I0119 15:58:45.881996 27124 net.cpp:406] relu2 <- conv2
I0119 15:58:45.882004 27124 net.cpp:367] relu2 -> conv2 (in-place)
I0119 15:58:45.882875 27124 net.cpp:122] Setting up relu2
I0119 15:58:45.882894 27124 net.cpp:129] Top shape: 128 256 24 24 (18874368)
I0119 15:58:45.882899 27124 net.cpp:137] Memory required for data: 580485632
I0119 15:58:45.882905 27124 layer_factory.hpp:77] Creating layer norm2
I0119 15:58:45.882912 27124 net.cpp:84] Creating Layer norm2
I0119 15:58:45.882918 27124 net.cpp:406] norm2 <- conv2
I0119 15:58:45.882925 27124 net.cpp:380] norm2 -> norm2
I0119 15:58:45.883126 27124 net.cpp:122] Setting up norm2
I0119 15:58:45.883138 27124 net.cpp:129] Top shape: 128 256 24 24 (18874368)
I0119 15:58:45.883142 27124 net.cpp:137] Memory required for data: 655983104
I0119 15:58:45.883147 27124 layer_factory.hpp:77] Creating layer pool2
I0119 15:58:45.883157 27124 net.cpp:84] Creating Layer pool2
I0119 15:58:45.883162 27124 net.cpp:406] pool2 <- norm2
I0119 15:58:45.883167 27124 net.cpp:380] pool2 -> pool2
I0119 15:58:45.883208 27124 net.cpp:122] Setting up pool2
I0119 15:58:45.883216 27124 net.cpp:129] Top shape: 128 256 12 12 (4718592)
I0119 15:58:45.883220 27124 net.cpp:137] Memory required for data: 674857472
I0119 15:58:45.883224 27124 layer_factory.hpp:77] Creating layer conv3
I0119 15:58:45.883234 27124 net.cpp:84] Creating Layer conv3
I0119 15:58:45.883240 27124 net.cpp:406] conv3 <- pool2
I0119 15:58:45.883247 27124 net.cpp:380] conv3 -> conv3
I0119 15:58:45.896881 27124 net.cpp:122] Setting up conv3
I0119 15:58:45.896909 27124 net.cpp:129] Top shape: 128 384 12 12 (7077888)
I0119 15:58:45.896915 27124 net.cpp:137] Memory required for data: 703169024
I0119 15:58:45.896929 27124 layer_factory.hpp:77] Creating layer relu3
I0119 15:58:45.896939 27124 net.cpp:84] Creating Layer relu3
I0119 15:58:45.896944 27124 net.cpp:406] relu3 <- conv3
I0119 15:58:45.896952 27124 net.cpp:367] relu3 -> conv3 (in-place)
I0119 15:58:45.897153 27124 net.cpp:122] Setting up relu3
I0119 15:58:45.897166 27124 net.cpp:129] Top shape: 128 384 12 12 (7077888)
I0119 15:58:45.897171 27124 net.cpp:137] Memory required for data: 731480576
I0119 15:58:45.897176 27124 layer_factory.hpp:77] Creating layer conv4
I0119 15:58:45.897189 27124 net.cpp:84] Creating Layer conv4
I0119 15:58:45.897194 27124 net.cpp:406] conv4 <- conv3
I0119 15:58:45.897202 27124 net.cpp:380] conv4 -> conv4
I0119 15:58:45.909169 27124 net.cpp:122] Setting up conv4
I0119 15:58:45.909191 27124 net.cpp:129] Top shape: 128 384 12 12 (7077888)
I0119 15:58:45.909196 27124 net.cpp:137] Memory required for data: 759792128
I0119 15:58:45.909205 27124 layer_factory.hpp:77] Creating layer relu4
I0119 15:58:45.909215 27124 net.cpp:84] Creating Layer relu4
I0119 15:58:45.909220 27124 net.cpp:406] relu4 <- conv4
I0119 15:58:45.909229 27124 net.cpp:367] relu4 -> conv4 (in-place)
I0119 15:58:45.909440 27124 net.cpp:122] Setting up relu4
I0119 15:58:45.909454 27124 net.cpp:129] Top shape: 128 384 12 12 (7077888)
I0119 15:58:45.909459 27124 net.cpp:137] Memory required for data: 788103680
I0119 15:58:45.909463 27124 layer_factory.hpp:77] Creating layer conv5
I0119 15:58:45.909476 27124 net.cpp:84] Creating Layer conv5
I0119 15:58:45.909482 27124 net.cpp:406] conv5 <- conv4
I0119 15:58:45.909497 27124 net.cpp:380] conv5 -> conv5
I0119 15:58:45.918815 27124 net.cpp:122] Setting up conv5
I0119 15:58:45.918835 27124 net.cpp:129] Top shape: 128 256 12 12 (4718592)
I0119 15:58:45.918841 27124 net.cpp:137] Memory required for data: 806978048
I0119 15:58:45.918853 27124 layer_factory.hpp:77] Creating layer relu5
I0119 15:58:45.918861 27124 net.cpp:84] Creating Layer relu5
I0119 15:58:45.918867 27124 net.cpp:406] relu5 <- conv5
I0119 15:58:45.918874 27124 net.cpp:367] relu5 -> conv5 (in-place)
I0119 15:58:45.919065 27124 net.cpp:122] Setting up relu5
I0119 15:58:45.919077 27124 net.cpp:129] Top shape: 128 256 12 12 (4718592)
I0119 15:58:45.919082 27124 net.cpp:137] Memory required for data: 825852416
I0119 15:58:45.919087 27124 layer_factory.hpp:77] Creating layer pool5
I0119 15:58:45.919095 27124 net.cpp:84] Creating Layer pool5
I0119 15:58:45.919100 27124 net.cpp:406] pool5 <- conv5
I0119 15:58:45.919106 27124 net.cpp:380] pool5 -> pool5
I0119 15:58:45.919155 27124 net.cpp:122] Setting up pool5
I0119 15:58:45.919163 27124 net.cpp:129] Top shape: 128 256 6 6 (1179648)
I0119 15:58:45.919168 27124 net.cpp:137] Memory required for data: 830571008
I0119 15:58:45.919173 27124 layer_factory.hpp:77] Creating layer fc6
I0119 15:58:45.919185 27124 net.cpp:84] Creating Layer fc6
I0119 15:58:45.919190 27124 net.cpp:406] fc6 <- pool5
I0119 15:58:45.919198 27124 net.cpp:380] fc6 -> fc6
I0119 15:58:46.414230 27124 net.cpp:122] Setting up fc6
I0119 15:58:46.414288 27124 net.cpp:129] Top shape: 128 4096 (524288)
I0119 15:58:46.414294 27124 net.cpp:137] Memory required for data: 832668160
I0119 15:58:46.414309 27124 layer_factory.hpp:77] Creating layer relu6
I0119 15:58:46.414322 27124 net.cpp:84] Creating Layer relu6
I0119 15:58:46.414330 27124 net.cpp:406] relu6 <- fc6
I0119 15:58:46.414340 27124 net.cpp:367] relu6 -> fc6 (in-place)
I0119 15:58:46.415479 27124 net.cpp:122] Setting up relu6
I0119 15:58:46.415498 27124 net.cpp:129] Top shape: 128 4096 (524288)
I0119 15:58:46.415504 27124 net.cpp:137] Memory required for data: 834765312
I0119 15:58:46.415509 27124 layer_factory.hpp:77] Creating layer drop6
I0119 15:58:46.415520 27124 net.cpp:84] Creating Layer drop6
I0119 15:58:46.415526 27124 net.cpp:406] drop6 <- fc6
I0119 15:58:46.415534 27124 net.cpp:367] drop6 -> fc6 (in-place)
I0119 15:58:46.415568 27124 net.cpp:122] Setting up drop6
I0119 15:58:46.415576 27124 net.cpp:129] Top shape: 128 4096 (524288)
I0119 15:58:46.415581 27124 net.cpp:137] Memory required for data: 836862464
I0119 15:58:46.415586 27124 layer_factory.hpp:77] Creating layer fc7
I0119 15:58:46.415597 27124 net.cpp:84] Creating Layer fc7
I0119 15:58:46.415602 27124 net.cpp:406] fc7 <- fc6
I0119 15:58:46.415611 27124 net.cpp:380] fc7 -> fc7
I0119 15:58:46.599560 27124 net.cpp:122] Setting up fc7
I0119 15:58:46.599609 27124 net.cpp:129] Top shape: 128 4096 (524288)
I0119 15:58:46.599615 27124 net.cpp:137] Memory required for data: 838959616
I0119 15:58:46.599627 27124 layer_factory.hpp:77] Creating layer relu7
I0119 15:58:46.599639 27124 net.cpp:84] Creating Layer relu7
I0119 15:58:46.599644 27124 net.cpp:406] relu7 <- fc7
I0119 15:58:46.599653 27124 net.cpp:367] relu7 -> fc7 (in-place)
I0119 15:58:46.599884 27124 net.cpp:122] Setting up relu7
I0119 15:58:46.599896 27124 net.cpp:129] Top shape: 128 4096 (524288)
I0119 15:58:46.599900 27124 net.cpp:137] Memory required for data: 841056768
I0119 15:58:46.599905 27124 layer_factory.hpp:77] Creating layer drop7
I0119 15:58:46.599912 27124 net.cpp:84] Creating Layer drop7
I0119 15:58:46.599916 27124 net.cpp:406] drop7 <- fc7
I0119 15:58:46.599923 27124 net.cpp:367] drop7 -> fc7 (in-place)
I0119 15:58:46.599944 27124 net.cpp:122] Setting up drop7
I0119 15:58:46.599951 27124 net.cpp:129] Top shape: 128 4096 (524288)
I0119 15:58:46.599956 27124 net.cpp:137] Memory required for data: 843153920
I0119 15:58:46.599959 27124 layer_factory.hpp:77] Creating layer fc8_flickr
I0119 15:58:46.599968 27124 net.cpp:84] Creating Layer fc8_flickr
I0119 15:58:46.599972 27124 net.cpp:406] fc8_flickr <- fc7
I0119 15:58:46.599989 27124 net.cpp:380] fc8_flickr -> fc8_flickr
I0119 15:58:46.600390 27124 net.cpp:122] Setting up fc8_flickr
I0119 15:58:46.600399 27124 net.cpp:129] Top shape: 128 7 (896)
I0119 15:58:46.600401 27124 net.cpp:137] Memory required for data: 843157504
I0119 15:58:46.600409 27124 layer_factory.hpp:77] Creating layer loss
I0119 15:58:46.600415 27124 net.cpp:84] Creating Layer loss
I0119 15:58:46.600419 27124 net.cpp:406] loss <- fc8_flickr
I0119 15:58:46.600423 27124 net.cpp:406] loss <- label
I0119 15:58:46.600432 27124 net.cpp:380] loss -> loss
I0119 15:58:46.600447 27124 layer_factory.hpp:77] Creating layer loss
…
I0119 15:58:46.601142 27124 solver.cpp:172] Creating test net (#0) specified by net file: ./alex_net.prototxt
I0119 15:58:46.601179 27124 net.cpp:294] The NetState phase (1) differed from the phase (0) specified by a rule in layer data
I0119 15:58:46.601336 27124 net.cpp:51] Initializing net from parameters: 
name: "AlexNet"
state {
  phase: TEST
}
layer {
  name: "data"
  type: "Data"
  top: "data"
  top: "label"
  include {
    phase: TEST
  }
  transform_param {
    scale: 0.00390625
  }
  data_param {
    source: "./data3/rail_val_lmdb"
    batch_size: 100
    backend: LMDB
  }
}
layer {
  name: "conv1"
  type: "Convolution"
  bottom: "data"
  top: "conv1"
  param {
    lr_mult: 1
    decay_mult: 1
  }
  param {
    lr_mult: 2
    decay_mult: 0
  }
  convolution_param {
    num_output: 96
    kernel_size: 11
    stride: 4
    weight_filler {
      type: "gaussian"
      std: 0.01
    }
    bias_filler {
      type: "constant"
      value: 0
    }
  }
}
layer {
  name: "relu1"
  type: "ReLU"
  bottom: "conv1"
  top: "conv1"
}
layer {
  name: "norm1"
  type: "LRN"
  bottom: "conv1"
  top: "norm1"
  lrn_param {
    local_size: 5
    alpha: 0.0001
    beta: 0.75
  }
}
layer {
  name: "pool1"
  type: "Pooling"
  bottom: "norm1"
  top: "pool1"
  pooling_param {
    pool: MAX
    kernel_size: 3
    stride: 2
  }
}
layer {
  name: "conv2"
  type: "Convolution"
  bottom: "pool1"
  top: "conv2"
  param {
    lr_mult: 1
    decay_mult: 1
  }
  param {
    lr_mult: 2
    decay_mult: 0
  }
  convolution_param {
    num_output: 256
    pad: 2
    kernel_size: 5
    group: 2
    weight_filler {
      type: "gaussian"
      std: 0.01
    }
    bias_filler {
      type: "constant"
      value: 0.1
    }
  }
}
layer {
  name: "relu2"
  type: "ReLU"
  bottom: "conv2"
  top: "conv2"
}
layer {
  name: "norm2"
  type: "LRN"
  bottom: "conv2"
  top: "norm2"
  lrn_param {
    local_size: 5
    alpha: 0.0001
    beta: 0.75
  }
}
layer {
  name: "pool2"
  type: "Pooling"
  bottom: "norm2"
  top: "pool2"
  pooling_param {
    pool: MAX
    kernel_size: 3
    stride: 2
  }
}
layer {
  name: "conv3"
  type: "Convolution"
  bottom: "pool2"
  top: "conv3"
  param {
    lr_mult: 1
    decay_mult: 1
  }
  param {
    lr_mult: 2
    decay_mult: 0
  }
  convolution_param {
    num_output: 384
    pad: 1
    kernel_size: 3
    weight_filler {
      type: "gaussian"
      std: 0.01
    }
    bias_filler {
      type: "constant"
      value: 0
    }
  }
}
layer {
  name: "relu3"
  type: "ReLU"
  bottom: "conv3"
  top: "conv3"
}
layer {
  name: "conv4"
  type: "Convolution"
  bottom: "conv3"
  top: "conv4"
  param {
    lr_mult: 1
    decay_mult: 1
  }
  param {
    lr_mult: 2
    decay_mult: 0
  }
  convolution_param {
    num_output: 384
    pad: 1
    kernel_size: 3
    group: 2
    weight_filler {
      type: "gaussian"
      std: 0.01
    }
    bias_filler {
      type: "constant"
      value: 0.1
    }
  }
}
layer {
  name: "relu4"
  type: "ReLU"
  bottom: "conv4"
  top: "conv4"
}
layer {
  name: "conv5"
  type: "Convolution"
  bottom: "conv4"
  top: "conv5"
  param {
    lr_mult: 1
    decay_mult: 1
  }
  param {
    lr_mult: 2
    decay_mult: 0
  }
  convolution_param {
    num_output: 256
    pad: 1
    kernel_size: 3
    group: 2
    weight_filler {
      type: "gaussian"
      std: 0.01
    }
    bias_filler {
      type: "constant"
      value: 0.1
    }
  }
}
layer {
  name: "relu5"
  type: "ReLU"
  bottom: "conv5"
  top: "conv5"
}
layer {
  name: "pool5"
  type: "Pooling"
  bottom: "conv5"
  top: "pool5"
  pooling_param {
    pool: MAX
    kernel_size: 3
    stride: 2
  }
}
layer {
  name: "fc6"
  type: "InnerProduct"
  bottom: "pool5"
  top: "fc6"
  param {
    lr_mult: 1
    decay_mult: 1
  }
  param {
    lr_mult: 2
    decay_mult: 0
  }
  inner_product_param {
    num_output: 4096
    weight_filler {
      type: "gaussian"
      std: 0.005
    }
    bias_filler {
      type: "constant"
      value: 0.1
    }
  }
}
layer {
  name: "relu6"
  type: "ReLU"
  bottom: "fc6"
  top: "fc6"
}
layer {
  name: "drop6"
  type: "Dropout"
  bottom: "fc6"
  top: "fc6"
  dropout_param {
    dropout_ratio: 0.5
  }
}
layer {
  name: "fc7"
  type: "InnerProduct"
  bottom: "fc6"
  top: "fc7"
  param {
    lr_mult: 1
    decay_mult: 1
  }
  param {
    lr_mult: 2
    decay_mult: 0
  }
  inner_product_param {
    num_output: 4096
    weight_filler {
      type: "gaussian"
      std: 0.005
    }
    bias_filler {
      type: "constant"
      value: 0.1
    }
  }
}
layer {
  name: "relu7"
  type: "ReLU"
  bottom: "fc7"
  top: "fc7"
}
layer {
  name: "drop7"
  type: "Dropout"
  bottom: "fc7"
  top: "fc7"
  dropout_param {
    dropout_ratio: 0.5
  }
}
layer {
  name: "fc8_flickr"
  type: "InnerProduct"
  bottom: "fc7"
  top: "fc8_flickr"
  param {
    lr_mult: 1
    decay_mult: 1
  }
  param {
    lr_mult: 2
    decay_mult: 0
  }
  inner_product_param {
    num_output: 7
    weight_filler {
      type: "gaussian"
      std: 0.01
    }
    bias_filler {
      type: "constant"
      value: 0
    }
  }
}
layer {
  name: "accuracy"
  type: "Accuracy"
  bottom: "fc8_flickr"
  bottom: "label"
  top: "accuracy"
  include {
    phase: TEST
  }
}
layer {
  name: "loss"
  type: "SoftmaxWithLoss"
  bottom: "fc8_flickr"
  bottom: "label"
  top: "loss"
}
I0119 15:58:46.601444 27124 layer_factory.hpp:77] Creating layer data
I0119 15:58:46.601519 27124 db_lmdb.cpp:35] Opened lmdb ./data3/rail_val_lmdb
I0119 15:58:46.601548 27124 net.cpp:84] Creating Layer data
I0119 15:58:46.601557 27124 net.cpp:380] data -> data
I0119 15:58:46.601565 27124 net.cpp:380] data -> label
I0119 15:58:46.601722 27124 data_layer.cpp:45] output data size: 100,3,200,200
I0119 15:58:46.719993 27124 net.cpp:122] Setting up data
I0119 15:58:46.720038 27124 net.cpp:129] Top shape: 100 3 200 200 (12000000)
I0119 15:58:46.720046 27124 net.cpp:129] Top shape: 100 (100)
I0119 15:58:46.720049 27124 net.cpp:137] Memory required for data: 48000400
I0119 15:58:46.720057 27124 layer_factory.hpp:77] Creating layer label_data_1_split
I0119 15:58:46.720074 27124 net.cpp:84] Creating Layer label_data_1_split
I0119 15:58:46.720080 27124 net.cpp:406] label_data_1_split <- label
I0119 15:58:46.720089 27124 net.cpp:380] label_data_1_split -> label_data_1_split_0
I0119 15:58:46.720101 27124 net.cpp:380] label_data_1_split -> label_data_1_split_1
I0119 15:58:46.720383 27124 net.cpp:122] Setting up label_data_1_split
I0119 15:58:46.720453 27124 net.cpp:129] Top shape: 100 (100)
I0119 15:58:46.720468 27124 net.cpp:129] Top shape: 100 (100)
I0119 15:58:46.720477 27124 net.cpp:137] Memory required for data: 48001200
I0119 15:58:46.720489 27124 layer_factory.hpp:77] Creating layer conv1
I0119 15:58:46.720526 27124 net.cpp:84] Creating Layer conv1
I0119 15:58:46.720540 27124 net.cpp:406] conv1 <- data
I0119 15:58:46.720557 27124 net.cpp:380] conv1 -> conv1
I0119 15:58:46.728487 27124 net.cpp:122] Setting up conv1
I0119 15:58:46.728528 27124 net.cpp:129] Top shape: 100 96 48 48 (22118400)
I0119 15:58:46.728540 27124 net.cpp:137] Memory required for data: 136474800
I0119 15:58:46.728566 27124 layer_factory.hpp:77] Creating layer relu1
I0119 15:58:46.728583 27124 net.cpp:84] Creating Layer relu1
I0119 15:58:46.728593 27124 net.cpp:406] relu1 <- conv1
I0119 15:58:46.728608 27124 net.cpp:367] relu1 -> conv1 (in-place)
I0119 15:58:46.728962 27124 net.cpp:122] Setting up relu1
I0119 15:58:46.728983 27124 net.cpp:129] Top shape: 100 96 48 48 (22118400)
I0119 15:58:46.728992 27124 net.cpp:137] Memory required for data: 224948400
I0119 15:58:46.729002 27124 layer_factory.hpp:77] Creating layer norm1
I0119 15:58:46.729022 27124 net.cpp:84] Creating Layer norm1
I0119 15:58:46.729032 27124 net.cpp:406] norm1 <- conv1
I0119 15:58:46.729044 27124 net.cpp:380] norm1 -> norm1
I0119 15:58:46.730818 27124 net.cpp:122] Setting up norm1
I0119 15:58:46.730851 27124 net.cpp:129] Top shape: 100 96 48 48 (22118400)
I0119 15:58:46.730861 27124 net.cpp:137] Memory required for data: 313422000
I0119 15:58:46.730870 27124 layer_factory.hpp:77] Creating layer pool1
I0119 15:58:46.730888 27124 net.cpp:84] Creating Layer pool1
I0119 15:58:46.730898 27124 net.cpp:406] pool1 <- norm1
I0119 15:58:46.730913 27124 net.cpp:380] pool1 -> pool1
I0119 15:58:46.730994 27124 net.cpp:122] Setting up pool1
I0119 15:58:46.731010 27124 net.cpp:129] Top shape: 100 96 24 24 (5529600)
I0119 15:58:46.731019 27124 net.cpp:137] Memory required for data: 335540400
I0119 15:58:46.731027 27124 layer_factory.hpp:77] Creating layer conv2
I0119 15:58:46.731048 27124 net.cpp:84] Creating Layer conv2
I0119 15:58:46.731060 27124 net.cpp:406] conv2 <- pool1
I0119 15:58:46.731073 27124 net.cpp:380] conv2 -> conv2
I0119 15:58:46.742704 27124 net.cpp:122] Setting up conv2
I0119 15:58:46.742745 27124 net.cpp:129] Top shape: 100 256 24 24 (14745600)
I0119 15:58:46.742756 27124 net.cpp:137] Memory required for data: 394522800
I0119 15:58:46.742777 27124 layer_factory.hpp:77] Creating layer relu2
I0119 15:58:46.742792 27124 net.cpp:84] Creating Layer relu2
I0119 15:58:46.742802 27124 net.cpp:406] relu2 <- conv2
I0119 15:58:46.742816 27124 net.cpp:367] relu2 -> conv2 (in-place)
I0119 15:58:46.744379 27124 net.cpp:122] Setting up relu2
I0119 15:58:46.744406 27124 net.cpp:129] Top shape: 100 256 24 24 (14745600)
I0119 15:58:46.744415 27124 net.cpp:137] Memory required for data: 453505200
I0119 15:58:46.744426 27124 layer_factory.hpp:77] Creating layer norm2
I0119 15:58:46.744459 27124 net.cpp:84] Creating Layer norm2
I0119 15:58:46.744488 27124 net.cpp:406] norm2 <- conv2
I0119 15:58:46.744501 27124 net.cpp:380] norm2 -> norm2
I0119 15:58:46.744889 27124 net.cpp:122] Setting up norm2
I0119 15:58:46.744910 27124 net.cpp:129] Top shape: 100 256 24 24 (14745600)
I0119 15:58:46.744918 27124 net.cpp:137] Memory required for data: 512487600
I0119 15:58:46.744926 27124 layer_factory.hpp:77] Creating layer pool2
I0119 15:58:46.744942 27124 net.cpp:84] Creating Layer pool2
I0119 15:58:46.744951 27124 net.cpp:406] pool2 <- norm2
I0119 15:58:46.744963 27124 net.cpp:380] pool2 -> pool2
I0119 15:58:46.745035 27124 net.cpp:122] Setting up pool2
I0119 15:58:46.745050 27124 net.cpp:129] Top shape: 100 256 12 12 (3686400)
I0119 15:58:46.745059 27124 net.cpp:137] Memory required for data: 527233200
I0119 15:58:46.745065 27124 layer_factory.hpp:77] Creating layer conv3
I0119 15:58:46.745101 27124 net.cpp:84] Creating Layer conv3
I0119 15:58:46.745115 27124 net.cpp:406] conv3 <- pool2
I0119 15:58:46.745129 27124 net.cpp:380] conv3 -> conv3
I0119 15:58:46.767459 27124 net.cpp:122] Setting up conv3
I0119 15:58:46.767506 27124 net.cpp:129] Top shape: 100 384 12 12 (5529600)
I0119 15:58:46.767516 27124 net.cpp:137] Memory required for data: 549351600
I0119 15:58:46.767539 27124 layer_factory.hpp:77] Creating layer relu3
I0119 15:58:46.767554 27124 net.cpp:84] Creating Layer relu3
I0119 15:58:46.767563 27124 net.cpp:406] relu3 <- conv3
I0119 15:58:46.767577 27124 net.cpp:367] relu3 -> conv3 (in-place)
I0119 15:58:46.767894 27124 net.cpp:122] Setting up relu3
I0119 15:58:46.767912 27124 net.cpp:129] Top shape: 100 384 12 12 (5529600)
I0119 15:58:46.767920 27124 net.cpp:137] Memory required for data: 571470000
I0119 15:58:46.767927 27124 layer_factory.hpp:77] Creating layer conv4
I0119 15:58:46.767948 27124 net.cpp:84] Creating Layer conv4
I0119 15:58:46.767956 27124 net.cpp:406] conv4 <- conv3
I0119 15:58:46.767971 27124 net.cpp:380] conv4 -> conv4
I0119 15:58:46.786244 27124 net.cpp:122] Setting up conv4
I0119 15:58:46.786294 27124 net.cpp:129] Top shape: 100 384 12 12 (5529600)
I0119 15:58:46.786303 27124 net.cpp:137] Memory required for data: 593588400
I0119 15:58:46.786319 27124 layer_factory.hpp:77] Creating layer relu4
I0119 15:58:46.786335 27124 net.cpp:84] Creating Layer relu4
I0119 15:58:46.786343 27124 net.cpp:406] relu4 <- conv4
I0119 15:58:46.786355 27124 net.cpp:367] relu4 -> conv4 (in-place)
I0119 15:58:46.786664 27124 net.cpp:122] Setting up relu4
I0119 15:58:46.786679 27124 net.cpp:129] Top shape: 100 384 12 12 (5529600)
I0119 15:58:46.786686 27124 net.cpp:137] Memory required for data: 615706800
I0119 15:58:46.786692 27124 layer_factory.hpp:77] Creating layer conv5
I0119 15:58:46.786711 27124 net.cpp:84] Creating Layer conv5
I0119 15:58:46.786720 27124 net.cpp:406] conv5 <- conv4
I0119 15:58:46.786732 27124 net.cpp:380] conv5 -> conv5
I0119 15:58:46.802521 27124 net.cpp:122] Setting up conv5
I0119 15:58:46.802553 27124 net.cpp:129] Top shape: 100 256 12 12 (3686400)
I0119 15:58:46.802562 27124 net.cpp:137] Memory required for data: 630452400
I0119 15:58:46.802582 27124 layer_factory.hpp:77] Creating layer relu5
I0119 15:58:46.802595 27124 net.cpp:84] Creating Layer relu5
I0119 15:58:46.802603 27124 net.cpp:406] relu5 <- conv5
I0119 15:58:46.802614 27124 net.cpp:367] relu5 -> conv5 (in-place)
I0119 15:58:46.802877 27124 net.cpp:122] Setting up relu5
I0119 15:58:46.802892 27124 net.cpp:129] Top shape: 100 256 12 12 (3686400)
I0119 15:58:46.802898 27124 net.cpp:137] Memory required for data: 645198000
I0119 15:58:46.802906 27124 layer_factory.hpp:77] Creating layer pool5
I0119 15:58:46.802922 27124 net.cpp:84] Creating Layer pool5
I0119 15:58:46.802929 27124 net.cpp:406] pool5 <- conv5
I0119 15:58:46.802939 27124 net.cpp:380] pool5 -> pool5
I0119 15:58:46.803011 27124 net.cpp:122] Setting up pool5
I0119 15:58:46.803023 27124 net.cpp:129] Top shape: 100 256 6 6 (921600)
I0119 15:58:46.803030 27124 net.cpp:137] Memory required for data: 648884400
I0119 15:58:46.803035 27124 layer_factory.hpp:77] Creating layer fc6
I0119 15:58:46.803061 27124 net.cpp:84] Creating Layer fc6
I0119 15:58:46.803081 27124 net.cpp:406] fc6 <- pool5
I0119 15:58:46.803092 27124 net.cpp:380] fc6 -> fc6
I0119 15:58:47.299156 27124 net.cpp:122] Setting up fc6
I0119 15:58:47.299233 27124 net.cpp:129] Top shape: 100 4096 (409600)
I0119 15:58:47.299242 27124 net.cpp:137] Memory required for data: 650522800
I0119 15:58:47.299257 27124 layer_factory.hpp:77] Creating layer relu6
I0119 15:58:47.299271 27124 net.cpp:84] Creating Layer relu6
I0119 15:58:47.299279 27124 net.cpp:406] relu6 <- fc6
I0119 15:58:47.299291 27124 net.cpp:367] relu6 -> fc6 (in-place)
I0119 15:58:47.299609 27124 net.cpp:122] Setting up relu6
I0119 15:58:47.299625 27124 net.cpp:129] Top shape: 100 4096 (409600)
I0119 15:58:47.299631 27124 net.cpp:137] Memory required for data: 652161200
I0119 15:58:47.299636 27124 layer_factory.hpp:77] Creating layer drop6
I0119 15:58:47.299648 27124 net.cpp:84] Creating Layer drop6
I0119 15:58:47.299652 27124 net.cpp:406] drop6 <- fc6
I0119 15:58:47.299661 27124 net.cpp:367] drop6 -> fc6 (in-place)
I0119 15:58:47.299700 27124 net.cpp:122] Setting up drop6
I0119 15:58:47.299710 27124 net.cpp:129] Top shape: 100 4096 (409600)
I0119 15:58:47.299713 27124 net.cpp:137] Memory required for data: 653799600
I0119 15:58:47.299718 27124 layer_factory.hpp:77] Creating layer fc7
I0119 15:58:47.299731 27124 net.cpp:84] Creating Layer fc7
I0119 15:58:47.299736 27124 net.cpp:406] fc7 <- fc6
I0119 15:58:47.299743 27124 net.cpp:380] fc7 -> fc7
I0119 15:58:47.519150 27124 net.cpp:122] Setting up fc7
I0119 15:58:47.519219 27124 net.cpp:129] Top shape: 100 4096 (409600)
I0119 15:58:47.519227 27124 net.cpp:137] Memory required for data: 655438000
I0119 15:58:47.519240 27124 layer_factory.hpp:77] Creating layer relu7
I0119 15:58:47.519255 27124 net.cpp:84] Creating Layer relu7
I0119 15:58:47.519263 27124 net.cpp:406] relu7 <- fc7
I0119 15:58:47.519274 27124 net.cpp:367] relu7 -> fc7 (in-place)
I0119 15:58:47.520370 27124 net.cpp:122] Setting up relu7
I0119 15:58:47.520387 27124 net.cpp:129] Top shape: 100 4096 (409600)
I0119 15:58:47.520392 27124 net.cpp:137] Memory required for data: 657076400
I0119 15:58:47.520397 27124 layer_factory.hpp:77] Creating layer drop7
I0119 15:58:47.520409 27124 net.cpp:84] Creating Layer drop7
I0119 15:58:47.520414 27124 net.cpp:406] drop7 <- fc7
I0119 15:58:47.520421 27124 net.cpp:367] drop7 -> fc7 (in-place)
I0119 15:58:47.520460 27124 net.cpp:122] Setting up drop7
I0119 15:58:47.520468 27124 net.cpp:129] Top shape: 100 4096 (409600)
I0119 15:58:47.520473 27124 net.cpp:137] Memory required for data: 658714800
I0119 15:58:47.520478 27124 layer_factory.hpp:77] Creating layer fc8_flickr
I0119 15:58:47.520488 27124 net.cpp:84] Creating Layer fc8_flickr
I0119 15:58:47.520493 27124 net.cpp:406] fc8_flickr <- fc7
I0119 15:58:47.520501 27124 net.cpp:380] fc8_flickr -> fc8_flickr
I0119 15:58:47.520927 27124 net.cpp:122] Setting up fc8_flickr
I0119 15:58:47.520938 27124 net.cpp:129] Top shape: 100 7 (700)
I0119 15:58:47.520942 27124 net.cpp:137] Memory required for data: 658717600
I0119 15:58:47.520951 27124 layer_factory.hpp:77] Creating layer fc8_flickr_fc8_flickr_0_split
I0119 15:58:47.520958 27124 net.cpp:84] Creating Layer fc8_flickr_fc8_flickr_0_split
I0119 15:58:47.520963 27124 net.cpp:406] fc8_flickr_fc8_flickr_0_split <- fc8_flickr
I0119 15:58:47.520972 27124 net.cpp:380] fc8_flickr_fc8_flickr_0_split -> fc8_flickr_fc8_flickr_0_split_0
I0119 15:58:47.520980 27124 net.cpp:380] fc8_flickr_fc8_flickr_0_split -> fc8_flickr_fc8_flickr_0_split_1
I0119 15:58:47.521020 27124 net.cpp:122] Setting up fc8_flickr_fc8_flickr_0_split
I0119 15:58:47.521028 27124 net.cpp:129] Top shape: 100 7 (700)
I0119 15:58:47.521033 27124 net.cpp:129] Top shape: 100 7 (700)
I0119 15:58:47.521037 27124 net.cpp:137] Memory required for data: 658723200
I0119 15:58:47.521041 27124 layer_factory.hpp:77] Creating layer accuracy
I0119 15:58:47.521051 27124 net.cpp:84] Creating Layer accuracy
I0119 15:58:47.521055 27124 net.cpp:406] accuracy <- fc8_flickr_fc8_flickr_0_split_0
I0119 15:58:47.521086 27124 net.cpp:406] accuracy <- label_data_1_split_0
I0119 15:58:47.521109 27124 net.cpp:380] accuracy -> accuracy
…
